aiModel/dataset/sequences/playing_games/playing_games_WhatsApp Video 2025-09-29 at 18.09.07_b3e87305_t00024.npy (npy, 12800 bytes, 1 tensors)

array f4 [48, 66]
0	0xbd48424a	-0.048891343
1	0xbf89d2b7	-1.076743
2	0x3cbaa5ef	0.022784201
3	0xbf928c29	-1.1449023
4	0x3d8ef843	0.06980946
5	0xbf925c71	-1.1434461
6	0x3de80f10	0.11330998
7	0xbf920d07	-1.1410226
8	0xbdf240cf	-0.118287675
9	0xbf92dea5	-1.1474196
10	0xbe30532f	-0.17219232
11	0xbf92da41	-1.1472856
12	0xbe6a6628	-0.22890532
13	0xbf928fbf	-1.1450118
14	0x3e2d5f23	0.16930823
15	0xbf8e0946	-1.109658
16	0xbea113b6	-0.3146035
17	0xbf8e29d8	-1.110652
18	0x3c8238a5	0.01589615
19	0xbf7f46b7	-0.9971728
20	0xbe10e5ee	-0.14150211
21	0xbf801484	-1.0006261
22	0x3ed50032	0.41601712
23	0xbf421ba0	-0.758234
24	0xbf155a5f	-0.5834102
25	0xbf409ae8	-0.7523637
26	0x3f564304	0.8369601
27	0xbe689ac6	-0.22715291
28	0xbf44009a	-0.7656342
29	0xbe3d59e7	-0.18491326
30	0x3ee7cb81	0.4527245
31	0xbee67b82	-0.45016104
32	0xbeb6098f	-0.35554168
33	0xbeefa83f	-0.4680805
34	0x3ea1cc43	0.31601152
35	0xbef9e805	-0.4880983
36	0xbe630d71	-0.22173096
37	0xbf021e16	-0.5082716
38	0x3ea65e16	0.32493657
39	0xbf13757a	-0.5760113
40	0xbe4d4596	-0.20046076
41	0xbf19840e	-0.59967124
42	0x3eab16ae	0.3341574
43	0xbf11330a	-0.56718504
44	0xbe687f44	-0.22704798
45	0xbf15f747	-0.5858044
46	0x3e9b60a7	0.30347177
47	0xbc002af9	-0.0078227455
48	0xbe9b60a7	-0.30347177
49	0x3c002af9	0.0078227455
50	0x3ea72da7	0.32652017
51	0x3f288d55	0.65840656
52	0xbeaeae5d	-0.34117404
53	0x3f2a1043	0.66431063
54	0x3e97a59a	0.2961853
55	0x3f98097b	1.1877893
56	0xbe950d40	-0.2911167
57	0x3f995aae	1.1980798
58	0x3e9cc72a	0.306207
59	0x3fa1534b	1.2603544
60	0xbe9ccbf7	-0.30624363
61	0x3fa22ad8	1.2669325
62	0x3e74a5ab	0.23891322
63	0x3fb043ff	1.3770751
64	0xbe452ef1	-0.19256188
65	0x3fb1912e	1.387243
66	0xbd2e228c	-0.042513415
67	0xbf8b7c40	-1.0897293
68	0x3cf8be2f	0.030364124
69	0xbf941a04	-1.1570439
70	0x3d9f3a67	0.07774811
71	0xbf93eb8e	-1.155626
72	0x3df95acc	0.12175521
73	0xbf939dcd	-1.1532532
74	0xbde5ab42	-0.112143055
75	0xbf9472f0	-1.1597576
76	0xbe2b058b	-0.16701333
77	0xbf946439	-1.1593086
78	0xbe65716c	-0.22406548
79	0xbf940e76	-1.1566913
80	0x3e358ae8	0.1772877
81	0xbf8facc9	-1.1224605
82	0xbe9e43d7	-0.30911133
83	0xbf8fad6c	-1.1224799
84	0x3cbe901b	0.023262074
85	0xbf8155fd	-1.0104367
86	0xbe0bde9d	-0.13659139
87	0xbf81d39d	-1.0142704
88	0x3ed8da32	0.4235397
89	0xbf449a62	-0.7679807
90	0xbf138238	-0.57620573
91	0xbf428594	-0.75985074
92	0x3f57eada	0.8434273
93	0xbe6deba7	-0.23234425
94	0xbf466b1b	-0.7750718
95	0xbe3ea329	-0.18616928
96	0x3eee4790	0.46538973
97	0xbee8e12e	-0.45484298
98	0xbeb27b54	-0.34859717
99	0xbef573f5	-0.4794003
100	0x3ea772bb	0.3270472
101	0xbefd61bc	-0.49488628
102	0xbe5daa00	-0.21646881
103	0xbf053a10	-0.5204172
104	0x3eab29bf	0.33430287
105	0xbf15410c	-0.5830238
106	0xbe43773c	-0.19088453
107	0xbf1c8327	-0.6113762
108	0x3eaeaa4a	0.34114295
109	0xbf12bd37	-0.5731997
110	0xbe5ca962	-0.2154899
111	0xbf18940f	-0.5960092
112	0x3e9d2f6b	0.3070024
113	0xbbbb165e	-0.0057094535
114	0xbe9d2f6b	-0.3070024
115	0x3bbb165e	0.0057094535
116	0x3eaa485b	0.33258328
117	0x3f2a4ea6	0.6652626
118	0xbeadd080	-0.33948135
119	0x3f2bc141	0.6709176
120	0x3e9a1a99	0.30098417
121	0x3f9a65d8	1.206233
122	0xbe966484	-0.29373562
123	0x3f9b2b85	1.2122656
124	0x3e9f0c04	0.31063855
125	0x3fa37914	1.2771325
126	0xbe9eb182	-0.30994803
127	0x3fa3f939	1.2810432
128	0x3e798f37	0.24371038
129	0x3fb2b6d8	1.396205
130	0xbe491f42	-0.1964083
131	0x3fb3db25	1.4051253
132	0xbd0acee9	-0.03388873
133	0xbf8bf5b8	-1.0934362
134	0x3d23f103	0.04002477
135	0xbf94a1f9	-1.161193
136	0x3db4a0d3	0.08819737
137	0xbf947308	-1.1597605
138	0x3e074a2d	0.1321189
139	0xbf942449	-1.1573573
140	0xbdd48836	-0.10377543
141	0xbf94ff10	-1.1640339
142	0xbe23c306	-0.15992364
143	0xbf94f1b1	-1.1636258
144	0xbe5d14e2	-0.21589997
145	0xbf949e07	-1.1610726
146	0x3e3ff8ed	0.18747301
147	0xbf901f82	-1.1259615
148	0xbe9926a7	-0.29912302
149	0xbf902e4f	-1.1264132
150	0x3d094cee	0.03352063
151	0xbf81c7e6	-1.0139129
152	0xbe04cc2a	-0.12968507
153	0xbf823ea7	-1.017537
154	0x3edc09b4	0.42976153
155	0xbf44a851	-0.7681933
156	0xbf11f66a	-0.57016623
157	0xbf428d11	-0.759965
158	0x3f586798	0.8453307
159	0xbe68f1f5	-0.2274855
160	0xbf447fcb	-0.76757497
161	0xbe3cb553	-0.18428545
162	0x3ef198b5	0.4718682
163	0xbee8453a	-0.45365316
164	0xbeb6c38f	-0.35696074
165	0xbeef8a38	-0.4678514
166	0x3ea9d428	0.33169675
167	0xbefcfb9f	-0.49410722
168	0xbe6563dc	-0.22401375
169	0xbf008484	-0.502022
170	0x3eadd0aa	0.3394826
171	0xbf151f8c	-0.5825126
172	0xbe4f946e	-0.20271465
173	0xbf19a252	-0.60013306
174	0x3eb23127	0.34803125
175	0xbf129ffb	-0.5727536
176	0xbe62a48b	-0.2213308
177	0xbf165caa	-0.58735144
178	0x3e9d6b70	0.3074603
179	0xbb6f157a	-0.0036481307
180	0xbe9d6b70	-0.3074603
181	0x3b6f157a	0.0036481307
182	0x3eab9610	0.33512926
183	0x3f2b524a	0.6692244
184	0xbeae7fb6	-0.3408181
185	0x3f2cc22a	0.6748377
186	0x3e983b93	0.29732952
187	0x3f9b8392	1.2149527
188	0xbe99cf37	-0.30040905
189	0x3f9bfbaa	1.2186177
190	0x3e9d2a19	0.3069618
191	0x3fa47c48	1.2850428
192	0xbea30bab	-0.3184484
193	0x3fa4df22	1.2880595
194	0x3e6eb1b5	0.23309977
195	0x3fb3eb60	1.4056206
196	0xbe529d4c	-0.20567816
197	0x3fb4b6a3	1.4118236
198	0xbccd9e9e	-0.025100049
199	0xbf8a7748	-1.0817652
200	0x3d499b56	0.049220406
201	0xbf930e4f	-1.1488742
202	0x3dc80f73	0.09768572
203	0xbf92de4e	-1.1474092
204	0x3e119ab5	0.14219172
205	0xbf928bda	-1.1448929
206	0xbdc26eb6	-0.09493773
207	0xbf936dd2	-1.151789
208	0xbe1c6655	-0.15273412
209	0xbf9361e5	-1.151425
210	0xbe52a574	-0.20570928
211	0xbf9311b5	-1.1489779
212	0x3e49e8b4	0.19717675
213	0xbf8e6e60	-1.1127434
214	0xbe932623	-0.28740034
215	0xbf8ea410	-1.1143818
216	0x3d33693c	0.04380153
217	0xbf805d07	-1.002839
218	0xbdfd3398	-0.12363356
219	0xbf80d2d9	-1.0064346
220	0x3edf7839	0.4364641
221	0xbf41f3d6	-0.7576269
222	0xbf0fe7c5	-0.5621303
223	0xbf3fbc16	-0.7489637
224	0x3f57485a	0.84094775
225	0xbe63facb	-0.22263639
226	0xbf4085f5	-0.752044
227	0xbe37f1a9	-0.1796328
228	0x3ef451e2	0.47718722
229	0xbee2448a	-0.44192916
230	0xbeb96bdd	-0.36215106
231	0xbee7c1a8	-0.45264935
232	0x3ead7fd9	0.33886603
233	0xbef871c4	-0.48524296
234	0xbe6c6f48	-0.23089325
235	0xbef80c7e	-0.4844703
236	0x3eaf728b	0.34267077
237	0xbf12ebaf	-0.57390875
238	0xbe591307	-0.21198665
239	0xbf15eca2	-0.585642
240	0x3eb500c9	0.35352162
241	0xbf108250	-0.5644884
242	0xbe6c1b98	-0.23057401
243	0xbf1311f9	-0.574493
244	0x3e9bd7e5	0.30438152
245	0xba1e2693	-0.00060329697
246	0xbe9bd7e5	-0.30438152
247	0x3a1e2693	0.00060329697
248	0x3ea30dae	0.31846374
249	0x3f29bb19	0.66301113
250	0xbeb212b9	-0.3477991
251	0x3f2aab6b	0.66667813
252	0x3e8a68f2	0.27033192
253	0x3f99c2e7	1.2012604
254	0xbea4ecd9	-0.3221195
255	0x3f99ad9b	1.2006105
