aiModel/dataset/sequences/playing_games/playing_games_WhatsApp Video 2025-09-29 at 18.09.07_b3e87305_t00120.npy (npy, 12800 bytes, 1 tensors)

array f4 [48, 66]
-0.01722399 -1.0849435 0.057239942 -1.1465421 0.10243878 -1.1424642 0.14263618 -1.1370167
-0.096028335 -1.1520791 -0.14791384 -1.1523911 -0.1947702 -1.1524501 0.20008521 -1.096636
-0.26918226 -1.1166301 0.05953661 -1.0055636 -0.121105604 -1.0133871 0.4429784 -0.7604233
-0.5467793 -0.744689 0.90925705 -0.24250807 -0.8282911 -0.18489385 0.5138032 -0.48683223
-0.4474485 -0.49630585 0.3341522 -0.5439237 -0.3150428 -0.5658603 0.34810588 -0.626257
-0.28882584 -0.63043326 0.35458994 -0.6096831 -0.30300617 -0.61405003 0.3132111 -0.0026048676
-0.3132111 0.0026048676 0.36902353 0.68982667 -0.32614058 0.70324796 0.3812437 1.2503512
-0.2650397 1.2542136 0.3880999 1.3190404 -0.2806684 1.3263171 0.31953257 1.4492431
-0.15656804 1.4511194 -0.017456748 -1.0692735 0.05550991 -1.1294065 0.10016333 -1.1251782
0.13979532 -1.1194851 -0.09536339 -1.1351236 -0.14680794 -1.1352117 -0.19319774 -1.1351573
0.1962229 -1.0797113 -0.26686698 -1.0988647 0.057880756 -0.9908639 -0.120491475 -0.9986699
0.4364312 -0.74891675 -0.53932595 -0.7327878 0.8959407 -0.2431807 -0.8180381 -0.18345843
0.47855937 -0.48399517 -0.4225898 -0.49629506 0.29504222 -0.54160213 -0.29954877 -0.5616244
0.29384324 -0.6190956 -0.2702006 -0.62313765 0.30561793 -0.6033908 -0.287541 -0.60754424
0.3111861 -0.002710743 -0.3111861 0.002710743 0.36376864 0.6834941 -0.32337645 0.6971278
0.37243778 1.2367827 -0.2658592 1.2414038 0.38204217 1.3053641 -0.28160238 1.3127286
0.30827543 1.4340246 -0.15801543 1.435956 -0.017518237 -1.0858622 0.05672566 -1.1462885
0.10210683 -1.1416546 0.14236453 -1.1355281 -0.096410826 -1.1531211 -0.14889963 -1.1533482
-0.196018 -1.1535412 0.19962002 -1.0956587 -0.270272 -1.1169946 0.058758467 -1.0062729
-0.12254882 -1.0148531 0.44121677 -0.761111 -0.5456766 -0.7447003 0.9104893 -0.24893378
-0.828509 -0.1878318 0.48570624 -0.49155524 -0.42318007 -0.5063883 0.30334678 -0.55016524
-0.30572858 -0.5731263 0.30145705 -0.6307804 -0.2779731 -0.6362211 0.31465816 -0.61410797
-0.29391375 -0.6191199 0.31642482 -0.003274553 -0.31642482 0.003274553 0.36895344 0.6916884
-0.3291467 0.7072948 0.37592375 1.2567157 -0.270073 1.260976 0.38672057 1.3277085
-0.28725928 1.3330429 0.31056622 1.4569366 -0.16053143 1.4578066 -0.017523477 -1.0962799
0.057573117 -1.1576232 0.103385076 -1.1528413 0.14402165 -1.1465924 -0.0968314 -1.1649241
-0.14985853 -1.1652083 -0.19731542 -1.1654861 0.20163245 -1.106828 -0.27149636 -1.1287088
0.059115957 -1.0157065 -0.123751156 -1.0249723 0.44394937 -0.7691219 -0.5466293 -0.75262564
0.8638796 -0.25130957 -0.82313573 -0.1910599 0.4912325 -0.49017483 -0.42551556 -0.51591223
0.3103436 -0.55239785 -0.30950034 -0.5858795 0.31665114 -0.6362963 -0.28323442 -0.64814085
0.32472768 -0.6196641 -0.29783288 -0.62995887 0.31952935 -0.0031474032 -0.31952935 0.0031474032
0.3721534 0.6943101 -0.32980424 0.7100925 0.37693858 1.2672783 -0.26645926 1.2695701
00000000: 5319 8dbc 6edf 8abf 6e74 6a3d e4c1 92bf
00000010: 6ccb d13d 443c 92bf 380f 123e c389 91bf
00000020: 81aa c4bd 5477 93bf ba76 17be 8d81 93bf
00000030: d771 47be 7c83 93bf 23e3 4c3e 925e 8cbf
00000040: 42d2 89be bced 8ebf a9dc 733d 4fb6 80bf
00000050: 3706 f8bd abb6 81bf 11ce e23e 1aab 42bf
00000060: baf9 0bbf f0a3 3ebf 12c5 683f 0954 78be
00000070: e30a 54bf d054 3dbe 9b88 033f 1342 f9be
00000080: f817 e5be cd1b febe ff15 ab3e 953e 0bbf
00000090: 4a4d a1be 38dc 10bf ef3a b23e 6152 20bf
000000a0: fbe0 93be 1364 21bf d08c b53e 3114 1cbf
000000b0: a023 9bbe 6232 1dbf 355d a03e 6db6 2abb
000000c0: 355d a0be 6db6 2a3b a7f0 bc3e 7b98 303f
000000d0: e6fb a6be 0f08 343f 6032 c33e 820b a03f
000000e0: 49b3 87be 128a a03f 08b5 c63e 51d6 a83f
000000f0: c5b3 8fbe c2c4 a93f c699 a33e cc80 b93f
00000100: 5f53 20be 48be b93f 7401 8fbc f4dd 88bf
00000110: 5c5e 633d 6490 90bf 6f22 cd3d d705 90bf
00000120: 8126 0f3e 4a4b 8fbf e24d c3bd bb4b 91bf
00000130: d254 16be 9e4e 91bf a1d5 45be d64c 91bf
00000140: a8ee 483e fb33 8abf caa2 88be 99a7 8cbf
00000150: 5f14 6d3d 42a9 7dbf 3cc4 f6bd d5a8 7fbf
00000160: e973 df3e 02b9 3fbf 4411 0abf fb97 3bbf
00000170: 5f5c 653f 5d04 79be f26a 51bf 87dc 3bbe
00000180: bc05 f53e 37ce f7be b15d d8be 631a febe
00000190: c60f 973e 70a6 0abf 755e 99be 9ec6 0fbf
000001a0: 9f72 963e 0d7d 1ebf bc57 8abe f385 1fbf
000001b0: f479 9c3e d277 1abf 9338 93be 0588 1bbf
000001c0: c953 9f3e b9a6 31bb c953 9fbe b9a6 313b
000001d0: e23f ba3e 78f9 2e3f 9991 a5be f876 323f
000001e0: 2ab0 be3e e54e 9e3f b21e 88be 52e6 9e3f
000001f0: 089b c33e 2c16 a73f 302e 90be 7e07 a83f
00000200: 47d6 9d3e 1e8e b73f ccce 21be 68cd b73f
00000210: 6882 8fbc 88fd 8abf 2a59 683d 95b9 92bf
00000220: 631d d13d bd21 92bf 02c8 113e fc58 91bf
00000230: 0a73 c5bd 7999 93bf 2579 18be eaa0 93bf
00000240: f1b8 48be 3da7 93bf 3169 4c3e 8b3e 8cbf
00000250: 1761 8abe aef9 8ebf b8ac 703d 8dcd 80bf
00000260: e0fa fabd b5e6 81bf 2ae7 e13e 2cd8 42bf
00000270: 76b1 0bbf aea4 3ebf d415 693f 7fe8 7ebe
00000280: 2a19 54bf fb56 40be 7dae f83e 21ad fbbe
00000290: 0fab d8be aaa2 01bf 4550 9b3e a1d7 0cbf
000002a0: 7588 9cbe 68b8 12bf 9458 9a3e d37a 21bf
000002b0: 7d52 8ebe 63df 22bf e01a a13e 2e36 1dbf
000002c0: dd7b 96be a47e 1ebf 6f02 a23e e299 56bb
000002d0: 6f02 a2be e299 563b 77e7 bc3e 7e12 313f
000002e0: eb85 a8be 4611 353f 1479 c03e 0fdc a03f
000002f0: 0247 8abe a967 a13f 3d00 c63e 5af2 a93f
00000300: a613 93be 26a1 aa3f 8902 9f3e e67c ba3f
00000310: 5a62 24be 6899 ba3f 658d 8fbc e652 8cbf
00000320: cad1 6b3d ff2c 94bf 8ebb d33d 4e90 93bf
00000330: 697a 133e 8ac3 92bf 8b4f c6bd 3c1c 95bf
00000340: 8474 19be 8c25 95bf 0e0d 4abe a62e 95bf
00000350: bd78 4e3e 8aac 8dbf 9201 8bbe 8879 90bf
00000360: 9323 723d ac02 82bf 3f71 fdbd 4b32 83bf
00000370: 554d e33e 2ce5 44bf e6ef 0bbf 13ac 40bf
00000380: 3727 5d3f a6ab 80be 06b9 52bf 35a5 43be
00000390: d482 fb3e 32f8 fabe 2ddd d9be d312 04bf
000003a0: 5be5 9e3e f269 0dbf d476 9ebe 33fc 15bf
000003b0: 1920 a23e 50e4 22bf 1a04 91be 8fec 25bf
000003c0: b542 a63e 4ea2 1ebf 8d7d 98be fc44 21bf
000003d0: 5a99 a33e aa44 4ebb 5a99 a3be aa44 4e3b
000003e0: e48a be3e 4fbe 313f 1adc a8be 9fc8 353f
000003f0: 18fe c03e 2d36 a23f 596d 88be 4681 a23f
