aiModel/dataset/sequences/playing_games/playing_games_WhatsApp Video 2025-09-29 at 18.09.07_b3e87305_t00000.npy (npy, 12800 bytes, 1 tensors)

array f4 [48, 66]
-0.024118785 -1.2466058 0.065558076 -1.3082787 0.10965551 -1.3067119 0.14773138 -1.3044019
-0.10408859 -1.3153087 -0.16410378 -1.3179846 -0.21804094 -1.3202065 0.19669807 -1.2632886
-0.2881106 -1.2867242 0.048778225 -1.1677557 -0.14364213 -1.177142 0.42014626 -0.8917173
-0.5741287 -0.85342664 0.8859404 -0.5821848 -0.6967232 -0.34754634 1.0541842 -0.38996708
-0.6454185 -0.079382695 1.1659988 -0.30789167 -0.6481776 0.042779025 1.0773263 -0.33010036
-0.57131714 0.0006621335 1.0038496 -0.34344566 -0.5474209 -0.040971477 0.36777177 -0.014174313
-0.36777177 0.014174313 0.4174617 0.6786721 -0.25750408 0.71681106 0.427144 1.2909384
-0.23734868 1.3091189 0.4429453 1.3883791 -0.26122546 1.3954265 0.35257065 1.4845189
-0.08908183 1.5166343 -0.026447132 -1.2653433 0.062330943 -1.3279679 0.10818496 -1.3263724
0.14768285 -1.3240299 -0.105842456 -1.3350638 -0.16555206 -1.3376498 -0.22194257 -1.3394896
0.19773115 -1.2822833 -0.29617402 -1.3041964 0.04718096 -1.1850635 -0.14790393 -1.1948208
0.4215171 -0.9065562 -0.57732326 -0.8687484 0.7711374 -0.65498096 -0.7090733 -0.35427052
1.1265525 -0.48799086 -0.60319525 -0.070640594 1.2553511 -0.43460765 -0.57999873 0.057162978
1.1847775 -0.461932 -0.502957 0.013253236 1.1032094 -0.46245357 -0.47269312 -0.103837214
0.3707306 -0.0147981 -0.3707306 0.0147981 0.43564326 0.69751346 -0.23828596 0.7421138
0.47596094 1.3575542 -0.17078845 1.380999 0.4941407 1.4555656 -0.19035196 1.4714745
0.42776126 1.5569423 -0.013126694 1.5852222 -0.029944358 -1.271982 0.058043793 -1.3348358
0.10466076 -1.3331327 0.14469756 -1.3306714 -0.10825516 -1.3420194 -0.16693485 -1.3445368
-0.22532594 -1.3461578 0.1948332 -1.2886924 -0.30350906 -1.3095636 0.043495994 -1.1907933
-0.1520367 -1.2011126 0.4180138 -0.91159356 -0.58034027 -0.8736784 0.7468973 -0.6600771
-0.71696824 -0.34941795 1.2037957 -0.39219904 -0.6142525 -0.039305225 1.3546618 -0.31801882
-0.59526974 0.08965855 1.2854968 -0.32776126 -0.5181672 0.053454503 1.1982625 -0.34048718
-0.48846963 -0.008996309 0.37067315 -0.015305646 -0.37067315 0.015305646 0.4460658 0.7074844
-0.23084691 0.753834 0.49998403 1.3857485 -0.15099558 1.411981 0.5172601 1.4849082
-0.17049645 1.507263 0.46390942 1.5882045 0.011332771 1.61138 -0.038179938 -1.2813147
0.04934008 -1.34413 0.096820466 -1.3422118 0.13749303 -1.3395402 -0.11606021 -1.3517892
-0.17407873 -1.3542658 -0.23380634 -1.3557038 0.18774152 -1.2972353 -0.3150359 -1.3180174
0.035398476 -1.1982652 -0.16092008 -1.2096622 0.41187432 -0.9181035 -0.58679456 -0.8812995
0.74233603 -0.65973496 -0.7300952 -0.34957433 1.2027591 -0.36112124 -0.6319824 -0.015919564
1.3526082 -0.2790967 -0.6242943 0.11638694 1.2756724 -0.28859344 -0.5426222 0.08715634
1.1907436 -0.30447337 -0.51273197 0.03910279 0.3715899 -0.0167004 -0.3715899 0.0167004
0.44917423 0.71901226 -0.23727353 0.76657945 0.5036065 1.4040569 -0.1565772 1.431235
00000000: c294 c5bc c790 9fbf 5043 863d ad75 a7bf
00000010: 1193 e03d 5642 a7bf e546 173e a4f6 a6bf
00000020: 662c d5bd 095c a8bf d20a 28be b8b3 a8bf
00000030: 2046 5fbe 87fc a8bf 386b 493e 71b3 a1bf
00000040: 3c83 93be 61b3 a4bf adcb 473d 0579 95bf
00000050: ec16 13be 97ac 96bf 691d d73e 9647 64bf
00000060: 19fa 12bf 2b7a 5abf fdcc 623f 100a 15bf
00000070: 745c 32bf 98f1 b1be 82ef 863f c4a9 c7be
00000080: 263a 25bf 6593 a2bd 733f 953f faa3 9dbe
00000090: f8ee 25bf 0f39 2f3d d4e5 893f ea02 a9be
000000a0: d741 12bf 0793 2d3a 257e 803f 1cd8 afbe
000000b0: c723 0cbf b5d1 27bd 954c bc3e 613b 68bc
000000c0: 954c bcbe 613b 683c 8abd d53e 74bd 2d3f
000000d0: 93d7 83be ee80 373f 9eb2 da3e 783d a53f
000000e0: 880b 73be 3591 a73f bac9 e23e 68b6 b13f
000000f0: 58bf 85be 569d b23f 2484 b43e b704 be3f
00000100: 8970 b6bd 1321 c23f a8a7 d8bc c5f6 a1bf
00000110: bb4e 7f3d dafa a9bf 1490 dd3d 92c6 a9bf
00000120: 2c3a 173e d079 a9bf eec3 d8bd 5fe3 aabf
00000130: 7b86 29be 1c38 abbf ea44 63be 6574 abbf
00000140: 097a 4a3e dc21 a4bf 1fa4 97be e8ef a6bf
00000150: d340 413d 29b0 97bf 2174 17be e3ef 98bf
00000160: 17d1 d73e 1114 68bf 75cb 13bf 4c66 5ebf
00000170: 4369 453f d5ac 27bf d485 35bf f262 b5be
00000180: df32 903f f0d9 f9be 016b 1abf 04ac 90bd
00000190: 58af a03f e584 debe cc7a 14bf ba23 6a3d
000001a0: caa6 973f 5a82 ecbe cac1 00bf 1a24 593c
000001b0: f735 8d3f b7c6 ecbe d504 f2be 9ba8 d4bd
000001c0: 67d0 bd3e bb73 72bc 67d0 bdbe bb73 723c
000001d0: a20c df3e 3e90 323f 3c01 74be 2cfb 3d3f
000001e0: 27b1 f33e 56c4 ad3f 2be3 2ebe 93c4 b03f
000001f0: 0300 fd3e f94f ba3f a0eb 42be 4759 bc3f
00000200: 8603 db3e e349 c73f 5811 57bc 90e8 ca3f
00000210: df4d f5bc 4ed0 a2bf 54bf 6d3d e6db aabf
00000220: 6158 d63d 18a4 aabf 992b 143e 7153 aabf
00000230: e2b4 ddbd 4bc7 abbf f8f0 2abe c819 acbf
00000240: d8bb 66be e64e acbf 5b82 473e dff3 a4bf
00000250: 8a65 9bbe c89f a7bf db28 323d ea6b 98bf
00000260: 82af 1bbe 0fbe 99bf e805 d63e 325e 69bf
00000270: 2e91 14bf 63a9 5fbf a934 3f3f d0fa 28bf
00000280: 3b8b 37bf e9e6 b2be fa15 9a3f 50ce c8be
00000290: a73f 1dbf 84fe 20bd 8f65 ad3f 5dd3 a2be
000002a0: 9963 18bf e79e b73d 298b a43f 53d0 a7be
000002b0: 9ba6 04bf 1cf3 5a3d aa60 993f 5654 aebe
000002c0: b118 fabe 4165 13bc dfc8 bd3e 88c4 7abc
000002d0: dfc8 bdbe 88c4 7a3c bd62 e43e b31d 353f
000002e0: 2263 6cbe 44fb 403f e8fd ff3e 3560 b13f
000002f0: 969e 1abe cbbb b43f 286b 043f 7911 be3f
00000300: 9f96 2ebe feed c03f 8985 ed3e 494a cb3f
00000310: 16ad 393c b341 ce3f 9162 1cbd 1f02 a4bf
00000320: d318 4a3d 740c acbf cf49 c63d 99cd abbf
00000330: f9ca 0c3e 0e76 abbf fab0 edbd 6e07 adbf
00000340: b241 32be 9558 adbf ee6a 6fbe b487 adbf
00000350: 503f 403e ce0b a6bf 634c a1be cbb4 a8bf
00000360: fefd 103d c160 99bf 3cc8 24be 36d6 9abf
00000370: 31e1 d23e d508 6bbf 2b38 16bf d89c 61bf
00000380: bc09 3e3f 64e4 28bf 85e7 3abf 68fb b2be
00000390: 03f4 993f e2e4 b8be 99c9 21bf bf69 82bc
000003a0: 4422 ad3f c3e5 8ebe c0d1 1fbf 475c ee3d
000003b0: 3c49 a33f 85c2 93be 4ae9 0abf 067f b23d
000003c0: 496a 983f efe3 9bbe 6742 03bf 3f2a 203d
000003d0: 0841 be3e 47cf 88bc 0841 bebe 47cf 883c
000003e0: 2afa e53e 3011 383f d5f7 72be 8d3e 443f
000003f0: 5bec 003f 23b8 b33f c655 20be b532 b73f
