aiModel/dataset/sequences/playing_games/playing_games_WhatsApp Video 2025-09-29 at 18.09.07_b3e87305_t00096.npy (npy, 12800 bytes, 1 tensors)

array f4 [48, 66]
0	0xbd35b948	-0.04436615
1	0xbf8a8887	-1.0822915
2	0x3d036135	0.032075126
3	0xbf92916f	-1.1450633
4	0x3da0e91c	0.07856962
5	0xbf926d02	-1.1439517
6	0x3df48567	0.11939507
7	0xbf922f1c	-1.1420627
8	0xbdf58864	-0.11988905
9	0xbf92a412	-1.145632
10	0xbe2dd932	-0.16977385
11	0xbf92b12e	-1.1460321
12	0xbe5d251f	-0.21596192
13	0xbf92c17a	-1.1465294
14	0x3e3804a4	0.1797052
15	0xbf8d1e7a	-1.1024926
16	0xbe92e738	-0.2869203
17	0xbf8ee8ef	-1.1164836
18	0x3d14aac0	0.036295652
19	0xbf80e0e8	-1.0068636
20	0xbe13a782	-0.14419368
21	0xbf816dcc	-1.0111632
22	0x3ed60387	0.41799566
23	0xbf408c49	-0.7521406
24	0xbf05233d	-0.52006894
25	0xbf3a612a	-0.7280451
26	0x3f4abcab	0.79194134
27	0xbe670554	-0.22560626
28	0xbf476b2b	-0.778979
29	0xbe2baaaa	-0.16764322
30	0x3f0c10ea	0.5471331
31	0xbee71dfe	-0.4514007
32	0xbefc1046	-0.49231166
33	0xbef63446	-0.48086756
34	0x3ec70407	0.3887026
35	0xbf026ee6	-0.5095047
36	0xbeb76649	-0.35820225
37	0xbf0f8941	-0.5606881
38	0x3ecd3855	0.4008204
39	0xbf17571a	-0.5911728
40	0xbea9b5a5	-0.33146396
41	0xbf1ee845	-0.62073165
42	0x3ecff226	0.40614432
43	0xbf1552f1	-0.58329684
44	0xbeaa12bb	-0.33217415
45	0xbf1ad843	-0.6048624
46	0x3e977b06	0.29586047
47	0xba2d3272	-0.0006606943
48	0xbe977b06	-0.29586047
49	0x3a2d3272	0.0006606943
50	0x3eb4d284	0.3531686
51	0x3f30b059	0.69019085
52	0xbea0002b	-0.31250128
53	0x3f3440e8	0.7041154
54	0x3ea41aa5	0.32051578
55	0x3f9fa9ea	1.2473729
56	0xbe8a4125	-0.27002826
57	0x3fa0d603	1.2565311
58	0x3ea7700d	0.32702675
59	0x3fa90c13	1.320681
60	0xbe92d119	-0.28675154
61	0x3fa9d3b6	1.3267734
62	0x3e892fbe	0.26794237
63	0x3fb7b44c	1.4351897
64	0xbe2db304	-0.1696282
65	0x3fb99937	1.4499882
66	0xbd3b7bf4	-0.045772508
67	0xbf85d718	-1.0456266
68	0x3cea0d6f	0.028570859
69	0xbf8d9a5e	-1.1062734
70	0x3d95d8a7	0.07316714
71	0xbf8d7749	-1.1052028
72	0x3de52214	0.111881405
73	0xbf8d3bd9	-1.1033889
74	0xbdf394ba	-0.11893602
75	0xbf8dac6c	-1.1068244
76	0xbe2bb49d	-0.16768117
77	0xbf8db907	-1.1072091
78	0xbe5907ac	-0.21194333
79	0xbf8dc915	-1.107699
80	0x3e2dc965	0.16971357
81	0xbf885f5a	-1.0654099
82	0xbe8f333a	-0.2796877
83	0xbf8a12b1	-1.0786954
84	0x3cff7c16	0.031187098
85	0xbf790778	-0.9727702
86	0xbe11255c	-0.14174408
87	0xbf7a177f	-0.976921
88	0x3ed0736e	0.40713066
89	0xbf3a0704	-0.72666955
90	0xbefe2a70	-0.49641752
91	0xbf342b90	-0.7037897
92	0x3f468ea1	0.77561384
93	0xbe529a15	-0.2056659
94	0xbf42b368	-0.76055
95	0xbe2a86d5	-0.16652997
96	0x3f061092	0.52369034
97	0xbee0da02	-0.43916327
98	0xbef0f56c	-0.47062242
99	0xbef8d5b8	-0.48600554
100	0x3ebd04b4	0.3691765
101	0xbf018b84	-0.5060351
102	0xbeb27f77	-0.34862873
103	0xbf0bdb04	-0.54631066
104	0x3ec3d840	0.38250923
105	0xbf17a0d8	-0.59229803
106	0xbe952048	-0.2912619
107	0xbf19a65f	-0.6001949
108	0x3ec88644	0.39164937
109	0xbf13dc72	-0.5775825
110	0xbe93b049	-0.28845432
111	0xbf16af98	-0.58861685
112	0x3e92668d	0.28593865
113	0xb9dfe12f	-0.0004270165
114	0xbe92668d	-0.28593865
115	0x39dfe12f	0.0004270165
116	0x3eac8e0d	0.33702126
117	0x3f2a9a93	0.6664211
118	0xbe9cee2d	-0.30650464
119	0x3f2dd18f	0.67897886
120	0x3e9df181	0.30848315
121	0x3f9a1745	1.2038351
122	0xbe87ef73	-0.26549873
123	0x3f9b242e	1.2120416
124	0x3ea30a3f	0.31843755
125	0x3fa31455	1.274058
126	0xbe903d59	-0.28171805
127	0x3fa3be96	1.2792537
128	0x3e824683	0.2544442
129	0x3fb15e59	1.3856918
130	0xbe2c7d4c	-0.16844672
131	0x3fb3365c	1.4000964
132	0xbd37c1d3	-0.04486258
133	0xbf8bff49	-1.0937282
134	0x3d0a3c42	0.033748873
135	0xbf941d96	-1.1571529
136	0x3da512ab	0.08060201
137	0xbf93f828	-1.1560106
138	0x3df78d2f	0.120874755
139	0xbf93b972	-1.1540968
140	0xbdf9e81e	-0.12202476
141	0xbf94323e	-1.1577833
142	0xbe316cb5	-0.17326625
143	0xbf943f6d	-1.1581856
144	0xbe60d26f	-0.21955274
145	0xbf945056	-1.1587017
146	0x3e3928e2	0.18082002
147	0xbf8ea16e	-1.1143014
148	0xbe94e0a1	-0.29077628
149	0xbf906d3c	-1.1283336
150	0x3d0f94a1	0.035053853
151	0xbf823c5c	-1.017467
152	0xbe1575ec	-0.14595765
153	0xbf82cabb	-1.0218118
154	0x3edc023b	0.42970452
155	0xbf42e7ee	-0.76135147
156	0xbf05174a	-0.5198866
157	0xbf3cb449	-0.73712593
158	0x3f52e6a0	0.82383156
159	0xbe52ef50	-0.20599103
160	0xbf4be90b	-0.7965247
161	0xbe3074da	-0.17232075
162	0x3f06d8d9	0.52674633
163	0xbef59d7d	-0.47971717
164	0xbefb688c	-0.491032
165	0xbf024bed	-0.50897104
166	0x3eb60e7a	0.3555792
167	0xbf0f971f	-0.5608997
168	0xbeb9e753	-0.363093
169	0xbf1352d3	-0.57548255
170	0x3ebb247d	0.36551276
171	0xbf26206b	-0.64893216
172	0xbe9cdefb	-0.3063887
173	0xbf21b54a	-0.6316725
174	0x3ec17d9b	0.37791142
175	0xbf218677	-0.630958
176	0xbe9b4d7f	-0.30332562
177	0xbf1ecd3c	-0.6203191
178	0x3e9a614f	0.30152366
179	0x39936f0c	0.0002812076
180	0xbe9a614f	-0.30152366
181	0xb9936f0c	-0.0002812076
182	0x3eac43d0	0.33645487
183	0x3f32d74d	0.6985977
184	0xbeb392a5	-0.35072818
185	0x3f35f2ed	0.710738
186	0x3e9b2682	0.30302817
187	0x3fa1540e	1.2603776
188	0xbea1acda	-0.31577188
189	0x3fa2371f	1.2673072
190	0x3e9fb2fc	0.31191242
191	0x3faabd19	1.3338958
192	0xbeab3340	-0.33437538
193	0x3fab43e6	1.3380096
194	0x3e7811f0	0.24225593
195	0x3fb9bd1d	1.4510838
196	0xbe5c8b27	-0.21537457
197	0x3fbb8f26	1.465306
198	0xbd1556ee	-0.036459856
199	0xbf8c14c6	-1.094384
200	0x3d2f7c70	0.042843282
201	0xbf942fda	-1.1577103
202	0x3db78e58	0.08962697
203	0xbf94085d	-1.1565052
204	0x3e04df26	0.1297575
205	0xbf93c719	-1.1545135
206	0xbde89dd3	-0.113582276
207	0xbf944e1c	-1.1586337
208	0xbe290525	-0.16505869
209	0xbf945ca7	-1.1590775
210	0xbe5874b8	-0.21138275
211	0xbf946eac	-1.1596274
212	0x3e41c528	0.18922865
213	0xbf8ea03c	-1.114265
214	0xbe90f4a4	-0.28311646
215	0xbf908fe2	-1.129391
216	0x3d3123ba	0.043246962
217	0xbf82417f	-1.0176238
218	0xbe0d5d45	-0.13805111
219	0xbf82dc60	-1.0223503
220	0x3edf588d	0.43622246
221	0xbf43369e	-0.76255214
222	0xbf090456	-0.5352224
223	0xbf3d8668	-0.7403321
224	0x3f551222	0.83230793
225	0xbe50ce37	-0.20391165
226	0xbf4a5f2b	-0.79051465
227	0xbe2ab347	-0.16669951
228	0x3f03391f	0.51259035
229	0xbefa8841	-0.48932078
230	0xbf016d19	-0.50557095
231	0xbf00d52a	-0.5032526
232	0x3ea905c1	0.33012202
233	0xbf11d5e7	-0.56967014
234	0xbebdc0db	-0.370612
235	0xbf132677	-0.5748057
236	0x3eb0bf72	0.3452106
237	0xbf290aa8	-0.66031885
238	0xbeb4c633	-0.35307464
239	0xbf226c03	-0.6344606
240	0x3eb9875f	0.36236092
241	0xbf23e1bc	-0.6401632
242	0xbeb6506c	-0.35608232
243	0xbf1ee8f6	-0.6207422
244	0x3e9e7cb0	0.30954504
245	0x39df1661	0.00042550548
246	0xbe9e7cb0	-0.30954504
247	0xb9df1661	-0.00042550548
248	0x3ea83b65	0.32857814
249	0x3f324806	0.6964115
250	0xbebac2a5	-0.36476627
251	0x3f34cbe3	0.70623606
252	0x3e98f018	0.29870677
253	0x3fa11c19	1.25867
254	0xbea90b30	-0.33016348
255	0x3fa19f04	1.2626653
