aiModel/dataset/sequences/playing_games/playing_games_WhatsApp Video 2025-09-29 at 18.09.07_b3e87305_t00072.npy (npy, 12800 bytes, 1 tensors)

array f4 [48, 66]
00000000: d8a1 9bbc ad32 8dbf 6831 643d bad3 95bf
00000010: 96d9 cf3d 7cb3 95bf d4a2 0f3e 8e68 95bf
00000020: 50f3 cabd 0f04 96bf 3153 1dbe 170a 96bf
00000030: 8c5d 4fbe ab0d 96bf 2823 463e 131b 90bf
00000040: 95f8 92be ceb0 91bf aea0 5f3d 4faf 82bf
00000050: 4c9f f6bd ba5c 83bf 6af4 d43e 29bb 45bf
00000060: d804 12bf d6d5 40bf 6b10 5a3f 8060 76be
00000070: eea3 4cbf 5a41 28be 85c9 0a3f 3030 f9be
00000080: 9508 11bf a3ad f1be b94e bb3e 3c99 0cbf
00000090: 5e0e d4be 43b2 09bf 3d15 be3e 9e37 25bf
000000a0: fbc0 d7be 61a8 1fbf 3fc9 c63e 45df 20bf
000000b0: 919b dbbe 288f 1bbf 1f76 953e 255e e5bb
000000c0: 1f76 95be 255e e53b 7a9e b73e 9a20 303f
000000d0: ac2d a7be 6ede 323f b594 ae3e d2f0 9f3f
000000e0: 121f 8fbe 5b5f a13f 9624 b13e 0a9e a93f
000000f0: 1e9e 9bbe 3231 ab3f a1c5 9d3e 09dc b73f
00000100: 5e23 18be a2bf b83f 70c0 ccbc 7590 8fbf
00000110: 3133 4e3d 2756 98bf a15f c63d 0637 98bf
00000120: 0f86 0b3e 69f1 97bf 4065 dbbd c174 98bf
00000130: 3285 25be 3378 98bf c40b 58be 557a 98bf
00000140: c075 433e 5f92 92bf a637 97be 310b 94bf
00000150: 4420 523d 17f6 84bf 7915 02be df92 85bf
00000160: f074 d83e f3f1 48bf cb70 13bf b3f6 43bf
00000170: 6238 5c3f 45af 73be 9e8f 51bf af45 2abe
00000180: da79 0e3f 0750 fbbe 405f 10bf 2e12 f7be
00000190: f4fa c53e 7717 0ebf 61ab cbbe bdef 0bbf
000001a0: 60a0 cd3e 4c4d 27bf 910b c7be 4c31 22bf
000001b0: 4104 d43e 8ccd 22bf 7e8d cbbe 111c 1ebf
000001c0: 763b 983e 88ab d6bb 763b 98be 88ab d63b
000001d0: 512c ba3e ce42 333f b633 acbe aae2 363f
000001e0: c72e b33e 3761 a23f 8d56 92be 4af0 a33f
000001f0: 7682 b73e 1e35 ac3f 1767 9dbe f4ca ad3f
00000200: b4bd 9c3e dad3 ba3f 3716 22be d221 bc3f
00000210: df80 02bd 7515 8fbf 9819 2a3d e7d1 97bf
00000220: a272 b43d 46b7 97bf 60c4 023e 7b7a 97bf
00000230: 1c50 ecbd 4ae3 97bf 4e92 2cbe f6e4 97bf
00000240: f3c8 5ebe a0e7 97bf 1720 3a3e 273b 92bf
00000250: b12e 99be 4a85 93bf 7f26 373d 28a3 84bf
00000260: 6f5e 08be 7123 85bf 36f8 d73e 9f1d 48bf
00000270: 977a 13bf 341a 43bf 1749 5a3f 8994 71be
00000280: c2f3 52bf c4a6 28be b8f4 0b3f dc69 f7be
00000290: 1060 0ebf 06b5 f5be 332c c33e 27c8 0cbf
000002a0: b032 c8be 193b 0bbf 6ee6 c93e 51f8 24bf
000002b0: 4269 c6be 1760 21bf 50ca d03e a761 20bf
000002c0: 6f72 cabe 3049 1dbf a4eb 973e 3692 ccbb
000002d0: a4eb 97be 3692 cc3b dae8 bb3e 6dd4 323f
000002e0: fe98 abbe abd5 363f 5962 b93e ddd5 a13f
000002f0: d984 8dbe 6eb7 a33f 62aa be3e e188 ab3f
00000300: c013 96be 4772 ad3f 77a1 a03e 6458 ba3f
00000310: 98a2 1ebe ea38 bc3f c698 ffbc 6087 8dbf
00000320: cfa4 293d 8f3b 96bf 84ca b33d bb21 96bf
00000330: de21 023e d4e7 95bf 7588 ebbd 5a4a 96bf
00000340: be18 2cbe ec4b 96bf 4f2a 5ebe a94e 96bf
00000350: 9a3f 393e e4bf 90bf dbe2 98be 16f2 91bf
00000360: e3d3 373d e121 83bf 721f 07be cba0 83bf
00000370: de9a d83e 8eac 45bf ca87 11bf 6c52 40bf
00000380: 10ba 563f 4b73 65be 5d61 53bf 56ed 20be
00000390: 9d81 023f b245 f4be 9bea 09bf 45e1 f0be
000003a0: fcf6 ae3e 24cf 0cbf 33b0 bdbe cb73 08bf
000003b0: 9c15 b83e 9e38 25bf 94a1 b9be 90c9 1ebf
000003c0: 2955 bf3e e895 1fbf 7d9d c0be babd 1abf
000003d0: f67b 973e 4c59 43bb f67b 97be 4c59 433b
000003e0: ba63 b43e 2160 333f ef63 b0be bdb7 363f
000003f0: d378 af3e 58ad a13f b705 94be b76e a33f
-0.018998072 -1.103109 0.05571118 -1.1705239 0.10148923 -1.1695399 0.14026958 -1.1672533
-0.099096894 -1.1719989 -0.15363766 -1.1721829 -0.20250529 -1.1722921 0.19349349 -1.1258262
-0.28705278 -1.1382082 0.054596595 -1.020975 -0.12042102 -1.0262673 0.41592723 -0.7723871
-0.5703864 -0.7532629 0.851813 -0.2406025 -0.79937637 -0.1643118 0.54213744 -0.48669577
-0.5665372 -0.47202787 0.36583498 -0.5492132 -0.4141721 -0.5378763 0.3712558 -0.6453799
-0.4213942 -0.623663 0.38825414 -0.6284068 -0.42892125 -0.60765314 0.29191682 -0.0069997483
-0.29191682 0.0069997483 0.35863096 0.68799746 -0.32652032 0.6987065 0.3409783 1.2495368
-0.27953392 1.2607225 0.34598225 1.3251355 -0.3039407 1.3374388 0.3081484 1.4364024
-0.14857242 1.4433482 -0.024994105 -1.121596 0.05034179 -1.1901292 0.096862085 -1.1891792
0.13625358 -1.1870548 -0.10712671 -1.191063 -0.16164091 -1.1911682 -0.21098238 -1.1912333
0.19087887 -1.1450919 -0.29534644 -1.1565915 0.051300302 -1.0387601 -0.12703504 -1.0435447
0.42276716 -0.78494185 -0.57593983 -0.7654831 0.86023533 -0.23797329 -0.8185977 -0.16628145
0.5565468 -0.49084494 -0.5639534 -0.48256058 0.38668025 -0.55504555 -0.3977919 -0.54662687
0.4016142 -0.6535232 -0.38876012 -0.6335647 0.41409495 -0.6359489 -0.39756387 -0.61761576
0.29732865 -0.00655121 -0.29732865 0.00655121 0.36361936 0.7002381 -0.33633202 0.7143961
0.34996626 1.2685918 -0.28581658 1.2807705 0.3584172 1.345371 -0.30742714 1.3577561
0.30613482 1.4595902 -0.15828787 1.4697821 -0.031861182 -1.1178423 0.041528314 -1.1860932
0.08810927 -1.1852806 0.12770224 -1.1834253 -0.11538717 -1.1866238 -0.16852686 -1.1866748
-0.21756344 -1.1867561 0.18176304 -1.1424302 -0.29918435 -1.1525052 0.044714447 -1.0362291
-0.13317274 -1.0401441 0.42181557 -0.781702 -0.5760893 -0.7621186 0.85267776 -0.23591818
-0.82403195 -0.16469866 0.54670286 -0.48322952 -0.5561533 -0.47989672 0.3811966 -0.5499291
-0.39101171 -0.5438705 0.39433616 -0.644414 -0.3875218 -0.63037246 0.40779352 -0.62649006
-0.3954043 -0.614398 0.29671967 -0.0062430156 -0.29671967 0.0062430156 0.3670109 0.69855386
-0.3351516 0.7141978 0.36207846 1.2643391 -0.27640417 1.2790353 0.37239367 1.3401147
-0.29311943 1.35505 0.31373188 1.4558225 -0.15491712 1.4704869 -0.031200778 -1.1056938
0.04141694 -1.1736926 0.08778861 -1.1729044 0.12708232 -1.1711373 -0.115006365 -1.174144
-0.16806313 -1.174192 -0.21695827 -1.1742755 0.18090668 -1.130856 -0.29860577 -1.1402004
0.044879805 -1.0244714 -0.13195589 -1.0283445 0.42305654 -0.7721642 -0.5684782 -0.75125766
0.8387766 -0.22407262 -0.8257044 -0.15715536 0.50979024 -0.47709423 -0.53873605 -0.47046867
0.3417281 -0.5500357 -0.37048492 -0.53301686 0.35953987 -0.64539516 -0.36256087 -0.6202631
0.3736966 -0.62338114 -0.37620154 -0.6044575 0.29586762 -0.0029807864 -0.29586762 0.0029807864
0.35232335 0.70068556 -0.34451243 0.7137411 0.3427187 1.2631025 -0.2891061 1.2768162
