aiModel/dataset/sequences/playing_games/playing_games_WhatsApp Video 2025-09-29 at 18.09.07_b3e87305_t00048.npy (npy, 12800 bytes, 1 tensors)

array f4 [48, 66]
0.034719452 -1.0684446 0.10863471 -1.1335821 0.15235649 -1.1315706 0.19093868 -1.1278119
-0.042776898 -1.1352131 -0.09838147 -1.1345385 -0.1456127 -1.1338801 0.24844451 -1.0865705
-0.22526579 -1.1024158 0.10687111 -0.98847103 -0.070388265 -0.9936174 0.4646018 -0.73462224
-0.53464466 -0.72073185 0.8129653 -0.23264778 -0.76444435 -0.17221302 0.53554887 -0.43898284
-0.48481226 -0.39183027 0.37199232 -0.47611073 -0.34698072 -0.43507284 0.35710457 -0.5564359
-0.35385054 -0.5189701 0.3786789 -0.5515852 -0.37647125 -0.51225615 0.29862165 -0.0020677533
-0.29862165 0.0020677533 0.32853508 0.67378175 -0.33298284 0.6835331 0.3172333 1.2139894
-0.29697514 1.2142532 0.32157513 1.2862293 -0.3184016 1.2858826 0.2680936 1.4058794
-0.18585208 1.4061315 0.033314604 -1.067444 0.10651405 -1.13264 0.15015756 -1.1307276
0.18913242 -1.1269771 -0.044574514 -1.1344575 -0.09993739 -1.1339642 -0.14718536 -1.1334627
0.24668653 -1.0858524 -0.22719182 -1.1023269 0.104700565 -0.9876021 -0.071812645 -0.9927207
0.46339482 -0.7353626 -0.5359906 -0.7218059 0.8120587 -0.23284411 -0.7611246 -0.17344189
0.53287065 -0.43902388 -0.48389402 -0.38992876 0.3698109 -0.47637978 -0.34692734 -0.4315882
0.3545475 -0.55689645 -0.3568823 -0.5178899 0.37649545 -0.5519803 -0.37835467 -0.51140624
0.29844382 -0.0031862895 -0.29844382 0.0031862895 0.34182832 0.6717924 -0.3284074 0.6824357
0.32704213 1.2113928 -0.29560706 1.2124281 0.33101666 1.2835891 -0.31669378 1.2853019
0.27688134 1.4041737 -0.18586041 1.4037508 0.02820886 -1.0682418 0.10113792 -1.1331297
0.14486554 -1.1311901 0.18423763 -1.1272781 -0.049913228 -1.1352772 -0.10501956 -1.1349083
-0.15224762 -1.1344748 0.24170952 -1.0859498 -0.23217805 -1.1032357 0.09942101 -0.9882837
-0.07711765 -0.99385923 0.45965248 -0.73643404 -0.54020214 -0.72295225 0.81578493 -0.23388243
-0.76503134 -0.17614646 0.5294625 -0.43919805 -0.48945752 -0.3915467 0.36617404 -0.47669116
-0.35147536 -0.43278855 0.34807903 -0.5576589 -0.36039513 -0.5188929 0.3703885 -0.55264795
-0.38280657 -0.513151 0.29764298 -0.0030774386 -0.29764298 0.0030774386 0.34784403 0.6725287
-0.3260824 0.6832867 0.32906264 1.213049 -0.2953194 1.2140728 0.33335066 1.2853088
-0.31702304 1.2871742 0.27571127 1.4071705 -0.18557148 1.4057522 0.027332056 -1.0685015
0.10041611 -1.1334186 0.14433034 -1.131587 0.18395899 -1.1276587 -0.050657604 -1.1357987
-0.1057858 -1.1355628 -0.15302432 -1.1352887 0.24156734 -1.0864078 -0.23312496 -1.1042967
0.098453835 -0.9886608 -0.07819812 -0.9944626 0.4608928 -0.73685896 -0.53895116 -0.7233175
0.8181459 -0.2344482 -0.7674018 -0.1773605 0.5304366 -0.43825698 -0.49166912 -0.3915956
0.3672366 -0.47613275 -0.35237366 -0.43246138 0.34604558 -0.5568291 -0.36124566 -0.5193464
0.36915928 -0.55213225 -0.38370487 -0.5139177 0.29854003 -0.0015466312 -0.29854003 0.0015466312
0.34807163 0.6730791 -0.3272546 0.6835284 0.32842365 1.2133108 -0.29653814 1.213816
00000000: fc35 0e3d cbc2 88bf e07b de3d 3819 91bf
00000010: 5703 1c3e 4ed7 90bf 6e85 433e 245c 90bf
00000020: d436 2fbd aa4e 91bf 397c c9bd 8f38 91bf
00000030: 7f1b 15be fc22 91bf 3d68 7e3e be14 8bbf
00000040: 13ac 66be f61b 8dbf 3edf da3d 700c 7dbf
00000050: b927 90bd b65d 7ebf 4ae0 ed3e 3410 3cbf
00000060: 79de 08bf e281 38bf 7e1e 503f 383b 6ebe
00000070: a0b2 43bf 9c58 30be bb19 093f 5cc2 e0be
00000080: 5039 f8be fa9d c8be c775 be3e c9c4 f3be
00000090: 75a7 b1be dec1 debe 69d6 b63e 9572 0ebf
000000a0: e62b b5be 39db 04bf 33e2 c13e b034 0dbf
000000b0: d7c0 c0be 3823 03bf f0e4 983e 2583 07bb
000000c0: f0e4 98be 2583 073b c035 a83e f67c 2c3f
000000d0: ba7c aabe 06fc 2e3f 676c a23e 0164 9b3f
000000e0: 200d 98be a66c 9b3f 7fa5 a43e 29a3 a43f
000000f0: 8905 a3be cd97 a43f 9043 893e dbf3 b33f
00000100: 0250 3ebe 1efc b33f e574 083d 01a2 88bf
00000110: 0a24 da3d 59fa 90bf e7c2 193e afbb 90bf
00000120: eeab 413e c940 90bf c493 36bd e735 91bf
00000130: f9ab ccbd bd25 91bf c2b7 16be 4e15 91bf
00000140: 659b 7c3e 36fd 8abf f9a4 68be 0c19 8dbf
00000150: 406d d63d 7ed3 7cbf 8212 93bd f222 7ebf
00000160: 1642 ed3e b940 3cbf ae36 09bf 45c8 38bf
00000170: 14e3 4f3f b06e 6ebe 10d9 42bf c09a 31be
00000180: 366a 083f bdc7 e0be f5c0 f7be bea4 c7be
00000190: db57 bd3e 0de8 f3be 76a0 b1be 21f9 dcbe
000001a0: 4087 b53e c490 0ebf 47b9 b6be 6f94 04bf
000001b0: 03c4 c03e 954e 0dbf b4b7 c1be 85eb 02bf
000001c0: a1cd 983e 11d1 50bb a1cd 98be 11d1 503b
000001d0: 1f04 af3e 96fa 2b3f 0425 a8be 1bb4 2e3f
000001e0: 1172 a73e eb0e 9b3f cf59 97be d830 9b3f
000001f0: 047b a93e a64c a43f b025 a2be c684 a43f
00000200: 64c3 8d3e f7bb b33f 3152 3ebe 1bae b33f
00000210: 4416 e73c 26bc 88bf 6621 cf3d 650a 91bf
00000220: a257 143e d6ca 90bf caa8 3c3e a64a 90bf
00000230: d071 4cbd c350 91bf 7f14 d7bd ad44 91bf
00000240: cde6 1bbe 7836 91bf b382 773e 6700 8bbf
00000250: 15c0 6dbe d436 8dbf 3e9d cb3d 2900 7dbf
00000260: dcef 9dbd 8f6d 7ebf 9257 eb3e f186 3cbf
00000270: b04a 0abf 6613 39bf 48d7 503f e07e 6fbe
00000280: 18d9 43bf bd5f 34be db8a 073f 91de e0be
00000290: 2d9a fabe cf78 c8be 2a7b bb3e dd10 f4be
000002a0: 94f4 b3be 7696 ddbe 6a37 b23e bcc2 0ebf
000002b0: b685 b8be 2ad6 04bf 90a3 bd3e 567a 0dbf
000002c0: 39ff c3be dd5d 03bf a964 983e daae 49bb
000002d0: a964 98be daae 493b 9d18 b23e d72a 2c3f
000002e0: 46f4 a6be e1eb 2e3f e67a a83e 3145 9b3f
000002f0: 1b34 97be bd66 9b3f f0ac aa3e 0085 a43f
00000300: d850 a2be 20c2 a43f 072a 8d3e 2a1e b43f
00000310: 7306 3ebe b0ef b33f 7ae7 df3c a8c4 88bf
00000320: f6a6 cd3d dc13 91bf 55cb 133e d8d7 90bf
00000330: bf5f 3c3e 1f57 90bf 597e 4fbd da61 91bf
00000340: 3aa6 d8bd 1f5a 91bf 68b2 1cbe 2451 91bf
00000350: 6e5d 773e 690f 8bbf 4fb8 6ebe 9859 8dbf
00000360: 2aa2 c93d e018 7dbf 5626 a0bd 1a95 7ebf
00000370: 24fa eb3e caa2 3cbf b4f8 09bf 562b 39bf
00000380: 0272 513f 3013 70be 7274 44bf fe9d 35be
00000390: b1ca 073f 3863 e0be 0ebc fbbe 387f c8be
000003a0: 7006 bc3e acc7 f3be 526a b4be 946b ddbe
000003b0: e32c b13e 5a8c 0ebf 31f5 b8be e3f3 04bf
000003c0: 7202 bd3e 8a58 0dbf f774 c4be 1c90 03bf
000003d0: 3dda 983e 55b8 caba 3dda 98be 55b8 ca3a
000003e0: 7236 b23e e94e 2c3f ea8d a7be b8fb 2e3f
000003f0: 2527 a83e c54d 9b3f d9d3 97be 535e 9b3f
