aiModel/dataset/sequences/playing_games/WhatsApp Video 2025-09-29 at 18.09.07_b3e87305_win002_aug3_t00000.npy (npy, 12800 bytes, 1 tensors)

array f4 [48, 66]
0.038246166 -1.1033045 0.11420584 -1.1424428 0.15384775 -1.1522925 0.18800506 -1.1423708
-0.039400667 -1.1442282 -0.11786278 -1.1483861 -0.15145926 -1.1466681 0.26267424 -1.0926322
-0.25122154 -1.1067289 0.11494814 -1.0035503 -0.056701627 -1.0080179 0.47193542 -0.7423889
-0.53332067 -0.72393423 0.8212106 -0.21929339 -0.7834326 -0.18660033 0.53470874 -0.44658744
-0.4705655 -0.4076558 0.36439416 -0.47841394 -0.34977496 -0.43348122 0.38690907 -0.5854352
-0.36514983 -0.51282305 0.37083167 -0.5536374 -0.38834286 -0.5023354 0.31382892 0.006664659
-0.2922491 0.0028587584 0.3342436 0.6761067 -0.33351797 0.689419 0.31880188 1.2287143
-0.3060562 1.2402955 0.34103125 1.3004013 -0.31437844 1.298377 0.27738556 1.4224682
-0.19245572 1.4383502 0.022017527 -1.0830095 0.11204234 -1.1334519 0.16461393 -1.1391559
0.17688005 -1.1439912 -0.04208978 -1.1506264 -0.09440736 -1.1656231 -0.13818502 -1.141232
0.25557497 -1.1033825 -0.2381993 -1.0999755 0.09874343 -1.0003272 -0.079071164 -0.99170953
0.4779284 -0.7490512 -0.54557985 -0.7121125 0.80963886 -0.23224047 -0.77621293 -0.17109162
0.5327663 -0.4531905 -0.46940526 -0.41023174 0.39098528 -0.4721425 -0.3496465 -0.41925004
0.3572148 -0.547717 -0.36784717 -0.5144838 0.3919542 -0.5585465 -0.3857603 -0.5057501
0.29506367 -0.005744941 -0.3024657 0.005542583 0.33307144 0.67201585 -0.3412191 0.6932582
0.32842112 1.2124236 -0.29717872 1.2389839 0.32561913 1.309693 -0.30841616 1.3029925
0.29121622 1.4298126 -0.17807421 1.4023409 0.016927468 -1.0760949 0.11395978 -1.1472181
0.13682665 -1.1321872 0.18079229 -1.128655 -0.052043144 -1.1549337 -0.10603904 -1.1517044
-0.14806452 -1.1441953 0.24371658 -1.104929 -0.24017756 -1.1163893 0.111645535 -1.0001057
-0.075577766 -0.9990654 0.46219316 -0.72834396 -0.55226046 -0.7360632 0.8269128 -0.23716654
-0.79649836 -0.18694505 0.504842 -0.46205023 -0.48233953 -0.40945083 0.3612082 -0.46912235
-0.35833094 -0.44299045 0.34142965 -0.56287575 -0.3435904 -0.52808374 0.3793384 -0.57150114
-0.38643458 -0.5205841 0.302059 0.002206701 -0.30708346 0.029688887 0.34265482 0.71148115
-0.335698 0.70521545 0.348514 1.2286946 -0.30232748 1.2239537 0.3378762 1.2925291
-0.3089304 1.3085991 0.24841684 1.427255 -0.18234506 1.4338424 0.025344403 -1.0773572
0.098716855 -1.1440988 0.14130528 -1.1351565 0.1894167 -1.1297733 -0.052715063 -1.1544462
-0.1028739 -1.139533 -0.17417242 -1.1534357 0.26170427 -1.1033772 -0.23039114 -1.1335067
0.10029435 -1.0016336 -0.1052188 -0.99281484 0.46781108 -0.73797506 -0.54006255 -0.7129169
0.8344846 -0.22850536 -0.7675778 -0.16899267 0.5077903 -0.44894144 -0.47430146 -0.38569018
0.38171044 -0.48412865 -0.34824055 -0.43595243 0.34318978 -0.57484615 -0.36437866 -0.5266388
0.37795386 -0.5504702 -0.3860784 -0.5239874 0.30360994 0.005576973 -0.31305787 -0.011517454
0.34867674 0.69004244 -0.33712962 0.68024963 0.33678553 1.2365595 -0.31014034 1.2430035
00000000: 03a8 1c3d 1539 8dbf c0e4 e93d 913b 92bf
00000010: 448a 1d3e 527e 93bf 6684 403e 3539 92bf
00000020: 9862 21bd 1276 92bf 0b62 f1bd 51fe 92bf
00000030: 2318 1bbe 05c6 92bf 3d7d 863e 5fdb 8bbf
00000040: 1ca0 80be 4ba9 8dbf ee69 eb3d 5674 80bf
00000050: f73f 68bd bb06 81bf 85a1 f13e 330d 3ebf
00000060: b487 08bf c153 39bf dc3a 523f 728e 60be
00000070: 0a8f 48bf 2814 3fbe ace2 083f 1ca7 e4be
00000080: f6ed f0be 43b8 d0be df91 ba3e acf2 f4be
00000090: b415 b3be 40f1 ddbe f218 c63e 15df 15bf
000000a0: ebf4 babe 5f48 03bf a6dd bd3e 2ebb 0dbf
000000b0: e0d4 c6be 0e99 00bf 2fae a03e 3663 da3b
000000c0: ada1 95be 025a 3b3b fa21 ab3e 5415 2d3f
000000d0: dec2 aabe c37d 303f 003a a33e 8346 9d3f
000000e0: 66b3 9cbe 01c2 9e3f a69b ae3e 8d73 a63f
000000f0: 36f6 a0be 3831 a63f 7b05 8e3e 7013 b63f
00000100: 1d13 45be dc1b b83f 1a5e b43c 0ea0 8abf
00000110: 7476 e53d f414 91bf 8e90 283e dccf 91bf
00000120: 0b20 353e 4e6e 92bf 5566 2cbd ba47 93bf
00000130: a558 c1bd 2333 95bf 6080 0dbe e413 92bf
00000140: b9da 823e a33b 8dbf 84ea 73be ffcb 8cbf
00000150: ff39 ca3d b90a 80bf 10f0 a1bd ade0 7dbf
00000160: 08b3 f43e d2c1 3fbf 1fab 0bbf 014d 36bf
00000170: 7e44 4f3f 72d0 6dbe e4b5 46bf a432 2fbe
00000180: 5f63 083f 9608 e8be e355 f0be e509 d2be
00000190: 392f c83e a9bc f1be de04 b3be f1a7 d6be
000001a0: dce4 b63e 2e37 0cbf 7756 bcbe 36b5 03bf
000001b0: 39ae c83e e7fc 0ebf 6082 c5be d778 01bf
000001c0: 9612 973e 0f40 bcbb c9dc 9abe 8e9e b53b
000001d0: 5788 aa3e 3b09 2c3f 45b4 aebe 5f79 313f
000001e0: d026 a83e b230 9b3f cf27 98be 0697 9e3f
000001f0: 8db7 a63e 05a4 a73f b9e8 9dbe 75c8 a63f
00000200: 4b1a 953e 1904 b73f 1659 36be e87f b33f
00000210: 79ab 8a3c 7abd 89bf bf63 e93d 0bd8 92bf
00000220: 491c 0c3e 83eb 90bf 9d21 393e c477 90bf
00000230: 312b 55bd ded4 93bf ff2a d9bd 0d6b 93bf
00000240: 3a9e 17be fe74 92bf d790 793e 506e 8dbf
00000250: 1bf1 75be d8e5 8ebf 6aa6 e43d 7703 80bf
00000260: 84c8 9abd c0c2 7fbf 95a4 ec3e c074 3abf
00000270: f160 0dbf a36e 3cbf 8fb0 533f c9db 72be
00000280: 51e7 4bbf 866e 3fbe 533d 013f d991 ecbe
00000290: 35f5 f6be 8aa3 d1be 48f0 b83e ce30 f0be
000002a0: 2777 b7be a5cf e2be decf ae3e a018 10bf
000002b0: 15eb afbe 7f30 07bf a538 c23e e64d 12bf
000002c0: c1da c5be 0045 05bf 7aa7 9a3e 4d9e 103b
000002d0: 0b3a 9dbe 1c36 f33c 7470 af3e a123 363f
000002e0: 9ce0 abbe 0089 343f 6d70 b23e dd45 9d3f
000002f0: abca 9abe 84aa 9c3f 1cfe ac3e 9871 a53f
00000300: 202c 9ebe 2d80 a73f fc60 7e3e 4bb0 b63f
00000310: aab8 3abe 2688 b73f 119f cf3c d7e6 89bf
00000320: 102c ca3d d471 92bf 55b2 103e cf4c 91bf
00000330: 74f6 413e 699c 90bf c0eb 57bd e5c4 93bf
00000340: 8daf d2bd 38dc 91bf 415a 32be c8a3 93bf
00000350: 1afe 853e 773b 8dbf a8eb 6bbe bf16 91bf
00000360: 2067 cd3d 8835 80bf f47c d7bd 1d29 7ebf
00000370: ef84 ef3e efeb 3cbf 8a41 0abf b981 36bf
00000380: c8a0 553f 4ffd 69be fb7f 44bf 6a0c 2dbe
00000390: 8cfe 013f a7db e5be a4d7 f2be 2f79 c5be
000003a0: 8d6f c33e b6df f7be 964c b2be 2835 dfbe
000003b0: 92b6 af3e 1e29 13bf d78f babe cdd1 06bf
000003c0: 2b83 c13e 9deb 0cbf 11ac c5be 0a24 06bf
000003d0: c372 9b3e 0abf b63b 1f49 a0be b4b3 3cbc
000003e0: c285 b23e 9fa6 303f 419c acbe d724 2e3f
000003f0: 276f ac3e 9547 9e3f b7ca 9ebe bd1a 9f3f
