aiModel/dataset/sequences/playing_games/WhatsApp Video 2025-09-29 at 18.09.07_b3e87305_win002_aug1_t00000.npy (npy, 12800 bytes, 1 tensors)

array f4 [48, 66]
00000000: 8e4d 19be bf69 8bbf 69ac 5fbe b7ca 91bf
00000010: 23d4 88be 1f7f 91bf 9114 a6be 6e9e 91bf
00000020: 035c 82bd d5d0 95bf ca9a 1d3d a9e4 98bf
00000030: 61a6 28bd 0e9f 94bf 431c c43d fd9e 95bf
00000040: 70d3 b4be e073 8abf bd16 3cbd 5d3a 84bf
00000050: 2b82 53be 42b2 7dbf 1062 f93e 3e9b 4ebf
00000060: e163 0ebf 3ecb 31bf af66 4e3f 8b8d 90be
00000070: f47d 57bf c250 e3bd 8d13 f43e 0fab f3be
00000080: 11e7 11bf a8cc b9be dcc8 d7be 14b9 e4be
00000090: 59ab ab3e a8ae 01bf 3405 d4be 1dad 00bf
000000a0: 0956 b13e 8944 11bf cd74 e7be be41 04bf
000000b0: 1c2d b13e d346 0cbf dc45 ad3e 1823 2bbd
000000c0: 581c 7fbe 0631 543d 3668 f63e 86de 293f
000000d0: 8e66 53be ac0b 423f d359 053f ba3c 9c3f
000000e0: e3df 02be ba9b a73f 0000 0000 0000 0000
000000f0: bd99 0c3f 315f a43f 4de8 28bd 7e84 be3f
00000100: 0c87 e03e 02f6 b73f 2a45 12be 4412 8bbf
00000110: b572 74be 0b2d 91bf 1f40 9dbe 9898 91bf
00000120: 3214 a5be 138a 8fbf 628d 9abd 0fe1 95bf
00000130: 99eb 8d3c 9fff 96bf 9259 a0bc 8243 98bf
00000140: 391f fb3d 00b1 92bf 7ee7 bdbe fe6e 8bbf
00000150: d64d efbc 138c 81bf 78e3 49be e6c2 7fbf
00000160: 82a1 f73e 54f9 4bbf df43 0bbf 3418 2fbf
00000170: bb61 4a3f d389 87be 93a6 55bf 59ab 04be
00000180: 0db2 f83e 35ae ecbe b711 11bf 7346 b8be
00000190: 65e5 d5be f55f dcbe 752b ac3e b676 f8be
000001a0: f544 c3be 806e 03bf 1d82 ab3e 0703 14bf
000001b0: 8090 debe 3adc 06bf 6c0d b93e 411f 12bf
000001c0: 2c05 ac3e b3b0 4cbc 4d69 8abe 4cc6 763d
000001d0: 3353 ec3e 7334 293f 923a 66be 17ab 3f3f
000001e0: c6a9 023f abbf 9a3f 5c24 e7bd 268f a83f
000001f0: 62b5 01be 812f b23f e921 0f3f b3e7 a23f
00000200: 3b2e 59bd c480 be3f 58c0 d93e 5fa8 b63f
00000210: d291 fbbd d776 8bbf f815 5abe ce33 92bf
00000220: 2f73 86be 893e 91bf ce89 9fbe 4375 8fbf
00000230: c09e 88bd e6c5 95bf 9ec1 403c cb0f 98bf
00000240: 4d3d 10bd c0d1 99bf 2615 e73d 388a 93bf
00000250: 9e6c bfbe 4c7f 89bf 187b 87bc 21ba 83bf
00000260: 94f6 5ebe 5a5b 80bf 281d f93e 8ccc 4dbf
00000270: 02e2 0abf df54 31bf da16 513f 42c8 96be
00000280: 9f3f 59bf 9de0 06be a59a f13e 6105 f2be
00000290: 88a1 10bf fe59 c2be 46b6 d2be ebb8 d8be
000002a0: 57b7 ac3e ff5c f6be 95e7 c1be 8f47 00bf
000002b0: fa38 b93e 8d33 16bf 0b24 d3be 7e5d febe
000002c0: 53b0 b93e 3979 14bf 39b1 a83e 225c 1bbd
000002d0: 9ecd 83be 4708 c03c c168 ee3e 08c9 273f
000002e0: d745 6dbe 9d33 3e3f 0000 0000 0000 0000
000002f0: 26da 07be a4f1 a63f 0a45 10be ed1e b13f
00000300: c79e 0a3f 39c5 a53f c473 3abd 9e67 c03f
00000310: 3af5 db3e dcd1 b73f 3fdb 0dbe 64db 89bf
00000320: 3a4e 61be c275 93bf cddb 8abe aa7d 90bf
00000330: 65bb 93be 911d 91bf d20b 81bd 2c8e 96bf
00000340: 73ec 893c b7e6 97bf 70c0 6dbc 2b7e 95bf
00000350: d32f 0e3e e27a 94bf da50 b9be 50d0 88bf
00000360: c164 c8bc 3b98 82bf afb7 5fbe 10bf 7fbf
00000370: 26d7 fa3e a9de 51bf 94f4 08bf d63b 2dbf
00000380: f724 483f 2b1e 8ebe 5bf4 57bf d71e dcbd
00000390: 0000 0000 0000 0000 7c11 0ebf 233b c3be
000003a0: c1a0 d4be 3594 e0be b73a a83e e5c3 f3be
000003b0: 6285 c5be d818 08bf 0424 b03e 01d4 17bf
000003c0: a91c d7be 91db fdbe 851a b63e 3082 10bf
000003d0: 0000 0000 0000 0000 482d 8abe 01a8 683d
000003e0: 45a1 ef3e 78ae 273f 40cf 6fbe 0c03 3e3f
000003f0: f2e4 013f 9087 9b3f 81ba efbd 0128 a83f
-0.14970991 -1.0891646 -0.21843113 -1.1389989 -0.26724347 -1.1366919 -0.32437566 -1.1376474
-0.06365206 -1.1704355 0.038477696 -1.1944782 -0.041174296 -1.161104 0.09575703 -1.1689144
-0.35317564 -1.0816612 -0.045920122 -1.0330311 -0.20655124 -0.99100125 0.48707628 -0.8070563
-0.55621153 -0.6945075 0.8062543 -0.2823299 -0.84176564 -0.11099388 0.47671166 -0.47591445
-0.56993204 -0.36288953 -0.4214543 -0.44672453 0.33529165 -0.5065713 -0.4141022 -0.5026415
0.34635952 -0.567452 -0.452063 -0.51662815 0.34604728 -0.5479557 0.3384236 -0.041781515
-0.24913156 0.051804565 0.48126382 0.6635517 -0.2064459 0.7579906 0.52090186 1.2206032
-0.12780719 1.3094399 0.0 0.0 0.54922086 1.284155 -0.041237164 1.4884183
0.43853033 1.4371951 -0.14284196 -1.0864949 -0.23871882 -1.1341871 -0.30712983 -1.1374693
-0.3224197 -1.1214012 -0.07546498 -1.1709307 0.017324256 -1.1796759 -0.01957396 -1.1895602
0.122618146 -1.1460266 -0.37090677 -1.0893247 -0.02921192 -1.0120872 -0.19715679 -0.99906766
0.48365408 -0.7967732 -0.5440044 -0.68396306 0.79055375 -0.2647234 -0.834573 -0.12955989
0.48573342 -0.4622666 -0.56667656 -0.35991248 -0.41776577 -0.4304196 0.33626905 -0.4852807
-0.38138548 -0.51340485 0.33497706 -0.5781712 -0.4346962 -0.5267979 0.36143053 -0.5707894
0.33597696 -0.0124933 -0.27033463 0.060247704 0.46157226 0.66095656 -0.2248328 0.7487044
0.51040304 1.2089742 -0.11286232 1.3168685 -0.12666848 1.3920747 0.5591112 1.2726959
-0.053022604 1.4883046 0.4252956 1.4270133 -0.122836724 -1.0895642 -0.21297443 -1.142206
-0.26259753 -1.1347209 -0.31159824 -1.120766 -0.06670904 -1.1701019 0.011764912 -1.187982
-0.03521471 -1.2017136 0.112833306 -1.1526556 -0.37387556 -1.0741973 -0.016538188 -1.0291177
-0.2177375 -1.0027878 0.48655057 -0.8039024 -0.5425111 -0.6927013 0.81675494 -0.2944966
-0.84862703 -0.1317162 0.47188297 -0.4726973 -0.5649648 -0.37959284 -0.4115469 -0.4232858
0.33733627 -0.48117825 -0.37871996 -0.5010919 0.36176282 -0.5867241 -0.41238436 -0.49680704
0.36267337 -0.5799747 0.3294771 -0.03792966 -0.2574281 0.023441447 0.46564296 0.65541124
-0.23171173 0.74297506 0.0 0.0 -0.13266811 1.3042493 -0.14088836 1.3837563
0.54148525 1.2950813 -0.04552056 1.5031621 0.4296053 1.4360919 -0.13853167 -1.0770078
-0.22002497 -1.1520312 -0.2712082 -1.128835 -0.28853908 -1.1337148 -0.06301083 -1.1762137
0.01683638 -1.1867284 -0.014511213 -1.1679128 0.13885431 -1.1600001 -0.36194497 -1.0688572
-0.024462106 -1.0202707 -0.21847413 -0.99900913 0.4899227 -0.8198038 -0.53498197 -0.6766943
0.78181404 -0.2775739 -0.8435723 -0.1074807 0.0 0.0 -0.5549543 -0.38131055
-0.41528895 -0.43863073 0.32857296 -0.47610393 -0.38578326 -0.5316291 0.34402478 -0.5930787
-0.42014053 -0.49581578 0.35567108 -0.5644865 0.0 0.0 -0.26987672 0.056800846
0.46802726 0.65500593 -0.23418903 0.742234 0.5073997 1.2150745 -0.11705495 1.3137208
