aiModel/dataset/sequences/playing_games/WhatsApp Video 2025-09-29 at 18.09.07_b3e87305_win003_aug3_t00000.npy (npy, 12800 bytes, 1 tensors)

array f4 [48, 66]
00000000: 0106 12bd b553 8dbf acb8 713d 34bb 97bf
00000010: 93e1 c83d e31c 95bf cfa9 fa3d 6aa2 98bf
00000020: b548 f0bd 0376 97bf 15c5 23be 606c 97bf
00000030: f40e 51be 11e5 97bf 817c 2f3e 5b10 92bf
00000040: 0a51 9abe a989 92bf 7c06 303d b95d 84bf
00000050: fd62 0dbe f2f7 83bf 7b4e d83e 782d 48bf
00000060: 59be 13bf e9c3 3fbf d997 553f f01a 6dbe
00000070: d8bc 53bf d629 27be 401a fa3e 2716 febe
00000080: e87c 04bf a9f0 f7be 9386 ae3e 724d 0ebf
00000090: 18ef b8be c7af 07bf bada bb3e f680 27bf
000000a0: b40a babe 62f6 1ebf d679 ca3e 3f0a 1fbf
000000b0: 2b9e c3be d108 1abf 2388 933e d0a7 28bc
000000c0: 42f9 98be b086 123c 44cf b33e 5400 353f
000000d0: 5af4 aebe f52b 363f a0bd b53e d47e 9f3f
000000e0: f406 8dbe 8383 a23f 6066 b03e e7f6 a93f
000000f0: 2682 9fbe aa7c ac3f f4eb 9a3e 695d b93f
00000100: 66b5 37be 3acb bb3f 1341 16bd b74c 8dbf
00000110: 2f37 5e3d 38cd 95bf 6791 bf3d 6fa1 95bf
00000120: 6ab3 043e 96a5 96bf d23e f1bd a4d6 95bf
00000130: 784f 2bbe 79b9 97bf 0d50 48be 051e 95bf
00000140: 372b 3b3e b1f3 8fbf 1931 a3be 317f 90bf
00000150: 7ebc 0f3d cbd9 83bf efbd f7bd 297f 83bf
00000160: 5c29 da3e 5242 46bf c7b8 11bf c32f 3fbf
00000170: 636e 573f 5db9 65be 9232 50bf 2041 1dbe
00000180: 150e f13e fb19 f8be 6abc 05bf 582c eebe
00000190: 3643 a43e 839b 0dbf a243 c6be d121 05bf
000001a0: 67b7 aa3e 661c 25bf 09c7 b9be cdf4 1bbf
000001b0: e700 be3e fb79 1dbf e60d c6be c5cf 17bf
000001c0: 7bb8 993e 6c29 8bbb 782f 9bbe d1fe ce3b
000001d0: 2092 a63e 270f 363f 2c55 b9be d610 333f
000001e0: 71f9 a13e 1fd0 a13f 5517 a6be b8d4 a23f
000001f0: c9d9 a03e 5b96 ab3f 3891 aabe 206f aa3f
00000200: 625b 7a3e c9d6 ba3f a220 64be 18f8 bb3f
00000210: dbef f1bc 0dd2 8dbf 221e 7d3d 4b53 95bf
00000220: ba8e b83d aa53 95bf 75a0 0a3e 93f6 94bf
00000230: a415 debd 48a5 95bf 3289 23be 22f5 96bf
00000240: 6e74 45be 25bc 94bf 861b 3d3e de84 90bf
00000250: d7a8 96be 270b 90bf 750f 313d 2d71 82bf
00000260: 973f fabd e982 81bf 3b5c de3e 3f2d 43bf
00000270: aa42 0ebf c7be 3cbf fd5a 5b3f 48a3 55be
00000280: 5442 51bf e70e 23be 24ff ea3e d8e0 f7be
00000290: 5191 04bf 0970 e6be 63c4 9f3e 3749 0dbf
000002a0: 24bb c3be f4ad 02bf 62ee a93e fdca 26bf
000002b0: b9e1 bebe 7940 1cbf b57c ae3e 9505 21bf
000002c0: cb8a c1be 1004 1cbf 39e6 9d3e 6e63 8d3a
000002d0: dd48 9abe b002 d8ba 7d00 a33e d06d 343f
000002e0: 7951 bdbe 6da7 343f f63e 953e dc94 a23f
000002f0: 2468 b5be 14b0 a13f dfd0 983e 7e28 aa3f
00000300: e5d9 b5be 6b42 ab3f 788d 683e 5a34 bc3f
00000310: 08f3 77be f514 bc3f 9e00 16bc 522d 8ebf
00000320: 5e6a 533d 1574 94bf 3b00 a73d c68b 94bf
00000330: 8e7b 163e c3a6 94bf 70d5 d7bd ccf3 95bf
00000340: 1395 14be f53c 95bf ae9f 4dbe 15fb 95bf
00000350: ff1c 433e 84c2 90bf 8f7a 8ebe 536b 91bf
00000360: 6fc2 513d 475e 83bf b8d4 febd f013 81bf
00000370: 6c77 dd3e 670b 43bf ea3f 0abf 38fd 3cbf
00000380: 17ac 5d3f bc33 60be 50ae 4cbf 68b7 18be
00000390: df82 eb3e f45e fdbe 5269 05bf ad90 e7be
000003a0: 2d00 9e3e e8f3 0cbf 0be4 c4be f99e 03bf
000003b0: 3e1e ad3e ac5a 25bf f6cc c4be 7a8f 1abf
000003c0: b211 ae3e e997 1fbf b42d c9be 9a75 1bbf
000003d0: ac30 9f3e 7faf aabb f0f9 9fbe 7408 d6bb
000003e0: b284 a93e 3a46 333f a77e b7be df4d 363f
000003f0: fb28 993e 4490 a13f 43c1 aebe 2a34 9f3f
-0.035650257 -1.104117 0.059014007 -1.1854005 0.0980865 -1.164944 0.1223942 -1.1924565
-0.11732618 -1.1832889 -0.1599315 -1.1829948 -0.2041586 -1.186678 0.17137338 -1.1411241
-0.30139953 -1.144826 0.042974934 -1.0341102 -0.13807292 -1.0310042 0.42247376 -0.7819438
-0.5771232 -0.7490831 0.83434826 -0.23154807 -0.8271003 -0.16324553 0.48848152 -0.49626276
-0.5175309 -0.48425797 0.34087047 -0.5558692 -0.36119914 -0.5300259 0.36690313 -0.65431154
-0.3633629 -0.620947 0.39546078 -0.6212501 -0.3820661 -0.601697 0.28814802 -0.010293916
-0.2987767 0.008943245 0.3511907 0.70703626 -0.341708 0.71160823 0.35496235 1.246058
-0.27544367 1.2696384 0.34453106 1.3278474 -0.31153983 1.3475544 0.30258143 1.4481632
-0.17940292 1.4671395 -0.036683153 -1.1039037 0.054251846 -1.1703253 0.09353905 -1.1689891
0.12959066 -1.1769283 -0.1177956 -1.1706128 -0.16729534 -1.1853477 -0.19561787 -1.1649786
0.18278204 -1.1246244 -0.31873396 -1.1288816 0.03509187 -1.030084 -0.12096774 -1.0273181
0.4260968 -0.77444947 -0.5692257 -0.74682254 0.8415281 -0.22433992 -0.81327164 -0.15356874
0.47081056 -0.48457322 -0.5224062 -0.46518207 0.32082528 -0.5531542 -0.38723475 -0.52004725
0.3334305 -0.6449646 -0.36284664 -0.6092041 0.37110063 -0.6151425 -0.3868248 -0.59301406
0.3002356 -0.004246881 -0.30309653 0.0063169976 0.3253336 0.7111687 -0.36197793 0.69947565
0.3163562 1.2641639 -0.32439676 1.2721167 0.31416157 1.340526 -0.33313918 1.3315163
0.24448922 1.4596797 -0.22278073 1.4685087 -0.029533317 -1.1079727 0.061796315 -1.1666044
0.09011598 -1.1666157 0.13537772 -1.1637748 -0.10843971 -1.1691065 -0.15970305 -1.1793559
-0.19282696 -1.1619917 0.1846753 -1.1290548 -0.2942569 -1.1253403 0.04322763 -1.0190789
-0.1221916 -1.0118076 0.4342974 -0.76240915 -0.5557047 -0.73728603 0.8568571 -0.20863068
-0.81741834 -0.15923654 0.45897782 -0.4841373 -0.51784235 -0.4500735 0.3120452 -0.5518984
-0.38228714 -0.5104668 0.33189684 -0.65153486 -0.37281588 -0.6103588 0.3407952 -0.6289914
-0.37801203 -0.609437 0.30839708 0.0010787079 -0.30133715 -0.0016480293 0.3183631 0.7048006
-0.3697622 0.7056797 0.29149598 1.2701678 -0.35431015 1.263186 0.29846856 1.3293607
-0.35517803 1.3379644 0.22710216 1.4703476 -0.24213803 1.4693896 -0.009155421 -1.1107581
0.05161511 -1.1597925 0.08154341 -1.1605155 0.1469557 -1.1613392 -0.10538757 -1.1715026
-0.14509992 -1.1659228 -0.20080444 -1.1717249 0.1905403 -1.1309361 -0.2782788 -1.1360878
0.051210817 -1.0263146 -0.12442917 -1.008421 0.43255174 -0.76189274 -0.54003775 -0.7382388
0.86590713 -0.21894735 -0.7995348 -0.14913714 0.45998284 -0.49486506 -0.5211383 -0.45227566
0.3085951 -0.5505967 -0.38455233 -0.5141445 0.33812135 -0.6459148 -0.38437623 -0.6037518
0.33997875 -0.6234117 -0.3929268 -0.6072632 0.3109182 -0.005208909 -0.31245375 -0.0065317694
0.3310905 0.7002903 -0.35838816 0.7121257 0.29914078 1.2622151 -0.34131822 1.2437794
