aiModel/dataset/sequences/playing_games/WhatsApp Video 2025-09-29 at 18.09.07_b3e87305_win004_orig_t00000.npy (npy, 12800 bytes, 1 tensors)

array f4 [48, 66]
-0.047279786 -1.1533672 0.034181498 -1.2202612 0.08372935 -1.2190766 0.12723587 -1.2170637
-0.12776239 -1.2208673 -0.1809232 -1.2212937 -0.2301445 -1.2218237 0.19150665 -1.1748948
-0.30576283 -1.1898047 0.038679194 -1.0729859 -0.15366313 -1.0775677 0.44544598 -0.8015347
-0.5542227 -0.7758569 0.8439492 -0.24042214 -0.8301357 -0.1786526 0.583064 -0.48104483
-0.52464247 -0.5124468 0.4142292 -0.5429646 -0.38172594 -0.59750926 0.42714283 -0.629996
-0.35323173 -0.661496 0.43281636 -0.6216028 -0.35398856 -0.6445846 0.31529 -0.00070408307
-0.3152901 0.00070408307 0.37636164 0.73551667 -0.33302376 0.75035566 0.34156448 1.3292897
-0.28776148 1.3390493 0.34850302 1.407412 -0.30558297 1.4139045 0.2855385 1.5294408
-0.18076798 1.5452111 -0.05064233 -1.1568724 0.031610526 -1.2239714 0.08095147 -1.2227869
0.123784594 -1.2207799 -0.1315898 -1.224581 -0.18552102 -1.2250066 -0.2344923 -1.2255486
0.1877696 -1.1787603 -0.3094441 -1.1934594 0.034505114 -1.0762646 -0.15682445 -1.0808569
0.45044583 -0.8039809 -0.54923207 -0.77866685 0.8581324 -0.22754698 -0.841466 -0.18424733
0.57940644 -0.48588642 -0.5206926 -0.53771234 0.40845367 -0.55987287 -0.38571984 -0.6044334
0.42320487 -0.65531343 -0.32224968 -0.66405046 0.43331745 -0.63903224 -0.3191434 -0.6512406
0.31636003 -0.00047244737 -0.31636006 0.00047244737 0.3728774 0.73732257 -0.3391141 0.7512163
0.34130305 1.3319128 -0.29374552 1.3409923 0.35231653 1.4096067 -0.31169042 1.4153552
0.28151485 1.5331174 -0.18636802 1.5490546 -0.047228616 -1.1514122 0.035528857 -1.218182
0.08485306 -1.2169794 0.1272498 -1.2149647 -0.12846038 -1.2188456 -0.18240437 -1.2192693
-0.23113205 -1.2198124 0.19035663 -1.1730705 -0.306112 -1.1878427 0.036902662 -1.071129
-0.15365551 -1.075703 0.45236745 -0.80150574 -0.54730576 -0.7760026 0.867281 -0.21685523
-0.8385339 -0.18140917 0.55452734 -0.5050179 -0.5169293 -0.5358146 0.37433276 -0.590482
-0.3822427 -0.60583395 0.38479018 -0.6831574 -0.3225478 -0.6649874 0.39784276 -0.6642353
-0.31932315 -0.6530352 0.31742626 0.00029594504 -0.31742617 -0.00029613235 0.35419977 0.73544216
-0.36922577 0.7482227 0.31901014 1.3268507 -0.33242583 1.3341458 0.3283629 1.4042463
-0.35201052 1.4085771 0.25503272 1.5276147 -0.22673352 1.5425872 -0.03752168 -1.1262565
0.04409106 -1.1914271 0.092237264 -1.1901869 0.13353655 -1.1881372 -0.11689019 -1.1923774
-0.16986579 -1.1928341 -0.21753897 -1.1934 0.19473973 -1.1467166 -0.29136184 -1.1622831
0.044506498 -1.0472608 -0.14207165 -1.052125 0.44892693 -0.7847605 -0.5508101 -0.76189333
0.85654783 -0.20985031 -0.81353736 -0.17155443 0.5275189 -0.5035716 -0.520295 -0.5179092
0.33973643 -0.58626103 -0.38140556 -0.5915462 0.35526446 -0.67954975 -0.36335745 -0.6529385
0.37291425 -0.6588071 -0.36645272 -0.6388205 0.31856018 0.00043789778 -0.31856012 -0.00043789778
0.33814758 0.71669364 -0.3753896 0.7268043 0.30740625 1.2953271 -0.33977905 1.2994387
00000000: 73a8 41bd 89a1 93bf e601 0c3d 8531 9cbf
00000010: 4b7a ab3d b40a 9cbf 1f4a 023e bec8 9bbf
00000020: 25d4 02be 6145 9cbf ee43 39be 5a53 9cbf
00000030: 00ab 6bbe b864 9cbf 521a 443e f462 96bf
00000040: f28c 9cbe 854b 98bf 136e 1e3d 9a57 89bf
00000050: de59 1dbe bded 89bf 7f11 e43e 6131 4dbf
00000060: 8ae1 0dbf 8f9e 46bf 0e0d 583f 3931 76be
00000070: c683 54bf b5f0 36be af43 153f 824b f6be
00000080: f84e 06bf b72f 03bf da15 d43e baff 0abf
00000090: 9571 c3be 5ef6 18bf 77b2 da3e 6b47 21bf
000000a0: cada b4be cd57 29bf 1b9a dd3e 5c21 1fbf
000000b0: fd3d b5be 7f03 25bf b16d a13e 3792 38ba
000000c0: b46d a1be 3792 383a 79b2 c03e d24a 3c3f
000000d0: 1782 aabe 4f17 403f 8ae1 ae3e 2a26 aa3f
000000e0: 7955 93be f865 ab3f fd6e b23e 1426 b43f
000000f0: 5f75 9cbe d3fa b43f 1a32 923e b7c4 c33f
00000100: 3e1b 39be 7ac9 c53f 556e 4fbd 6514 94bf
00000110: 0a7a 013d 18ab 9cbf e2c9 a53d 4884 9cbf
00000120: c782 fd3d 8442 9cbf 7abf 06be 12bf 9cbf
00000130: 39f9 3dbe 04cd 9cbf c01e 70be c7de 9cbf
00000140: ad46 403e 9ee1 96bf 756f 9ebe 47c3 98bf
00000150: 3c55 0d3d 0ac3 89bf 9796 20be 8559 8abf
00000160: d6a0 e63e b1d1 4dbf 799a 0cbf b656 47bf
00000170: 91ae 5b3f 1302 69be 516a 57bf 55ab 3cbe
00000180: fb53 143f 1bc6 f8be 1c4c 05bf 84a7 09bf
00000190: d720 d13e d453 0fbf 127d c5be 26bc 1abf
000001a0: 4fae d83e 9fc2 27bf e9fd a4be 36ff 29bf
000001b0: c9db dd3e 9e97 23bf c466 a3be b4b7 26bf
000001c0: f1f9 a13e d0b2 f7b9 f2f9 a1be d0b2 f739
000001d0: c9e9 be3e 2cc1 3c3f 5da0 adbe b64f 403f
000001e0: 46bf ae3e 1e7c aa3f d065 96be a3a5 ab3f
000001f0: d562 b43e fe6d b43f e395 9fbe 5c2a b53f
00000200: b722 903e 313d c43f 42d7 3ebe 6c47 c63f
00000210: cb72 41bd 7a61 93bf b586 113d 63ed 9bbf
00000220: 71c7 ad3d fbc5 9bbf c64d 023e f783 9bbf
00000230: 1e8b 03be 2203 9cbf 36c8 3abe 0411 9cbf
00000240: e1ad 6cbe d022 9cbf d9ec 423e 2d27 96bf
00000250: b6ba 9cbe 3b0b 98bf 3f27 173d c11a 89bf
00000260: df57 1dbe a3b0 89bf b59c e73e 7b2f 4dbf
00000270: 3b1c 0cbf 1ba8 46bf 2106 5e3f 4c0f 5ebe
00000280: 28aa 56bf 53c3 39be 81f5 0d3f da48 01bf
00000290: 7b55 04bf 252b 09bf 8ba8 bf3e d429 17bf
000002a0: 51b5 c3be ef17 1bbf 3803 c53e 67e3 2ebf
000002b0: fc24 a5be 9d3c 2abf 0cb2 cb3e 530b 2abf
000002c0: 537e a3be 512d 27bf b285 a23e 1229 9b39
000002d0: af85 a2be 3642 9bb9 ac59 b53e f045 3c3f
000002e0: 290b bdbe 868b 3f3f 4c55 a33e 3ed6 a93f
000002f0: b833 aabe 4ac5 aa3f 2f1f a83e 58be b33f
00000300: b93a b4be 414c b43f a693 823e e188 c33f
00000310: d52c 68be 7f73 c53f 55b0 19bd 2c29 90bf
00000320: d498 343d af80 98bf e4e6 bc3d 0b58 98bf
00000330: cebd 083e e114 98bf 2064 efbd d39f 98bf
00000340: 4cf1 2dbe caae 98bf 89c2 5ebe 55c1 98bf
00000350: da69 473e 9cc7 92bf 612d 95be b1c5 94bf
00000360: 724c 363d a40c 86bf 3b7b 11be 08ac 86bf
00000370: c0d9 e53e 10e6 48bf e401 0dbf 710b 43bf
00000380: b846 5b3f 00e3 56be fc43 50bf f7ab 2fbe
00000390: 7b0b 073f 12ea 00bf 0e32 05bf b395 04bf
000003a0: eff1 ad3e 3415 16bf 9747 c3be 926f 17bf
000003b0: 39e5 b53e f9f6 2dbf fd09 babe fa26 27bf
000003c0: 9eee be3e 95a7 28bf b19f bbbe be89 23bf
000003d0: 521a a33e a595 e539 501a a3be a595 e5b9
000003e0: ae21 ad3e 3c79 373f 1133 c0be d90f 3a3f
000003f0: 5a64 9d3e 47cd a53f 85f7 adbe 0254 a63f
