aiModel/dataset/sequences/playing_games/WhatsApp Video 2025-09-29 at 18.09.07_b3e87305_win001_orig_t00000.npy (npy, 12800 bytes, 1 tensors)

array f4 [48, 66]
00000000: c15e 48bd 47e6 89bf 55c0 ba3c f6a0 92bf
00000010: 870c 8f3d 3771 92bf f92f e83d c221 92bf
00000020: 3663 f2bd 7df3 92bf 386c 30be 19ef 92bf
00000030: 6f87 6abe 8ca4 92bf bb77 2d3e 6f1d 8ebf
00000040: 942a a1be 063e 8ebf 0a4b 823c f26a 7fbf
00000050: 81fa 10be b126 80bf 6c1e d53e 2d37 42bf
00000060: 926f 15bf 3fb6 40bf 6b61 563f cebb 68be
00000070: 6c1c 44bf cc74 3dbe 65ec e73e 3a9c e6be
00000080: 6623 b6be 45ca efbe 37e3 a13e 800b fabe
00000090: ad2d 63be 8f30 02bf b075 a63e 688a 13bf
000000a0: bb62 4dbe d999 19bf f52e ab3e a747 11bf
000000b0: 45a0 68be 910c 16bf b276 9b3e 833d 00bc
000000c0: b576 9bbe cf3c 003c 6045 a73e 3fa5 283f
000000d0: 29c7 aebe 6428 2a3f 1ebb 973e 0e1f 983f
000000e0: 6822 95be 7170 993f 68dd 9c3e 2f6a a13f
000000f0: 39e2 9cbe db41 a23f 60c8 743e 025d b03f
00000100: ef4a 45be 61aa b13f 572c 2ebd 1d84 8bbf
00000110: 3fcc f83c 5d22 94bf 6343 9f3d e4f3 93bf
00000120: dd68 f93d 1fa6 93bf 31b8 e5bd 4f7b 94bf
00000130: 2d0f 2bbe 966c 94bf 597e 65be cf16 94bf
00000140: 2595 353e e2b4 8fbf c24c 9ebe 85b5 8fbf
00000150: e49a be3c 475d 81bf 7ee6 0bbe eeda 81bf
00000160: 6ce6 d83e 76a5 44bf 888a 13bf 8b90 42bf
00000170: 06f7 573f 10f9 6dbe 4976 46bf e8ad 3ebe
00000180: ff54 ee3e 4eee e8be 6385 b2be cb81 f5be
00000190: 2c7c a73e 0470 fdbe 7db6 5dbe 9241 05bf
000001a0: 6533 ab3e 7649 15bf 3f82 43be fa8b 1cbf
000001b0: 23b4 ae3e 7dc5 12bf d1b5 5cbe a89c 18bf
000001c0: 4838 9d3e ea20 bbbb 4638 9dbe ea20 bb3b
000001d0: f551 aa3e 4058 2a3f 4bda adbe efca 2b3f
000001e0: 4923 9a3e 8c6e 9a3f fe6c 96be 4434 9b3f
000001f0: fb14 9f3e 4b82 a33f 73ba 9ebe 7702 a43f
00000200: 499d 793e ebc0 b23f 972a 49be 48e5 b33f
00000210: 34d0 0abd 0bf7 8bbf 96f2 233d 61a3 94bf
00000220: 8ca2 b43d 7074 94bf 764b 073e b025 94bf
00000230: 368a d4bd 7900 95bf 91c4 23be 1bf3 94bf
00000240: f816 5dbe 709f 94bf bffa 3f3e df20 90bf
00000250: 1928 99be ad2f 90bf 404e 093d 21c9 81bf
00000260: 6acd 04be e33f 82bf c90b dc3e 2eaa 44bf
00000270: cbf7 11bf ea8e 42bf a469 583f 2ff4 68be
00000280: a781 44bf 22b7 3cbe fe9a f13e 6f47 e8be
00000290: 49c5 b6be 7f8c efbe c4d5 a93e 07fe fcbe
000002a0: 0666 65be bd85 00bf 4fd2 ad3e f720 15bf
000002b0: 6396 4fbe c7a3 19bf d832 b23e 5fa1 12bf
000002c0: afa6 62be 175e 16bf ee6c 9d3e 2d19 6fbb
000002d0: ec6c 9dbe 4d16 6f3b b097 ab3e e753 2b3f
000002e0: 5c81 aebe cbc3 2c3f 053d 983e 0a85 9b3f
000002f0: aad0 99be 23fd 9b3f 972b 9d3e d67d a43f
00000300: 350d a3be b1e0 a43f f9b3 6e3e 13ed b33f
00000310: 499f 52be 58b8 b43f 9ae6 cdbc c9a7 8abf
00000320: fde1 493d d241 93bf 8b55 c83d c011 93bf
00000330: b8cd 113e 2fbf 92bf d0b2 c2bd 77a1 93bf
00000340: 1e9d 1cbe 8595 93bf 3eef 52be 3a45 93bf
00000350: 712f 4a3e 45a0 8ebf af59 93be 08d6 8ebf
00000360: 1ba8 333d fe89 80bf 498c fdbd f9ff 80bf
00000370: 83c6 df3e c737 42bf 2f1a 10bf 40ff 3fbf
00000380: c593 573f a24a 64be 67c9 40bf 1332 38be
00000390: 79a7 f43e cb93 e2be d1ac b9be d612 e8be
000003a0: a1bc ad3e cac8 f8be 1ac2 6cbe 6163 f8be
000003b0: 02b0 af3e 251f 13bf 115f 59be 2621 16bf
000003c0: 3340 b53e eeb4 10bf 4d6e 6cbe 7d45 13bf
000003d0: 7e0e 9c3e 4358 1eba 7d0e 9cbe b063 1e3a
000003e0: ce46 a33e 90f6 293f 1a51 b2be 37e7 2a3f
000003f0: 7099 8a3e c5f8 993f 9f26 a5be 72e3 993f
-0.04891849 -1.07734 0.02279679 -1.1455371 0.06984811 -1.14408 0.11337275 -1.1416552
-0.11835329 -1.1480557 -0.17228782 -1.1479217 -0.22903226 -1.1456466 0.16940205 -1.1102732
-0.31477797 -1.1112678 0.015904922 -0.9977256 -0.1415806 -1.0011808 0.41624773 -0.7586544
-0.5837337 -0.75278085 0.837424 -0.22727892 -0.7660587 -0.18501586 0.45297542 -0.45041066
-0.35573882 -0.46834007 0.31618664 -0.488369 -0.22185393 -0.50855345 0.32511663 -0.57633066
-0.20057194 -0.6000038 0.33434263 -0.5674996 -0.22717388 -0.58612925 0.30363995 -0.007827166
-0.30364004 0.007826998 0.32670116 0.65877146 -0.34136322 0.6646788 0.29634947 1.1884477
-0.29127812 1.1987439 0.3063767 1.261053 -0.30641344 1.2676347 0.23904562 1.3778384
-0.19266866 1.388012 -0.042522755 -1.0899693 0.03037083 -1.1572987 0.07776525 -1.1558805
0.12178204 -1.1535071 -0.11216772 -1.1600131 -0.16705008 -1.1595638 -0.22411479 -1.1569461
0.17732675 -1.1227076 -0.30917937 -1.122727 0.023267217 -1.0106591 -0.13662145 -1.0144937
0.42363298 -0.76814973 -0.57633257 -0.76001805 0.843613 -0.23239541 -0.7752424 -0.18621027
0.46549222 -0.45494312 -0.3486739 -0.47950587 0.32711923 -0.49499524 -0.21651645 -0.5205318
0.33437648 -0.5831522 -0.19092654 -0.6115109 0.34121808 -0.57332593 -0.21553732 -0.5961404
0.30707002 -0.005710711 -0.30706996 0.005710711 0.33265653 0.6654091 -0.33955607 0.6710653
0.30105045 1.2064986 -0.2938003 1.2125325 0.31070694 1.2774137 -0.31001624 1.2813252
0.24376406 1.3965124 -0.19645153 1.4054346 -0.033889964 -1.0934767 0.04002627 -1.1612359
0.08820066 -1.1598034 0.1321238 -1.1574001 -0.10377924 -1.1640769 -0.15992953 -1.163669
-0.21590793 -1.1611156 0.18747996 -1.1260031 -0.29913405 -1.126455 0.03352189 -1.0139505
-0.12968984 -1.0175747 0.4297774 -0.76822174 -0.5701873 -0.7599932 0.84536195 -0.22749399
-0.76760334 -0.18429235 0.47188562 -0.45367 -0.35697392 -0.46786878 0.33170903 -0.49412557
-0.224022 -0.5020407 0.33949515 -0.58253425 -0.20272212 -0.6001553 0.34804416 -0.5727748
-0.22133897 -0.5873732 0.3074717 -0.0036483512 -0.30747163 0.0036481798 0.33514166 0.669249
-0.34083068 0.67486256 0.29734054 1.2149975 -0.3004201 1.2186626 0.3069732 1.2850902
-0.31846014 1.288107 0.23310842 1.4056724 -0.20568575 1.4118757 -0.025134373 -1.0832454
0.049287785 -1.1504462 0.09781941 -1.1489792 0.14238632 -1.1464595 -0.09506762 -1.153365
-0.1529431 -1.1530005 -0.20599076 -1.1505501 0.1974466 -1.114266 -0.2877936 -1.1159067
0.04386149 -1.0042112 -0.12380273 -1.0078117 0.4370614 -0.7586636 -0.56289953 -0.74998856
0.84209853 -0.22294095 -0.75307316 -0.17987852 0.47784021 -0.44253382 -0.3626466 -0.4532687
0.33932975 -0.4859069 -0.23120919 -0.4851332 0.3431397 -0.574694 -0.21227671 -0.5864433
0.35400543 -0.56526077 -0.23088951 -0.57527906 0.30479807 -0.00060403737 -0.30479804 0.0006042076
0.31889957 0.6639185 -0.348275 0.66759056 0.2707019 1.2029043 -0.32256028 1.2022536
