aiModel/dataset/sequences/playing_games/WhatsApp Video 2025-09-29 at 18.09.07_b3e87305_win005_aug3_t00000.npy (npy, 12800 bytes, 1 tensors)

array f4 [48, 66]
0	0xbda4650a	-0.08027084
1	0xbf8d932f	-1.1060542
2	0xbe23b1f4	-0.15985852
3	0xbf93a2af	-1.1534022
4	0xbe3b8114	-0.18310958
5	0xbf92eec6	-1.1479118
6	0xbe825f51	-0.25463346
7	0xbf92543e	-1.1431959
8	0x3cbd5af0	0.023114651
9	0xbf95917a	-1.1685021
10	0x3dddc934	0.10829392
11	0xbf9611e1	-1.1724206
12	0x3d4e912d	0.05043142
13	0xbf974cc2	-1.18203
14	0x3e35c02d	0.1774909
15	0xbf95388f	-1.1657885
16	0xbe98531a	-0.297509
17	0xbf8beb61	-1.0931207
18	0x3d28c5b7	0.04120418
19	0xbf83864f	-1.0275363
20	0xbdf0e2b7	-0.117619924
21	0xbf81e283	-1.0147251
22	0x3efd0347	0.49416563
23	0xbf534eaa	-0.82541907
24	0xbeff2fb0	-0.4984107
25	0xbf34d503	-0.7063753
26	0x3f5943e2	0.84869206
27	0xbe799704	-0.24374014
28	0xbf68d20b	-0.909455
29	0xbe1a42a4	-0.15064484
30	0x3ed45b18	0.4147575
31	0xbf0cb3de	-0.54961956
32	0xbf05de99	-0.5229278
33	0xbee00930	-0.4375701
34	0xbeb6388d	-0.3559002
35	0xbf031b5c	-0.5121362
36	0x3e8b5632	0.272142
37	0xbf1cdcf6	-0.6127466
38	0xbecc4d3c	-0.39902675
39	0xbf19479f	-0.5987491
40	0x3e80b8b6	0.25140923
41	0xbf2b5ba1	-0.6693669
42	0xbecbcac4	-0.39803135
43	0xbf147bae	-0.5800122
44	0x3e8923e2	0.2678519
45	0xbf26e097	-0.65186447
46	0x3eb31f0a	0.34984618
47	0xbcb6d164	-0.022316642
48	0xbe962270	-0.2932315
49	0x3d166ce7	0.03672495
50	0x3ed629cb	0.4182876
51	0x3f2b6d76	0.669639
52	0xbe9091c2	-0.28236204
53	0x3f38dbc1	0.7221032
54	0x3ed40dd7	0.4141681
55	0x3f9f11dd	1.2427326
56	0xbe541612	-0.20711544
57	0x3fa70e02	1.305115
58	0xbe704b7a	-0.23466292
59	0x3fade21b	1.3584627
60	0x3ee25594	0.44205916
61	0x3fa6ddd3	1.3036445
62	0xbe0c34e9	-0.13692059
63	0x3fc0b2e3	1.5054592
64	0x3eae9fd1	0.34106305
65	0x3fb5fe00	1.421814
66	0xbd796d27	-0.06089511
67	0xbf88b5cf	-1.0680484
68	0xbe1d70e6	-0.15375099
69	0xbf9276a6	-1.1442459
70	0xbe4e43e2	-0.20143083
71	0xbf9213d8	-1.1412306
72	0xbe609873	-0.21933155
73	0xbf90f886	-1.1325843
74	0x39c755fa	0.00038020295
75	0xbf970a24	-1.179997
76	0x3dc2574b	0.09489306
77	0xbf95b8a1	-1.1696969
78	0x3d4d53e4	0.050128832
79	0xbf956f07	-1.1674508
80	0x3e3e53ad	0.18586607
81	0xbf937a33	-1.1521667
82	0xbe94c296	-0.29054707
83	0xbf8a7439	-1.0816718
84	0x3d026d0f	0.031842288
85	0xbf84be85	-1.0370642
86	0xbe087198	-0.13324583
87	0xbf8136e5	-1.0094877
88	0x3f01a3fe	0.5064086
89	0xbf4d210a	-0.8012854
90	0xbef8cefe	-0.48595423
91	0xbf335d39	-0.7006412
92	0x3f5d1c8e	0.86371696
93	0xbe86abfd	-0.26303092
94	0xbf69cd0b	-0.91328496
95	0xbe1fe4fe	-0.15614697
96	0x3ec62c9f	0.38705918
97	0xbf0a1c85	-0.5394977
98	0xbf00e37b	-0.5034711
99	0xbee32b80	-0.44369125
100	0xbea18e58	-0.31553912
101	0xbf062f74	-0.5241616
102	0x3e8df4fa	0.27725965
103	0xbf176daa	-0.5915171
104	0xbeabbd57	-0.33542892
105	0xbf1ecf88	-0.6203542
106	0x3e7a90ae	0.24469253
107	0xbf269c6c	-0.6508243
108	0xbeacf6be	-0.33782
109	0xbf175d70	-0.5912695
110	0x3e877d8b	0.2646297
111	0xbf2726b1	-0.65293413
112	0x3eb7d320	0.35903263
113	0xbd048a6c	-0.032358572
114	0xbe8e55ef	-0.27799937
115	0x3c9024e4	0.017595716
116	0x3ede00e9	0.4336007
117	0x3f2a56e2	0.6653882
118	0xbe8c6f6d	-0.2742876
119	0x3f3be332	0.7339355
120	0x3eda393e	0.42621797
121	0x3fa01bb1	1.2508451
122	0xbe63d4b5	-0.2224911
123	0x3fa699d7	1.3015698
124	0xbe4f596c	-0.20248955
125	0x3faf15bf	1.3678511
126	0x3eea29eb	0.45735106
127	0x3fa7dd9c	1.3114505
128	0xbe03c92f	-0.12869714
129	0x3fbf7a4a	1.4959195
130	0x3eb29157	0.3487651
131	0x3fb7fcfb	1.4374079
132	0xbd6b97a8	-0.057517678
133	0xbf8a5e82	-1.0810091
134	0xbe2311b6	-0.15924725
135	0xbf8f78c4	-1.120873
136	0xbe3e45a9	-0.1858126
137	0xbf9148a8	-1.1350298
138	0xbe780077	-0.24218927
139	0xbf9077b1	-1.1286527
140	0x3c2bffce	0.010498
141	0xbf98276b	-1.188703
142	0x3dcf6678	0.10126966
143	0xbf9a10f2	-1.2036421
144	0x3d805adc	0.0626733
145	0xbf9898e0	-1.1921654
146	0x3e37c153	0.17944841
147	0xbf94cf5d	-1.1625782
148	0xbea11fc2	-0.31469542
149	0xbf8b51f4	-1.0884385
150	0x3d377689	0.04479078
151	0xbf83d518	-1.0299406
152	0xbe0634db	-0.131061
153	0xbf81d9e5	-1.0144621
154	0x3f024422	0.5088521
155	0xbf4f6a01	-0.81021124
156	0xbefa5545	-0.4889318
157	0xbf38a082	-0.72119915
158	0x3f59768c	0.84946513
159	0xbe915d54	-0.28391516
160	0xbf6bd9dc	-0.921293
161	0xbe398269	-0.18116154
162	0x3ed0ba36	0.40767068
163	0xbf0e54ad	-0.55597955
164	0xbf019398	-0.50615835
165	0xbef20ef4	-0.47277033
166	0xbeae7005	-0.3406984
167	0xbf06c490	-0.5264368
168	0x3e9234b6	0.2855584
169	0xbf1f75b5	-0.6228898
170	0xbeae0d62	-0.33994585
171	0xbf1e99e9	-0.619536
172	0x3e6cb118	0.23114431
173	0xbf2dc1c9	-0.6787382
174	0xbeb53591	-0.3539243
175	0xbf145432	-0.5794097
176	0x3e78650e	0.242573
177	0xbf26bc63	-0.65131205
178	0x3eb1f4b7	0.34757015
179	0xbcae0103	-0.021240717
180	0xbe9289c7	-0.2862074
181	0x3cc65e4d	0.024214888
182	0x3eddd9c6	0.4333021
183	0x3f28dc00	0.65960693
184	0xbe8c1ef8	-0.27367377
185	0x3f3dae12	0.74093735
186	0x3edb896c	0.42878282
187	0x3fa23ac7	1.2674187
188	0xbe67872a	-0.22610155
189	0x3fa8b74c	1.3180938
190	0xbe5a774e	-0.21334574
191	0x3fb182da	1.3868058
192	0x3eeaa9ef	0.45832774
193	0x3fa9727b	1.3238062
194	0xbe050443	-0.12989907
195	0x3fc01096	1.5005062
196	0x3eb2ad85	0.3489801
197	0x3fb91089	1.4458171
198	0xbd7ffdc9	-0.062497888
199	0xbf8d2f5c	-1.1030078
200	0xbe1f0d14	-0.15532333
201	0xbf93c952	-1.1545813
202	0xbe3cbbdc	-0.18431038
203	0xbf92675b	-1.1437792
204	0xbe7d2b80	-0.24723625
205	0xbf92ed85	-1.1478735
206	0x3bec7eb3	0.007217252
207	0xbf94a0f4	-1.1611619
208	0x3dde5872	0.10856713
209	0xbf98280e	-1.1887224
210	0x3da41bd7	0.080131225
211	0xbf972b9b	-1.1810182
212	0x3e41f6f9	0.18941869
213	0xbf94ceb7	-1.1625584
214	0xbe94185a	-0.2892483
215	0xbf8ca796	-1.0988643
216	0x3d424c96	0.04743632
217	0xbf86620c	-1.0498672
218	0xbe1a7f7f	-0.15087698
219	0xbf82ee22	-1.0228922
220	0x3f024fe8	0.5090318
221	0xbf4e8d7e	-0.8068465
222	0xbef98407	-0.4873354
223	0xbf38247b	-0.71930665
224	0x3f561e3b	0.8363988
225	0xbe82a420	-0.25515842
226	0xbf60d5a7	-0.8782601
227	0xbe421ce8	-0.1895634
228	0x3ecc4c1d	0.3990182
229	0xbf123ef9	-0.5712734
230	0xbf008411	-0.5020152
231	0xbedf9b71	-0.4367328
232	0xbeac4d30	-0.3365264
233	0xbf057dc9	-0.5214506
234	0x3e9342b1	0.2876182
235	0xbf1ee597	-0.62069076
236	0xbebd328e	-0.36952633
237	0xbf19da51	-0.6009875
238	0x3e83453f	0.25638768
239	0xbf2f73bb	-0.68535966
240	0xbeb93749	-0.36174992
241	0xbf19a9f7	-0.6002497
242	0x3e854552	0.2602945
243	0xbf2c678d	-0.67345506
244	0x3eb1ff5c	0.34765136
245	0xbd26f5cb	-0.04076175
246	0xbe924124	-0.28565323
247	0x3cca418e	0.024689462
248	0x3ede6fc0	0.43444633
249	0x3f2a93da	0.66631854
250	0xbe8c2787	-0.27373907
251	0x3f3c058b	0.7344596
252	0x3ed83948	0.42231202
253	0x3f9f38d7	1.2439221
254	0xbe665f54	-0.22497302
255	0x3fa775a2	1.3082774
