aiModel/dataset/sequences/playing_games/WhatsApp Video 2025-09-29 at 18.09.07_b3e87305_win001_aug1_t00000.npy (npy, 12800 bytes, 1 tensors)

array f4 [48, 66]
00000000: 1617 383d 8dc1 84bf ffc3 f33d cade 8dbf
00000010: 9cce 263e e621 8abf 7fe8 693e ee44 89bf
00000020: 2507 50bb c219 90bf 7d63 83bd 8807 91bf
00000030: b2d2 fdbd ac54 90bf cfee 813e 9a33 87bf
00000040: dae0 69be 2cc8 8ebf d655 ac3d 64dd 76bf
00000050: 47db 8abd 93f4 7cbf eb04 e93e aff5 32bf
00000060: f433 07bf 07d3 4cbf ad61 4a3f 132d f5bd
00000070: 743a 3dbf 1411 94be 9c2a e03e 40cf d7be
00000080: 01ad 9dbe 4b29 06bf b21d 9d3e b7e8 e1be
00000090: b925 49be f4b4 04bf 70ae b83e 9f97 07bf
000000a0: afcb 30be 069a 18bf b9d5 ba3e 4c7f 05bf
000000b0: 4089 2ebe 25ec 16bf 5c05 813e fbdc 7d3c
000000c0: c3c3 abbe c74f 98bc 066e 543e 2db2 263f
000000d0: 87b0 e5be 5b67 163f 8520 c93d 5e8b 953f
000000e0: 5611 e0be 7652 8e3f 64b2 e13d e922 9e3f
000000f0: fe69 f4be 9315 943f a22e 423d 41e5 a93f
00000100: 256f c6be 0ce9 a43f 7375 2e3d 1442 86bf
00000110: 4b7e 033e b969 8fbf 3da0 313e ab34 8dbf
00000120: fb20 5c3e 6a5b 8cbf 93c0 0cbc 1f5e 8fbf
00000130: 5fa0 27bd c40b 92bf 784a dcbd a486 92bf
00000140: b5cf 853e cf9a 87bf c02f 60be 11d8 90bf
00000150: 42d8 d53d 4246 7ebf b25a 3ebd b429 81bf
00000160: 5552 ec3e 1a3f 35bf a0a0 ffbe 69f4 55bf
00000170: f843 4a3f d342 11be cc66 46bf 1e45 91be
00000180: 8708 ea3e a8fb d2be b5a9 9abe d680 09bf
00000190: 2800 ac3e 4637 dbbe 6190 23be c8e0 08bf
000001a0: 2187 ad3e bf14 09bf 1c18 17be 6c8c 1fbf
000001b0: b192 b53e 1233 04bf a651 30be 79d1 1cbf
000001c0: 38d3 843e 54b7 a33b 0e9c a4be b956 37bc
000001d0: d47d 413e 9077 2c3f 92b5 e6be 41ed 173f
000001e0: b884 e43d 12f0 963f 8727 eabe bdfd 903f
000001f0: b701 d63d 440f a13f b8ed fbbe a179 983f
00000200: b40f 3e3d 6b4d af3f 1aa0 ccbe aa7a a83f
00000210: 5fc8 a93d 9070 86bf 50f0 063e 4faf 90bf
00000220: 0e28 373e 551d 8fbf ed87 653e 6409 8dbf
00000230: 3b22 853a 31d3 90bf 7d1a 52bd 41d6 91bf
00000240: 54e5 d2bd c8d6 91bf c652 8a3e f472 89bf
00000250: 9a61 38be 63c7 90bf cea5 f43d 8dba 7cbf
00000260: ff62 30bd 433d 80bf 48bc e83e eeb7 33bf
00000270: e476 fbbe 81dc 4cbf 1c47 4d3f 2e41 01be
00000280: 09f1 3fbf f759 8dbe 2b96 e93e f36b cdbe
00000290: c320 9fbe 000f 08bf 3536 ae3e 00be e3be
000002a0: b60f 3fbe ab92 06bf 45db c33e 4168 09bf
000002b0: 1a41 15be 5835 1cbf adc6 b63e a637 05bf
000002c0: 63c4 2bbe ca77 1ebf 599f 893e b35e 4d3c
000002d0: c2a5 a8be e1b2 61bd 8895 5a3e 0042 2b3f
000002e0: 871a e7be d857 1a3f f8d7 d23d 7168 983f
000002f0: 28ed f7be 1bac 8e3f c054 e43d 0d1d a03f
00000300: acbb fdbe fed3 983f cf6a 9a3c 108f ae3f
00000310: d9d7 c9be 4b83 a83f 4788 6e3d c344 85bf
00000320: b7a4 0c3e 34e8 8dbf 040b 453e 3077 8abf
00000330: 3373 613e 8abd 8bbf 157a 693c ad2d 91bf
00000340: a46f 00bd 8a7f 90bf ecca 8ebd b820 90bf
00000350: 6e97 913e c226 88bf d535 3cbe 52c9 8ebf
00000360: a070 e83d 48ec 77bf 2d73 62bc 0ba4 76bf
00000370: 7db3 f53e 9e0a 33bf 4453 f6be 8955 47bf
00000380: 5fb3 4a3f 3760 d4bd 7fe2 3bbf 433d 92be
00000390: 1888 e23e 6506 c3be 3da0 a7be 5489 fdbe
000003a0: 7ed4 b23e 9083 debe 7ff0 55be c524 fdbe
000003b0: 9d0f bf3e 56c9 03bf f1c8 29be 7a12 1abf
000003c0: 3d48 c33e 861e 04bf 14a9 48be ff7e 15bf
000003d0: 0077 763e 8bcd 133d 013f a7be b248 03bd
000003e0: ef62 413e 63b2 293f 04c0 debe 088b 1a3f
000003f0: 6b8f 7f3d eca8 953f 4f35 f8be b336 8d3f
0.04494389 -1.0371567 0.11902618 -1.1083615 0.16289753 -1.0791595 0.22842596 -1.0724161
-0.003174254 -1.1257861 -0.0641546 -1.1330423 -0.123937026 -1.127584 0.2537751 -1.0562623
-0.2283968 -1.1154838 0.084148094 -0.96431565 -0.06780105 -0.9881069 0.45511565 -0.69906133
-0.5281365 -0.800095 0.7905529 -0.11971488 -0.7391732 -0.2891928 0.43782508 -0.42150307
-0.30796054 -0.5240676 0.30686718 -0.4412286 -0.19643296 -0.5183861 0.36070585 -0.5296573
-0.17265199 -0.5961002 0.36491182 -0.52147365 -0.17044544 -0.5895408 0.251994 0.01549458
-0.33547792 -0.018592728 0.20745096 0.65115625 -0.44861242 0.5875146 0.09820656 1.1683156
-0.43763226 1.1118915 0.110203534 1.2354404 -0.47737116 1.1569084 0.047407754 1.3273088
-0.38756672 1.288362 0.042592477 -1.0488915 0.12841146 -1.1204139 0.17346282 -1.1031698
0.21496956 -1.0965397 -0.008590835 -1.1200598 -0.040924426 -1.140984 -0.10756391 -1.1447339
0.2613503 -1.0594119 -0.21893215 -1.1315938 0.104416385 -0.99325955 -0.046473213 -1.0090852
0.46156564 -0.7079941 -0.49927235 -0.83576065 0.7900996 -0.14185648 -0.77500606 -0.28373045
0.4570963 -0.41207623 -0.302076 -0.53712213 0.3359387 -0.42815608 -0.15973045 -0.5346799
0.33892158 -0.5354728 -0.14755291 -0.6232364 0.3546348 -0.5164043 -0.17218646 -0.6125713
0.25942397 0.0049962196 -0.3215031 -0.01119011 0.18895656 0.6736994 -0.45060402 0.59346396
0.111581266 1.1792014 -0.45733282 1.1327435 0.10449546 1.2582784 -0.49204803 1.1912118
0.046401694 1.3695501 -0.39965898 1.3162434 0.08290171 -1.0503101 0.1317761 -1.13035
0.17886373 -1.1180826 0.22415133 -1.1018491 0.0010157296 -1.131445 -0.051294792 -1.139351
-0.10297647 -1.1393671 0.27016276 -1.0738206 -0.18005982 -1.1310848 0.11945687 -0.98722154
-0.04306316 -1.0018696 0.45456147 -0.7020253 -0.49114144 -0.8002396 0.8018663 -0.1262252
-0.74977165 -0.276077 0.45622382 -0.4012142 -0.31079683 -0.5314789 0.34025732 -0.44480896
-0.18658337 -0.5256755 0.38253227 -0.53674704 -0.14575616 -0.61018896 0.35698453 -0.5203804
-0.16774134 -0.61901534 0.26879385 0.012534785 -0.32938963 -0.055102233 0.21346104 0.66897583
-0.45137426 0.6029029 0.10295099 1.1906873 -0.48423123 1.1146272 0.11148977 1.2508866
-0.49557245 1.1939695 0.018849758 1.3637409 -0.3942249 1.3165067 0.058235433 -1.041161
0.13734709 -1.1086488 0.19242483 -1.0817623 0.22016601 -1.0917218 0.014250298 -1.1342064
-0.03135647 -1.1288922 -0.06972298 -1.1259985 0.28435844 -1.0636828 -0.1837991 -1.1155188
0.113496065 -0.9684491 -0.013821405 -0.9634406 0.479885 -0.69938076 -0.48110402 -0.7786489
0.7917995 -0.10369914 -0.7339248 -0.28562364 0.44244456 -0.38090816 -0.3273944 -0.49518836
0.34927744 -0.4345975 -0.20892523 -0.49442115 0.373166 -0.5147909 -0.1658056 -0.60184443
0.3814105 -0.51609075 -0.19595748 -0.58396906 0.24068832 0.036084693 -0.32665256 -0.03205175
0.18885396 0.6628782 -0.4350587 0.60368395 0.062392633 1.1692176 -0.4847817 1.1032318
