aiModel/dataset/sequences/playing_games/WhatsApp Video 2025-09-29 at 18.09.07_b3e87305_win000_aug1_t00000.npy (npy, 12800 bytes, 1 tensors)

array f4 [48, 66]
0	0x3d920e3e	0.07131623
1	0xbfa2ef92	-1.2729361
2	0x3e29cbca	0.16581646
3	0xbfa9d01d	-1.3266636
4	0x3e585bc5	0.21128757
5	0xbfa90a66	-1.3206298
6	0x3e802fa9	0.25036362
7	0xbfa84080	-1.3144684
8	0xba82a6a5	-0.0009967877
9	0xbfacce65	-1.3500487
10	0xbd76a127	-0.06021228
11	0xbfade0b3	-1.3584198
12	0xbdedd922	-0.116136804
13	0xbfaed01e	-1.3657262
14	0x3e979e7f	0.2961311
15	0xbfa24fa5	-1.2680556
16	0xbe460896	-0.19339213
17	0xbfab3d6d	-1.3378121
18	0x3e0c1e87	0.1368352
19	0xbf97cae3	-1.1858791
20	0xbd672697	-0.056433287
21	0xbf9b7515	-1.2145106
22	0x3ef70df6	0.4825284
23	0xbf5f4d3b	-0.8722722
24	0xbf0405d1	-0.51571375
25	0xbf6e77dd	-0.93151647
26	0x3f4eff3e	0.8085822
27	0xbf161d22	-0.58638203
28	0xbf3255e1	-0.6966229
29	0xbedd4056	-0.43213147
30	0x3f8c49c0	1.0960007
31	0xbecfee89	-0.40611675
32	0xbf187eb8	-0.5956836
33	0xbe2e6a94	-0.17032844
34	0x3fa1ec6b	1.2650274
35	0xbea37348	-0.3192389
36	0xbf1c1188	-0.6096425
37	0xbc2bf949	-0.010496446
38	0x3f9937b2	1.1970122
39	0xbeb4da23	-0.35322675
40	0x00000000	0.0
41	0x00000000	0.0
42	0x3f8eda14	1.1160302
43	0xbeb94c6c	-0.36191118
44	0xbef993ff	-0.48745725
45	0xbe22a0b3	-0.15881614
46	0x3eb0dbb2	0.34542614
47	0x3c2c955b	0.010533656
48	0xbeca970a	-0.3956836
49	0xbd02dca7	-0.03194871
50	0x3eae6d3f	0.34067723
51	0x3f39c988	0.7257314
52	0xbeab6754	-0.3347727
53	0x3f3461fd	0.7046202
54	0x3ea1eabe	0.31624407
55	0x3fb16428	1.385869
56	0xbea92f1c	-0.33043754
57	0x3fac542c	1.3463187
58	0x3ea64ad9	0.3247898
59	0x3fbe1ba2	1.4852183
60	0xbeb7b1ea	-0.35877925
61	0x3fb79b28	1.4344225
62	0x3e7e52a0	0.24836206
63	0x3fca2f74	1.5795732
64	0xbe46183a	-0.19345179
65	0x3fc85317	1.5650357
66	0x3d912530	0.07087171
67	0xbfa4099b	-1.2815431
68	0x3e289bd8	0.164657
69	0xbfaaf516	-1.3356044
70	0x3e57f61a	0.21089974
71	0xbfaa2979	-1.3293906
72	0x3e804492	0.25052315
73	0xbfa95a06	-1.3230598
74	0xb9cbe740	-0.00038891472
75	0xbfadf0a1	-1.3589059
76	0xbd7033af	-0.05864304
77	0xbfaefdaa	-1.3671162
78	0xbdeebc6e	-0.11657034
79	0xbfafec52	-1.3743994
80	0x3e97c07e	0.29639047
81	0xbfa36091	-1.2763845
82	0xbe4a9610	-0.19783807
83	0xbfac3baf	-1.3455714
84	0x3e0b6e63	0.13616328
85	0xbf98c6fc	-1.1935725
86	0xbd6bf46b	-0.057606142
87	0xbf9c84e9	-1.2228061
88	0x3ef6dc42	0.48214918
89	0xbf610db4	-0.87911534
90	0x00000000	0.0
91	0x00000000	0.0
92	0x3f494625	0.7862266
93	0xbf18b776	-0.5965494
94	0xbf33edf8	-0.70284986
95	0xbedbf98e	-0.42963833
96	0x00000000	0.0
97	0x00000000	0.0
98	0x00000000	0.0
99	0x00000000	0.0
100	0x3fad4a9d	1.3538395
101	0xbe4f357b	-0.20235245
102	0xbf1fb256	-0.62381494
103	0x3c9738c5	0.018459687
104	0x3fa49842	1.2858965
105	0xbe60c63a	-0.21950617
106	0xbf0b2071	-0.54346377
107	0xbc2b177f	-0.010442614
108	0x3f99a738	1.2004156
109	0xbe75e262	-0.2401214
110	0xbf01f055	-0.5075734
111	0xbd93886a	-0.07203753
112	0x3eb21bed	0.3478693
113	0x3c12c9d4	0.008959252
114	0xbec988f2	-0.39362293
115	0xbd054dd1	-0.032544915
116	0x3eb4714f	0.35242698
117	0x3f3c5fac	0.73583484
118	0xbea70d4d	-0.32627335
119	0x3f375bd6	0.71624506
120	0x3eadfc53	0.3398157
121	0x3fb53d61	1.4159356
122	0xbe9f40e1	-0.31104186
123	0x3fb07c04	1.3787847
124	0x3eb1e41d	0.3474435
125	0x3fc217c5	1.5163504
126	0xbeaded21	-0.33969977
127	0x3fbc5dbf	1.4716109
128	0x3e914603	0.28373727
129	0x3fce95aa	1.6139424
130	0xbe2cf3f5	-0.16889937
131	0x3fcbf33e	1.5933607
132	0x3d84b83a	0.06480451
133	0xbfa5290c	-1.2903152
134	0x3e21e3b7	0.15809523
135	0xbfac14bf	-1.3443831
136	0x00000000	0.0
137	0x00000000	0.0
138	0x3e7b3e69	0.24535526
139	0xbfaa67cf	-1.331293
140	0xbbc302e6	-0.0059512733
141	0xbfaf1bd8	-1.3680372
142	0xbd821ef1	-0.06353558
143	0xbfb0255e	-1.3761404
144	0xbdfb7d50	-0.12279761
145	0xbfb11252	-1.3833716
146	0x3e9523fb	0.29129013
147	0xbfa46414	-1.2843041
148	0xbe54218b	-0.2071592
149	0xbfad4853	-1.3537697
150	0x3e052647	0.13002883
151	0xbf99ac8e	-1.2005785
152	0xbd83c84a	-0.064346865
153	0xbf9d8e63	-1.2309078
154	0x3ef49246	0.47767848
155	0xbf62953c	-0.88508964
156	0x00000000	0.0
157	0x00000000	0.0
158	0x3f481bcf	0.7816743
159	0xbf189c54	-0.5961354
160	0xbf36e0a3	-0.7143652
161	0xbedc2cda	-0.4300297
162	0x00000000	0.0
163	0x00000000	0.0
164	0x00000000	0.0
165	0x00000000	0.0
166	0x00000000	0.0
167	0x00000000	0.0
168	0xbf272ea8	-0.65305567
169	0x3d2f0b06	0.042735122
170	0x00000000	0.0
171	0x00000000	0.0
172	0xbf11b1d7	-0.5691199
173	0x3cacbd18	0.02108626
174	0x3f98db56	1.1941936
175	0xbe4dd36a	-0.2010018
176	0xbf08dc58	-0.5346122
177	0xbccaea44	-0.02476991
178	0x3eb308fa	0.34967786
179	0x3c098b2a	0.008394996
180	0xbec98680	-0.39360428
181	0xbcfad4d2	-0.030619059
182	0x3eb603c8	0.3554976
183	0x3f3f7282	0.747841
184	0xbeaa1465	-0.33218685
185	0x3f3a8499	0.7285858
186	0x3eafbd8a	0.34324294
187	0x3fb7ad19	1.43497
188	0xbea1f5ad	-0.31632748
189	0x3fb2f0bc	1.3979716
190	0x3eb34c40	0.35019112
191	0x3fc49f52	1.5361121
192	0xbeb026b7	-0.34404537
193	0x3fbeea36	1.4915226
194	0x3e937128	0.2879727
195	0x3fd13764	1.6345029
196	0xbe3406ce	-0.17580721
197	0x3fce8373	1.6133865
198	0x3d907506	0.070535704
199	0xbfa1332a	-1.2593739
200	0x3e269c6d	0.16270609
201	0xbfa829f0	-1.3137798
202	0x00000000	0.0
203	0x00000000	0.0
204	0x3e80f3ba	0.2518595
205	0xbfa6740b	-1.3004164
206	0x00000000	0.0
207	0x00000000	0.0
208	0xbd6c4e28	-0.057691723
209	0xbfac38a6	-1.3454788
210	0xbdf0cc06	-0.117576644
211	0xbfad2690	-1.3527393
212	0x3e988ef6	0.2979657
213	0xbfa061ac	-1.2529807
214	0xbe51d5d0	-0.20491719
215	0xbfa94d9f	-1.3226813
216	0x3e0a8022	0.13525441
217	0xbf95945b	-1.16859
218	0xbd720258	-0.059084266
219	0xbf9984cb	-1.199365
220	0x3ef757ae	0.48309082
221	0xbf5a380b	-0.85241765
222	0xbf03da87	-0.5150532
223	0xbf69cd4c	-0.91328883
224	0x00000000	0.0
225	0x00000000	0.0
226	0xbf38f010	-0.72241306
227	0xbec8516b	-0.39124617
228	0x3f9a45be	1.2052534
229	0xbe7064cd	-0.23475952
230	0xbf20d10f	-0.62819
231	0xbd938a7c	-0.07204148
232	0x00000000	0.0
233	0x00000000	0.0
234	0xbf287dcd	-0.65816957
235	0x3dc108ed	0.094255306
236	0x00000000	0.0
237	0x00000000	0.0
238	0xbf130fb3	-0.5744583
239	0x3d9a3962	0.07530476
240	0x3f9f6e99	1.2455627
241	0xbe173499	-0.14766158
242	0xbf0b2048	-0.5434613
243	0x3d0a6eba	0.033797003
244	0x3eb4909a	0.35266572
245	0xbcfe170e	-0.031016853
246	0xbec6fdc8	-0.38865495
247	0x3bcbb80b	0.006217008
248	0x00000000	0.0
249	0x00000000	0.0
250	0xbea26446	-0.31717128
251	0x3f45b868	0.77234507
252	0x3eb82c54	0.3597132
253	0x3fbd8d7a	1.48088
254	0xbe9af77e	-0.30266947
255	0x3fb98048	1.4492273
