aiModel/dataset/sequences/playing_games/WhatsApp Video 2025-09-29 at 18.09.07_b3e87305_win004_aug3_t00000.npy (npy, 12800 bytes, 1 tensors)

array f4 [48, 66]
00000000: 27ef 2cbd babc 95bf 9145 693d 81be 9fbf
00000010: f67d ad3d ba0d a0bf 96be e13d 0a4c a0bf
00000020: 16e9 0abe d04a a1bf e8e1 4bbe 33cd 9fbf
00000030: fecd 5cbe 3efd 9fbf 76e6 443e 2dca 9abf
00000040: 9fa7 9abe 177b 9dbf d108 1c3d 73d5 88bf
00000050: d636 33be 9510 8dbf bbb1 eb3e 2938 53bf
00000060: 7ce3 10bf c2a5 44bf 6de0 5d3f 9c7c 75be
00000070: d29a 5fbf 97ea 38be 873d 0d3f 7643 03bf
00000080: fc66 03bf b348 07bf 0000 0000 0000 0000
00000090: d29d cbbe 0c3a 20bf 61c8 db3e a36c 1dbf
000000a0: 0eab c2be d65a 29bf 78c7 dc3e 0d18 22bf
000000b0: 7397 b5be 30d3 27bf f2c2 9e3e ddf9 04bc
000000c0: 0000 0000 0000 0000 2eef c53e 7fc7 443f
000000d0: c4b7 a7be 8856 443f f217 bb3e 6cc3 b13f
000000e0: f24d 96be 5abe b03f 0f8e b63e 0df4 b73f
000000f0: 8c4d a0be 3998 bb3f cfdf 8c3e 352b ca3f
00000100: 00af 36be f3b2 ca3f a22e 49bd 3b8a 97bf
00000110: 42a6 ce3c a7ea 9fbf 0000 0000 0000 0000
00000120: 670f 053e f604 9fbf 3729 02be 4fbc 9fbf
00000130: 99da 42be e351 9fbf 0000 0000 0000 0000
00000140: 8b77 353e cb8a 98bf 7939 a8be 20a5 9dbf
00000150: 0000 0000 0000 0000 d56a 1ebe bf47 8dbf
00000160: a415 f33e 2efb 4ebf 1626 14bf 4463 4abf
00000170: 3462 603f fdc4 62be 94f5 5bbf 2d1f 49be
00000180: 569f 123f b9d6 ffbe c1db 00bf f7c2 0bbf
00000190: 0000 0000 0000 0000 f924 d3be c4eb 1cbf
000001a0: a3cc e93e 6d00 2abf 007d a8be 1603 2cbf
000001b0: a03d df3e 4aef 24bf 6b39 adbe 8683 2bbf
000001c0: 0000 0000 0000 0000 0000 0000 0000 0000
000001d0: c1cb bc3e ed5e 433f 14ed a6be 05eb 473f
000001e0: 54c6 b93e de75 af3f 45ca 9abe 320a b23f
000001f0: d541 b73e a7fa bb3f 77f0 9bbe 0645 b93f
00000200: 0321 903e 4f0f ca3f f7e9 3cbe 6f7e cc3f
00000210: 27b3 25bd f3c1 95bf 85fd 2f3d 8882 a0bf
00000220: 0000 0000 0000 0000 7bed 0d3e 66d3 9ebf
00000230: a203 f5bd 13fb 9dbf d034 31be 1573 9fbf
00000240: 0000 0000 0000 0000 0000 0000 0000 0000
00000250: 4435 94be 0f1c 9cbf 0000 0000 0000 0000
00000260: 3944 15be 9319 8dbf 3a2f fb3e 2759 51bf
00000270: 21d5 12bf 808d 47bf e889 633f 3af8 6ebe
00000280: 0000 0000 0000 0000 0e81 103f 2f9f 04bf
00000290: a56c 02bf 9419 0dbf bf05 c73e d64f 1abf
000002a0: 3fab c7be 0f47 1dbf d042 d13e 69a8 2cbf
000002b0: fa8e abbe d8a0 2dbf 528a d33e 9d92 26bf
000002c0: 54b5 a6be 6ba8 2abf 0000 0000 0000 0000
000002d0: d5ab a2be 685a 4a3c 38c2 b73e c404 403f
000002e0: 0000 0000 0000 0000 d334 a63e eb66 af3f
000002f0: a560 acbe e479 b03f 8c4a ad3e c219 ba3f
00000300: c8da b1be b448 b93f 7a35 7e3e d2c4 c93f
00000310: 2330 5ebe e0e4 ca3f 4953 16bd 5f3d 93bf
00000320: d781 d93c 92e1 9dbf 0000 0000 0000 0000
00000330: 4039 123e bc82 99bf b5b0 f5bd 2cae 9bbf
00000340: 74ce 2abe 8e0d 9dbf a2c1 55be 9543 9cbf
00000350: 0000 0000 0000 0000 0d2c 98be 2868 98bf
00000360: 4da0 c43c 6dfe 8abf 06d8 16be 62a3 8bbf
00000370: 1016 f03e 60fb 4fbf 2964 12bf b87a 47bf
00000380: 46dd 5f3f 011f 5fbe 0000 0000 0000 0000
00000390: 5f53 083f aa74 04bf 59c8 05bf c1cc 0cbf
000003a0: 7412 aa3e fa02 1cbf 23e1 c7be e708 1bbf
000003b0: 931b c43e c7a1 32bf b5ba b7be a7d6 29bf
000003c0: 049a c93e 503f 2bbf f3a9 b9be e0df 24bf
000003d0: 1311 aa3e 18fe 8e3c a2ac acbe 627c 343c
000003e0: 1a98 bc3e 0209 3d3f 0000 0000 0000 0000
000003f0: 3845 9e3e c971 ac3f 7270 afbe 8d33 ab3f
-0.04222026 -1.169822 0.05695111 -1.2480012 0.08471291 -1.2504189 0.110226795 -1.2523205
-0.13565478 -1.2600956 -0.19910395 -1.2484497 -0.21562955 -1.2499158 0.19228539 -1.2092949
-0.3020601 -1.2303189 0.038094345 -1.069014 -0.17501387 -1.1020685 0.46034035 -0.8250757
-0.56597114 -0.76815426 0.8667057 -0.23973316 -0.8734561 -0.18058239 0.5517201 -0.5127481
-0.51329017 -0.52845305 0.0 0.0 -0.39768845 -0.6258857 0.42926314 -0.6149389
-0.3802113 -0.6615423 0.43120933 -0.6331795 -0.3546711 -0.6555662 0.31008106 -0.008116213
0.0 0.0 0.38659042 0.76866907 -0.3275739 0.76694536 0.36541706 1.3887763
-0.29356343 1.3808091 0.35655257 1.4371353 -0.31309164 1.465583 0.27514502 1.5794436
-0.17840195 1.5835861 -0.04911674 -1.183906 0.025225762 -1.2493485 0.0 0.0
0.12994157 -1.2423389 -0.12711035 -1.2479342 -0.19028701 -1.2446865 0.0 0.0
0.17721383 -1.1917356 -0.32856348 -1.2316017 0.0 0.0 -0.1547044 -1.103752
0.47477448 -0.8085202 -0.57870615 -0.7905772 0.87649846 -0.22145458 -0.859216 -0.19640799
0.5727438 -0.49968508 -0.5033532 -0.5459437 0.0 0.0 -0.41239145 -0.6129725
0.45663938 -0.664069 -0.32907867 -0.6719221 0.43601704 -0.64427626 -0.3383287 -0.66997564
0.0 0.0 0.0 0.0 0.36874202 0.7631672 -0.3260275 0.78092986
0.36284125 1.3707845 -0.30232444 1.3909361 0.35792413 1.4685868 -0.30456898 1.4474189
0.28150186 1.5785922 -0.18448626 1.5976084 -0.040454056 -1.1699814 0.042966384 -1.2539835
0.0 0.0 0.13860123 -1.2408264 -0.119635835 -1.2342247 -0.17305303 -1.2456995
0.0 0.0 0.0 0.0 -0.28946888 -1.2196063 0.0 0.0
-0.14576806 -1.102343 0.49059469 -0.8177666 -0.5735646 -0.77950287 0.88882303 -0.23336878
0.0 0.0 0.5644692 -0.51805395 -0.5094703 -0.55117154 0.3887157 -0.6027807
-0.38997838 -0.6143655 0.40871286 -0.67444474 -0.3350752 -0.67823553 0.41316468 -0.65067464
-0.32560217 -0.66663235 0.0 0.0 -0.31771722 0.012350656 0.35890365 0.7500727
0.0 0.0 0.32462177 1.3703283 -0.33667484 1.3787198 0.33845937 1.4539111
-0.3473723 1.4475312 0.24825087 1.576319 -0.2169805 1.5851097 -0.03670052 -1.1503104
0.02655117 -1.2334464 0.0 0.0 0.14279652 -1.1993022 -0.11996595 -1.2162528
-0.16680318 -1.2269762 -0.20874646 -1.2208124 0.0 0.0 -0.29721108 -1.1906786
0.024002219 -1.0858895 -0.14730844 -1.0909235 0.46891832 -0.8124294 -0.5718408 -0.7792163
0.8744701 -0.21789171 0.0 0.0 0.53252214 -0.51740515 -0.5225883 -0.5499993
0.33217204 -0.6094204 -0.39038953 -0.6056046 0.38302287 -0.697781 -0.35884634 -0.6634316
0.39375317 -0.6689348 -0.36262473 -0.64404106 0.33216152 0.017455146 -0.33725458 0.011015983
0.36834794 0.7384187 0.0 0.0 0.30912185 1.3472224 -0.34265476 1.3375107
