aiModel/dataset/sequences/playing_games/WhatsApp Video 2025-09-29 at 18.09.07_b3e87305_win002_orig_t00000.npy (npy, 12800 bytes, 1 tensors)

array f4 [48, 66]
0.034742247 -1.0691456 0.108706 -1.1343257 0.15245646 -1.1323129 0.19106396 -1.1285518
-0.042804938 -1.135958 -0.09844598 -1.1352829 -0.1457082 -1.134624 0.24860752 -1.0872834
-0.22541353 -1.103139 0.106941245 -0.9891196 -0.070434414 -0.9942693 0.4649066 -0.7351042
-0.5349953 -0.7212047 0.8134986 -0.23280048 -0.7649458 -0.17232607 0.5359002 -0.4392709
-0.48513025 -0.3920874 0.37223637 -0.4764231 -0.34720832 -0.43535835 0.35733885 -0.556801
-0.35408264 -0.5193106 0.37892732 -0.5519471 -0.3767182 -0.51259226 0.29881755 -0.002069195
-0.29881752 0.0020690246 0.3287506 0.67422366 -0.33320126 0.68398136 0.31744143 1.2147857
-0.29716992 1.2150497 0.3217861 1.2870729 -0.31861046 1.286726 0.26826948 1.4068016
-0.18597399 1.4070538 0.03333198 -1.0680006 0.1065696 -1.1332307 0.15023588 -1.1313173
0.18923105 -1.1275647 -0.04459776 -1.135049 -0.0999895 -1.1345555 -0.14726213 -1.1340537
0.24681517 -1.0864186 -0.2273103 -1.1029017 0.10475516 -0.9881171 -0.0718501 -0.9932384
0.4636365 -0.735746 -0.5362701 -0.7221822 0.8124822 -0.23296547 -0.76152146 -0.17353225
0.5331486 -0.43925276 -0.4841464 -0.39013204 0.37000376 -0.47662812 -0.34710827 -0.43181318
0.3547324 -0.5571868 -0.35706842 -0.51815987 0.3766918 -0.5522681 -0.37855196 -0.51167285
0.29859948 -0.003187866 -0.29859948 0.0031880364 0.34200656 0.67214286 -0.32857865 0.68279165
0.3272127 1.2120246 -0.29576123 1.2130604 0.3311893 1.2842586 -0.31685892 1.2859724
0.27702573 1.404906 -0.18595734 1.404483 0.028210314 -1.0682985 0.10114325 -1.1331898
0.14487319 -1.1312501 0.18424736 -1.1273378 -0.049915917 -1.1353374 -0.10502518 -1.1349684
-0.15225574 -1.134535 0.2417223 -1.0860074 -0.23219042 -1.1032941 0.09942624 -0.9883361
-0.07712179 -0.99391186 0.45967683 -0.736473 -0.5402309 -0.7229905 0.81582814 -0.23389477
-0.765072 -0.17615573 0.5294906 -0.43922126 -0.48948354 -0.3915674 0.36619344 -0.47671637
-0.35149404 -0.43281144 0.34809747 -0.5576884 -0.3604143 -0.51892036 0.37040815 -0.5526772
-0.38282692 -0.51317817 0.29765874 -0.0030775166 -0.29765883 0.0030776872 0.34786245 0.6725645
-0.32609975 0.6833231 0.32908008 1.2131135 -0.2953351 1.2141373 0.3333683 1.2853771
-0.31703994 1.2872427 0.27572587 1.4072453 -0.18558136 1.4058268 0.027333774 -1.0685687
0.10042243 -1.1334898 0.14433941 -1.1316582 0.18397057 -1.1277297 -0.05066079 -1.1358701
-0.10579245 -1.1356342 -0.15303394 -1.13536 0.24158253 -1.0864761 -0.2331396 -1.1043661
0.098460026 -0.9887229 -0.07820304 -0.99452513 0.46092176 -0.73690534 -0.538985 -0.723363
0.8181973 -0.23446293 -0.7674501 -0.17737165 0.5304699 -0.43828452 -0.49170002 -0.39162025
0.36725968 -0.4761627 -0.3523958 -0.43248856 0.34606734 -0.5568641 -0.36126837 -0.5193791
0.3691825 -0.55216694 -0.38372898 -0.51395 0.2985588 -0.0015467285 -0.2985588 0.0015467285
0.34809354 0.6731214 -0.32727516 0.6835714 0.3284443 1.2133871 -0.2965568 1.2138923
00000000: e34d 0e3d c3d9 88bf 40a1 de3d 9631 91bf
00000010: 8c1d 1c3e a1ef 90bf 45a6 433e 6374 90bf
00000020: 3b54 2fbd 1267 91bf 0c9e c9bd f350 91bf
00000030: 8834 15be 5c3b 91bf f892 7e3e 1a2c 8bbf
00000040: ced2 66be a933 8dbf 0304 db3d f136 7dbf
00000050: eb3f 90bd 6f88 7ebf 3d08 ee3e ca2f 3cbf
00000060: 74f5 08bf dfa0 38bf 7241 503f 4063 6ebe
00000070: 7dd3 43bf 3f76 30be c130 093f 1ee8 e0be
00000080: fe62 f8be aebf c8be c495 be3e bbed f3be
00000090: 4ac5 b1be 4ae7 debe 1ef5 b63e 838a 0ebf
000000a0: 524a b5be 8af1 04bf c302 c23e 684c 0dbf
000000b0: 35e1 c0be 3f39 03bf 9dfe 983e 559b 07bb
000000c0: 9cfe 98be 7998 073b 0052 a83e ec99 2c3f
000000d0: 5b99 aabe 6719 2f3f af87 a23e 197e 9b3f
000000e0: a826 98be c086 9b3f 26c1 a43e cebe a43f
000000f0: e920 a3be 70b3 a43f 9e5a 893e 1312 b43f
00000100: f76f 3ebe 571a b43f 1d87 083d 3eb4 88bf
00000110: 2a41 da3d b40d 91bf 6fd7 193e 01cf 90bf
00000120: c9c5 413e 0a54 90bf 24ac 36bd 4949 91bf
00000130: 4cc7 ccbd 1d39 91bf e2cb 16be ac28 91bf
00000140: 1ebd 7c3e c40f 8bbf 08c4 68be e22b 8dbf
00000150: e089 d63d 3ef5 7cbf 2526 93bd df44 7ebf
00000160: c361 ed3e da59 3cbf ff48 09bf efe0 38bf
00000170: d5fe 4f3f 808e 6ebe 12f3 42bf 70b2 31be
00000180: 6d7c 083f bde5 e0be 09e2 f7be 63bf c7be
00000190: 2271 bd3e 9a08 f4be 2db8 b1be 9e16 ddbe
000001a0: 7c9f b53e cba3 0ebf acd1 b6be 20a6 04bf
000001b0: bfdd c03e 7161 0dbf 90d1 c1be fefc 02bf
000001c0: 08e2 983e 84eb 50bb 08e2 98be 60ee 503b
000001d0: 7c1b af3e 8e11 2c3f 763b a8be 6fcb 2e3f
000001e0: 6c88 a73e 9f23 9b3f 046e 97be 9045 9b3f
000001f0: a591 a93e 9662 a43f 553b a2be be9a a43f
00000200: 51d6 8d3e f6d3 b33f 9a6b 3ebe 19c6 b33f
00000210: 5119 e73c 01be 88bf 3124 cf3d 5d0c 91bf
00000220: a359 143e cecc 90bf 57ab 3c3e 9b4c 90bf
00000230: a274 4cbd bc52 91bf 7117 d7bd a546 91bf
00000240: eee8 1bbe 7138 91bf 0d86 773e 4a02 8bbf
00000250: 53c3 6dbe be38 8dbf fc9f cb3d 9803 7dbf
00000260: 07f2 9dbd 0271 7ebf c35a eb3e 7f89 3cbf
00000270: 924c 0abf e815 39bf 1dda 503f 1c82 6fbe
00000280: c2db 43bf 2b62 34be b28c 073f 9ce1 e0be
00000290: 969d fabe 867b c8be b57d bb3e 2b14 f4be
000002a0: 07f7 b3be 7699 ddbe d539 b23e abc4 0ebf
000002b0: 3988 b8be f7d7 04bf 23a6 bd3e 417c 0dbf
000002c0: e401 c4be a55f 03bf ba66 983e 29b0 49bb
000002d0: bd66 98be 06b3 493b 071b b23e 302d 2c3f
000002e0: 8cf6 a6be 43ee 2e3f 2f7d a83e 4e47 9b3f
000002f0: 2a36 97be da68 9b3f 40af aa3e 3d87 a43f
00000300: 0f53 a2be 5ec4 a43f f12b 8d3e 9d20 b43f
00000310: 0a09 3ebe 22f2 b33f 14eb df3c dcc6 88bf
00000320: 46aa cd3d 3216 91bf b6cd 133e 2dda 90bf
00000330: c862 3c3e 7259 90bf b081 4fbd 3164 91bf
00000340: b6a9 d8bd 765c 91bf eeb4 1cbe 7a53 91bf
00000350: 6961 773e a611 8bbf 26bc 6ebe de5b 8dbf
00000360: 69a5 c93d f21c 7dbf ea28 a0bd 3399 7ebf
00000370: f0fd eb3e d4a5 3cbf ecfa 09bf 512e 39bf
00000380: 6175 513f 0d17 70be 9c77 44bf eaa0 35be
00000390: e0cc 073f d466 e0be 1bc0 fbbe 7382 c8be
000003a0: 7609 bc3e 99cb f3be 396d b4be 246f ddbe
000003b0: bd2f b13e a58e 0ebf 2bf8 b8be 07f6 04bf
000003c0: 7d05 bd3e d05a 0dbf 2078 c4be 3a92 03bf
000003d0: b3dc 983e 99bb caba b3dc 98be 99bb ca3a
000003e0: 5139 b23e af51 2c3f 9c90 a7be 89fe 2e3f
000003f0: da29 a83e 4550 9b3f 4bd6 97be d360 9b3f
