aiModel/dataset/sequences/playing_games/WhatsApp Video 2025-09-29 at 18.09.07_b3e87305_win000_aug3_t00000.npy (npy, 12800 bytes, 1 tensors)

array f4 [48, 66]
0	0xbcb4761c	-0.022028975
1	0xbf9f5907	-1.2449044
2	0x3da67b3b	0.08128973
3	0xbfa93397	-1.3218869
4	0x3de7612e	0.112978324
5	0xbfa75aaf	-1.307455
6	0x3e15fe02	0.14647678
7	0xbfa7a415	-1.3096949
8	0xbdb23531	-0.08701552
9	0xbfa92f73	-1.3217605
10	0xbe2d994b	-0.16953008
11	0xbfa7a927	-1.3098496
12	0xbe595c29	-0.21226563
13	0xbfaa8132	-1.3320677
14	0x3e4d809a	0.20068589
15	0xbfa1e422	-1.2647746
16	0xbe9427ea	-0.28936702
17	0xbfa58e11	-1.293398
18	0x3d86081a	0.06544514
19	0xbf94ec0a	-1.1634533
20	0xbe19dfae	-0.15026733
21	0xbf958e27	-1.1684006
22	0x3ede1ef7	0.43383
23	0xbf6a14c1	-0.9143792
24	0xbf1116b4	-0.5667527
25	0xbf58cd69	-0.8468843
26	0x3f61ddc9	0.8822904
27	0xbf115718	-0.5677352
28	0xbf332911	-0.6998454
29	0xbeb98886	-0.36236972
30	0x3f827415	1.0191675
31	0xbed5386d	-0.41644612
32	0xbf22e70e	-0.6363381
33	0xbdf47445	-0.11936239
34	0x3f948c1d	1.1605259
35	0xbe93fcae	-0.28903717
36	0xbf2957fe	-0.6614989
37	0x3d4e747a	0.05040405
38	0x3f89d174	1.0767045
39	0xbeb5d0e6	-0.3551094
40	0xbf106628	-0.5640588
41	0xbb36d065	-0.002789521
42	0x00000000	0.0
43	0x00000000	0.0
44	0xbf0b2d2b	-0.54365796
45	0xbd34ca74	-0.044138387
46	0x3eb4d448	0.35318208
47	0xbc43dbe5	-0.011954282
48	0xbeb801b2	-0.35938793
49	0x3c910a87	0.017705215
50	0x3ed479ce	0.4149918
51	0x3f2ab14a	0.6667677
52	0xbe88876f	-0.26665828
53	0x3f3b0dec	0.7306812
54	0x3ee3df89	0.4450648
55	0x3fa7efad	1.3120018
56	0xbe81a7b6	-0.25323266
57	0x3fab36ba	1.3376076
58	0x00000000	0.0
59	0x00000000	0.0
60	0xbe86444b	-0.26223978
61	0x3fb1704b	1.3862394
62	0x3eb3e2ef	0.35134074
63	0x3fbfdabd	1.4988629
64	0xbdb32212	-0.08746733
65	0x3fc2bca5	1.521382
66	0xbcebba46	-0.028775346
67	0xbfa167ad	-1.2609764
68	0x3d556e41	0.0521071
69	0xbfa96d95	-1.3236567
70	0x3dea9e48	0.11455971
71	0xbfaa8e03	-1.3324589
72	0x3e322de5	0.1740032
73	0xbfaa3284	-1.3296666
74	0xbde14c9b	-0.110009395
75	0xbfaafc3b	-1.3358225
76	0xbe2b4021	-0.16723682
77	0xbfa8f092	-1.3198416
78	0xbe6d4fe7	-0.23175012
79	0xbfacf496	-1.3512142
80	0x3e4cef96	0.2001327
81	0xbfa33581	-1.2750703
82	0xbea57486	-0.32315463
83	0xbfa88ca9	-1.3167926
84	0x00000000	0.0
85	0x00000000	0.0
86	0xbe1ab264	-0.15107113
87	0xbf970789	-1.1799175
88	0x3ed72df0	0.42027235
89	0xbf690372	-0.9102088
90	0xbf0fdff4	-0.562011
91	0xbf61af2a	-0.88157904
92	0x3f3ed4bf	0.74543375
93	0xbf24fb83	-0.64446276
94	0xbf390fa6	-0.722895
95	0xbeb493cd	-0.35269013
96	0x3f8960d8	1.0732679
97	0xbeffdf8a	-0.49975234
98	0xbf169b97	-0.5883116
99	0xbdd35930	-0.103197455
100	0x3fa17cf5	1.2616259
101	0xbee1c272	-0.44093663
102	0xbf16e07e	-0.589363
103	0x3d823e82	0.06359579
104	0x3f94c157	1.1621503
105	0xbef1196e	-0.47089714
106	0x00000000	0.0
107	0x00000000	0.0
108	0x3f8d227a	1.1026146
109	0xbeed175e	-0.4630689
110	0xbef4d368	-0.4781754
111	0xbdfcbdce	-0.1234089
112	0x3ec581c0	0.38575554
113	0xbc888267	-0.016663743
114	0xbebfbcc3	-0.374487
115	0x3c35459a	0.011063958
116	0x3edaafa3	0.42712125
117	0x3f33a50e	0.7017373
118	0x00000000	0.0
119	0x00000000	0.0
120	0x3eeda11a	0.46411973
121	0x3faeba09	1.3650523
122	0xbe2f2dca	-0.17107311
123	0x3fb24b7b	1.3929285
124	0x3ef90de6	0.48643416
125	0x3fbabc32	1.4588683
126	0x00000000	0.0
127	0x00000000	0.0
128	0x3ed664c4	0.41873753
129	0x3fc75667	1.5573243
130	0xbca3b150	-0.01998201
131	0x3fcbad98	1.5912352
132	0xbc9419ab	-0.018078646
133	0xbfa3f096	-1.2807796
134	0x3d8b6ef4	0.06808272
135	0xbfab8929	-1.3401233
136	0x3dd5ace8	0.1043337
137	0xbfaba3e2	-1.3409388
138	0x3e1d176a	0.15340963
139	0xbfab1cec	-1.3368201
140	0xbde53030	-0.11190832
141	0xbfac7788	-1.3473978
142	0xbe3687c3	-0.17825226
143	0xbfab31b2	-1.3374541
144	0xbe6548b1	-0.22391011
145	0xbfa99c03	-1.3250736
146	0x3e400c35	0.18754657
147	0xbfa5e26d	-1.2959725
148	0xbe99165a	-0.29899865
149	0xbfa7db9b	-1.3113893
150	0x3d0eeddf	0.03489482
151	0xbf97d97f	-1.186325
152	0xbe0b1a1f	-0.13584183
153	0xbf9d4cfe	-1.2289121
154	0x3ed2bf0f	0.4116139
155	0xbf6b0ed8	-0.91819525
156	0xbf138ce6	-0.5763687
157	0xbf619293	-0.8811428
158	0x3f3eafa7	0.74486774
159	0xbf292e35	-0.6608613
160	0xbf37a770	-0.71739864
161	0xbeb2e393	-0.3493925
162	0x3f9327ff	1.1496581
163	0xbecf2605	-0.40458694
164	0xbf1b1e57	-0.6059317
165	0xbd85c3b8	-0.06531471
166	0x3fad645e	1.3546255
167	0xbea9a600	-0.3313446
168	0xbf16e887	-0.5894856
169	0x3db393ac	0.087684005
170	0x3fa38866	1.2776
171	0xbeafa8bb	-0.3430842
172	0xbf02b694	-0.5105984
173	0x3d654f15	0.05598362
174	0x3f99a00a	1.2001965
175	0xbeb00d41	-0.34385112
176	0xbefe72bc	-0.4969691
177	0xbc6c2311	-0.014412657
178	0x3ec6fb39	0.38863543
179	0xbc86765b	-0.016413858
180	0xbec39736	-0.38201302
181	0x3c8677cd	0.016414547
182	0x3ede58ae	0.43427032
183	0x3f31b15e	0.69411266
184	0xbe6efafd	-0.23337932
185	0x3f430761	0.76183134
186	0x3f00627b	0.5015027
187	0x3fb1bd63	1.3885921
188	0xbe13fdb5	-0.1445225
189	0x3fb328b7	1.39968
190	0x3f01625f	0.5054073
191	0x3fbd1f13	1.4775108
192	0xbe29c434	-0.16578752
193	0x3fc22960	1.5168877
194	0x3eec0baa	0.4610265
195	0x3fcb9c5d	1.5907093
196	0x3b2ca220	0.0026341751
197	0x3fcb8629	1.5900317
198	0xbd0277c4	-0.0318525
199	0xbfa3927e	-1.2779081
200	0x3d5d2aaf	0.053995784
201	0xbfadd3cc	-1.358026
202	0x3dcd09fb	0.10011669
203	0xbfad03be	-1.3516767
204	0x3e13dba0	0.14439249
205	0xbfaa2be9	-1.329465
206	0xbe001fd5	-0.12512143
207	0xbfae6ddf	-1.362728
208	0xbe2ac7d0	-0.16677785
209	0xbfaeaf03	-1.3647159
210	0xbe6aab90	-0.22917008
211	0xbfb078a8	-1.3786821
212	0x3e4b2b1f	0.19840668
213	0xbfa8f6e8	-1.320035
214	0xbeab88ed	-0.33502904
215	0xbfaa8fff	-1.3325194
216	0x3ced2b46	0.028951298
217	0xbf996a03	-1.1985477
218	0xbe0ba89f	-0.13638543
219	0xbf9ab1a7	-1.2085465
220	0x3ece1be3	0.4025565
221	0xbf686ac7	-0.9078793
222	0xbf1268eb	-0.5719134
223	0xbf645146	-0.89186513
224	0x3f3e6c71	0.7438422
225	0xbf276a69	-0.65396744
226	0xbf38f9ba	-0.7225605
227	0xbeb6e6f2	-0.35723072
228	0x3f94754c	1.1598296
229	0xbeba8cf7	-0.36435673
230	0xbf1ab89e	-0.60437953
231	0xbd6502e8	-0.055910975
232	0x3fac37cd	1.3454529
233	0xbe7b86c7	-0.24563132
234	0xbf1de939	-0.61683995
235	0x3dfd4c97	0.12368124
236	0x3fa2b5a3	1.2711681
237	0xbe993049	-0.2991965
238	0xbf0e35e5	-0.55550987
239	0x3da12320	0.07868028
240	0x3f9804ec	1.1876502
241	0xbe9a0c11	-0.3008733
242	0xbf0274c1	-0.509594
243	0x3d205d9d	0.039151777
244	0x3ecc6590	0.39921236
245	0xbc3091d3	-0.010776955
246	0xbeb82e18	-0.35972667
247	0x3c7c665b	0.015405263
248	0x3ee30456	0.44339246
249	0x3f351f16	0.7075056
250	0xbe781ec4	-0.24230486
251	0x3f459c12	0.7719127
252	0x3f02023b	0.50784653
253	0x3fb35c3e	1.4012525
254	0xbe2aa8a0	-0.16665888
255	0x3fb70da9	1.4301044
