aiModel/dataset/sequences/playing_games/WhatsApp Video 2025-09-29 at 18.09.07_b3e87305_win002_aug2_t00000.npy (npy, 12800 bytes, 1 tensors)

array f4 [48, 66]
0	0xbd1e2280	-0.03860712
1	0xbf8ab941	-1.0837785
2	0xbdf06c8b	-0.11739453
3	0xbf91f148	-1.1401758
4	0xbe1254e1	-0.14290191
5	0xbf926fe3	-1.1440395
6	0xbe36db0a	-0.17856994
7	0xbf91b6e8	-1.1383944
8	0x3d01bd1c	0.03167449
9	0xbf91dd87	-1.139573
10	0x3e1457f8	0.14486682
11	0xbf92937f	-1.1451262
12	0x3dcc0b09	0.09963042
13	0xbf922357	-1.1417035
14	0x3e73d473	0.23811512
15	0xbf8f6dbb	-1.1205362
16	0xbe812bac	-0.25228631
17	0xbf8d95c1	-1.1061326
18	0x3d825b97	0.063651256
19	0xbf80f347	-1.0074242
20	0xbde1a45f	-0.110176794
21	0xbf800408	-1.000123
22	0x3f053168	0.5202851
23	0xbf39f368	-0.72637033
24	0xbeefb915	-0.46820894
25	0xbf3ee164	-0.7456267
26	0x3f459b04	0.7718966
27	0xbe31cd33	-0.17363434
28	0xbf53eda2	-0.82784474
29	0xbe6b378a	-0.22970405
30	0x3ee9e9d4	0.4568621
31	0xbeda70ad	-0.4266409
32	0x00000000	0.0
33	0x00000000	0.0
34	0xbebc2506	-0.36746997
35	0xbef7a92a	-0.4837125
36	0x3eb61fce	0.3557114
37	0xbedfa33b	-0.43679222
38	0x00000000	0.0
39	0x00000000	0.0
40	0x00000000	0.0
41	0x00000000	0.0
42	0xbec0bdae	-0.37644714
43	0xbf0d304e	-0.5515183
44	0x3ec9924d	0.3936943
45	0xbf073ce4	-0.52827287
46	0x3e985d68	0.29758763
47	0xbba62398	-0.005070161
48	0xbe9db9a9	-0.3080571
49	0xbb9b13ff	-0.0047326083
50	0x3eabd508	0.33560967
51	0x3f328d24	0.69746614
52	0xbe94ef27	-0.2908871
53	0x3f2a916c	0.66628146
54	0x3e9029cd	0.2815689
55	0x3f9c7f07	1.2226266
56	0xbea14a88	-0.31502175
57	0x3f9b9889	1.2155925
58	0xbea88263	-0.32911977
59	0x3faae89c	1.3352237
60	0x3ea88a1a	0.32917863
61	0x3fa58212	1.2930319
62	0xbe82b305	-0.25527206
63	0x3fb5f6b5	1.4215914
64	0x3e2e410f	0.17017005
65	0x3fb6234c	1.4229522
66	0xbccacabc	-0.024754874
67	0xbf89489f	-1.0725287
68	0xbe071d68	-0.13194811
69	0xbf90f835	-1.1325747
70	0xbe05aaa4	-0.13053375
71	0xbf911964	-1.1335874
72	0xbe3977ca	-0.18112102
73	0xbf8ed17a	-1.1157677
74	0x3d7ae658	0.06125483
75	0xbf94d65f	-1.1627921
76	0x3e2220db	0.15832846
77	0xbf93c33a	-1.1543953
78	0x3dffd706	0.12492184
79	0xbf924374	-1.1426835
80	0x3e6b111a	0.22955742
81	0xbf8e2323	-1.1104473
82	0x00000000	0.0
83	0x00000000	0.0
84	0x3d982296	0.07428472
85	0xbf7acd07	-0.97969097
86	0xbde7b5a3	-0.11313941
87	0xbf7f19ff	-0.9964904
88	0x3f08dcd5	0.5346196
89	0xbf3be9da	-0.73403704
90	0xbeedf141	-0.46473125
91	0xbf3c2329	-0.7349115
92	0x3f446b9f	0.76726717
93	0xbe2606fb	-0.162136
94	0xbf51cfef	-0.81957906
95	0xbe8226af	-0.25420138
96	0x3eeda11c	0.4641198
97	0xbed07d33	-0.4072052
98	0xbf08aa81	-0.5338517
99	0xbee8ec0d	-0.45492592
100	0xbec00fb1	-0.37511972
101	0xbef176e9	-0.47161034
102	0x3eb1a51e	0.34696287
103	0xbed3caf7	-0.41365787
104	0xbeb48dd4	-0.35264456
105	0xbf0bdcba	-0.54633677
106	0x3eb7f697	0.3593032
107	0xbf06b2af	-0.526164
108	0xbec14da4	-0.37754548
109	0xbf0a39a0	-0.5399418
110	0x3ec520ee	0.38501686
111	0xbf0321e1	-0.5122357
112	0x3e978c74	0.29599345
113	0x3a8c18ac	0.0010688505
114	0xbe95c8c9	-0.2925475
115	0x3a7c569f	0.00096259447
116	0x3eb0701a	0.34460527
117	0x3f33368b	0.700051
118	0x00000000	0.0
119	0x00000000	0.0
120	0x3e9d2283	0.30690393
121	0x3f9bc14b	1.2168363
122	0xbeb1be11	-0.34715322
123	0x3f9deb69	1.2337466
124	0xbeb1bdb1	-0.34715036
125	0x3fa4df5f	1.2880667
126	0x3e9f1bd6	0.31075925
127	0x3fa77265	1.3081785
128	0xbe91d856	-0.28485364
129	0x3fb76c12	1.4329855
130	0x3e4e90bd	0.20172401
131	0x3fb5df2f	1.4208735
132	0xbc8ed041	-0.017433288
133	0xbf8948c2	-1.0725329
134	0xbdda0128	-0.10644752
135	0xbf9012e4	-1.1255765
136	0xbe0b4e17	-0.13604008
137	0xbf92d32a	-1.1470692
138	0xbe2b12fa	-0.16706458
139	0xbf8fd056	-1.1235454
140	0x3d4b4d97	0.049634542
141	0xbf917948	-1.1365137
142	0x3e1ce997	0.15323482
143	0xbf925ec8	-1.1435175
144	0x3dce46c2	0.1007209
145	0xbf922461	-1.1417352
146	0x3e653af7	0.22385775
147	0xbf8db70d	-1.1071488
148	0xbe77c337	-0.24195562
149	0xbf8c026a	-1.0938237
150	0x3db3a74f	0.08772146
151	0xbf813c81	-1.0096589
152	0xbdecddc2	-0.115657344
153	0xbf80b157	-1.005412
154	0x3f094bbc	0.53631186
155	0xbf3b9de7	-0.73287815
156	0xbee92a22	-0.45539957
157	0xbf3b9a9c	-0.7328279
158	0x3f467ad4	0.7753117
159	0xbe457ab2	-0.19285086
160	0xbf52007b	-0.82031983
161	0xbe74b6c1	-0.2389784
162	0x3ef1f74f	0.47258994
163	0xbed36ad0	-0.4129243
164	0xbf02947a	-0.5100781
165	0xbee4f464	-0.44717705
166	0xbebf5358	-0.37368274
167	0xbef33a0f	-0.47505233
168	0x3eb33d9c	0.35007942
169	0xbed74c44	-0.42050374
170	0xbea9a021	-0.3312998
171	0xbf0f1cd4	-0.55903363
172	0x3eaedff0	0.34155226
173	0xbf078e29	-0.52951294
174	0xbec2fe7d	-0.38084784
175	0xbf1053b0	-0.56377697
176	0x3ec4d0e4	0.3844062
177	0xbf02309e	-0.50855434
178	0x3e956f17	0.29186317
179	0x3ad22e89	0.0016035597
180	0xbe986bb7	-0.2976968
181	0x3bc978d3	0.0061484366
182	0x3eaca850	0.33722162
183	0x3f374f26	0.71605146
184	0xbeb126a6	-0.345998
185	0x3f2deb4c	0.6793716
186	0x3e88ef8d	0.26745263
187	0x3f9f7861	1.2458612
188	0xbea72552	-0.3264566
189	0x3f9d0e07	1.2269906
190	0xbea7453f	-0.32670018
191	0x3fa5a615	1.2941309
192	0x3ea4d529	0.32193878
193	0x3fa5d9f9	1.2957145
194	0xbe8cc5ca	-0.2749465
195	0x3fb6041a	1.4220002
196	0x00000000	0.0
197	0x00000000	0.0
198	0xbcaf64cc	-0.021410368
199	0xbf8930a1	-1.0717965
200	0xbdf4e252	-0.1195723
201	0xbf913468	-1.1344118
202	0x00000000	0.0
203	0x00000000	0.0
204	0xbe32c07d	-0.17456241
205	0xbf92bde3	-1.1464199
206	0x3d2cf881	0.04222918
207	0xbf92cd7d	-1.146896
208	0x3e1504e3	0.14552645
209	0xbf91b45e	-1.1383169
210	0x3de0039c	0.109381884
211	0xbf930ded	-1.1488625
212	0x00000000	0.0
213	0x00000000	0.0
214	0xbe720501	-0.23634721
215	0xbf8c6afc	-1.0970149
216	0x3da13f8b	0.07873448
217	0xbf816cf4	-1.0111375
218	0xbddc8700	-0.10767937
219	0xbf80b4aa	-1.0055134
220	0x3f0e9622	0.55697834
221	0xbf3aa75f	-0.7291164
222	0xbeefc0ca	-0.46826774
223	0xbf3c3cd1	-0.735303
224	0x3f4c2b07	0.79753155
225	0xbe2ff1c0	-0.17182064
226	0xbf58555c	-0.8450525
227	0xbe6686f0	-0.22512412
228	0x3ef37dc5	0.47556892
229	0xbecf1bcb	-0.40450892
230	0xbf087102	-0.53297436
231	0xbee8a18f	-0.4543576
232	0xbebd5ba2	-0.36983973
233	0xbeef4f87	-0.46740362
234	0x3ec02b57	0.37533066
235	0xbee0221f	-0.43776032
236	0xbeadda9d	-0.3395585
237	0xbf0e27d8	-0.55529547
238	0x3eb37cb7	0.35056087
239	0xbf06b2f9	-0.5261684
240	0xbebf7881	-0.37396625
241	0xbf09766b	-0.53696316
242	0x3ed07b99	0.40719298
243	0xbf058c85	-0.5216754
244	0x3e9be468	0.30447698
245	0x3c1f7cea	0.009734372
246	0xbe9d80e7	-0.30762407
247	0x39a00107	0.00030518344
248	0x3eac47d2	0.33648545
249	0x3f2d3e9b	0.67673653
250	0xbeb5b9d7	-0.35493347
251	0x3f319da8	0.6938119
252	0x3e9aee1a	0.30259782
253	0x3f9c0be5	1.219113
254	0xbeaf5024	-0.3424083
255	0x3f9c3278	1.2202902
