aiModel/dataset/sequences/playing_games/WhatsApp Video 2025-09-29 at 18.09.07_b3e87305_win004_aug1_t00000.npy (npy, 12800 bytes, 1 tensors)

array f4 [48, 66]
0	0x3e26fc38	0.16307151
1	0xbf8ea3e2	-1.1143763
2	0x3dc0f8fd	0.09422491
3	0xbf97fae0	-1.1873436
4	0x3d1ca422	0.038242467
5	0xbf9b6b8e	-1.2142198
6	0xbc8d6529	-0.017260151
7	0xbf9870b1	-1.1909391
8	0x3e5c9a86	0.21543321
9	0xbf972b2a	-1.1810048
10	0x3ead2388	0.3381617
11	0xbf946ac6	-1.1595085
12	0x3e990e44	0.29893696
13	0xbf9338d4	-1.1501718
14	0x3ed225ea	0.4104455
15	0xbf8fb868	-1.1228151
16	0xbda2c079	-0.079468675
17	0xbf97214d	-1.1807038
18	0x3e7f474d	0.24929543
19	0xbf839034	-1.0278382
20	0x3d5ca1c3	0.053865205
21	0xbf85a805	-1.04419
22	0x3f169af4	0.5883019
23	0xbf30ccf1	-0.69062716
24	0xbebefefa	-0.37303907
25	0xbf57dca8	-0.8432107
26	0x3f46468e	0.7745141
27	0xbda2ca8b	-0.07948788
28	0xbf50f2f3	-0.8162071
29	0xbeb05bee	-0.34445137
30	0x3f0550ae	0.5207623
31	0xbeea0efc	-0.45714557
32	0xbf031b43	-0.51213473
33	0xbf0d0cf9	-0.5509792
34	0xbebda74d	-0.37041703
35	0xbf15dfbb	-0.5854451
36	0x3ec6a8c4	0.38800633
37	0xbf09a237	-0.53763145
38	0xbebd8bb0	-0.37020636
39	0xbf298fa1	-0.66234785
40	0x3ec72bc1	0.3890057
41	0xbf1c65d8	-0.610929
42	0xbec484a2	-0.3838244
43	0xbf2bdf9f	-0.67138094
44	0x3ec6dc05	0.38839737
45	0xbf15d201	-0.58523566
46	0x3e84b5bf	0.2591991
47	0x3cb24213	0.021760022
48	0xbea9ab63	-0.3313857
49	0xbd5427fe	-0.051795952
50	0x3e39ce05	0.18144996
51	0x3f42753d	0.7596014
52	0xbeff92bb	-0.49916634
53	0x3f2ab800	0.6668701
54	0x3da86edf	0.08224272
55	0x3fa90810	1.3205585
56	0xbf03ba8a	-0.5145651
57	0x3f9a8b6f	1.2073802
58	0xbf0eef21	-0.5583363
59	0x3fa43c85	1.2830969
60	0x3d9e4b89	0.07729251
61	0x3fb00e2a	1.3754323
62	0xbf02f53b	-0.5115544
63	0x3fb684c9	1.4259273
64	0xbd28cb82	-0.041209705
65	0x3fbf352b	1.49381
66	0x3e240a90	0.16019654
67	0xbf8f9f32	-1.1220458
68	0x3d98c325	0.07459096
69	0xbf978680	-1.1837921
70	0x3cfb1108	0.03064777
71	0xbf9a0256	-1.2031963
72	0x3c4696ea	0.012120942
73	0xbf9b4801	-1.2131349
74	0x3e779dc3	0.24181275
75	0xbf95ba50	-1.1697483
76	0x3eb0f10d	0.34558907
77	0xbf933e06	-1.1503303
78	0x3e958b18	0.29207683
79	0xbf9595d9	-1.1686355
80	0x3ed45ed6	0.41478604
81	0xbf8fad09	-1.1224681
82	0xbd97e09b	-0.07415887
83	0xbf967d9d	-1.1757084
84	0x3e7a88e8	0.24466288
85	0xbf8503bc	-1.0391765
86	0x3d3194c3	0.04335476
87	0xbf86030c	-1.046968
88	0x3f183be9	0.59466416
89	0xbf303b1d	-0.688402
90	0xbec1781f	-0.37786958
91	0xbf59a275	-0.85013515
92	0x3f48b2c3	0.7839777
93	0xbdb40c66	-0.08791427
94	0xbf568f1a	-0.83812106
95	0xbeb1d0ee	-0.34729713
96	0x3f01e2a4	0.5073645
97	0xbeeeb2e6	-0.46620864
98	0xbf043a7a	-0.5165173
99	0xbf0e8759	-0.55675274
100	0xbebd335b	-0.36953244
101	0xbf19da05	-0.60098296
102	0x3ed8207e	0.4221229
103	0xbf0d489e	-0.5518893
104	0xbeb9774b	-0.36223826
105	0xbf30a28a	-0.68998015
106	0x3eb50da3	0.35361966
107	0xbf1cae66	-0.6120361
108	0xbec2b81d	-0.38031092
109	0xbf2bb10e	-0.6706704
110	0x3eb22d33	0.3480011
111	0xbf156b8c	-0.5836723
112	0x3e8c2f3e	0.27379793
113	0x3c9c1615	0.019053498
114	0xbea2e9af	-0.3181891
115	0xbd37977e	-0.04482221
116	0x3e5c6599	0.21523131
117	0x3f3f8409	0.74810845
118	0xbefdddb4	-0.4958321
119	0x3f238987	0.63881725
120	0x3da6ddbb	0.081477605
121	0x3fa69735	1.3014895
122	0xbf0d857c	-0.55281806
123	0x3f9af89d	1.2107121
124	0xbf0fed07	-0.5622105
125	0x3fa49012	1.2856467
126	0x3dc82bc9	0.09773976
127	0x3faf91fe	1.3716428
128	0xbefb661f	-0.4910135
129	0x3fb65eb2	1.4247649
130	0xbd386e38	-0.045026988
131	0x3fc0b26d	1.5054451
132	0x3e1a18f8	0.15048587
133	0xbf8e2fb0	-1.1108303
134	0x3dbf109e	0.09329341
135	0xbf9899a7	-1.1921891
136	0x3d199845	0.03749873
137	0xbf986c38	-1.1908026
138	0x3ab3a5d8	0.0013706041
139	0xbf99da9a	-1.2019837
140	0x3e685081	0.2268696
141	0xbf9603fb	-1.1719965
142	0x3eb1317d	0.3460807
143	0xbf957a07	-1.1677865
144	0x3e8e8117	0.27832863
145	0xbf950df2	-1.1644881
146	0x3ecf743c	0.40518367
147	0xbf8f2998	-1.1184568
148	0xbd89847e	-0.06714724
149	0xbf956b6d	-1.1673409
150	0x3e763c60	0.24046469
151	0xbf8331fc	-1.0249629
152	0x3d80e13a	0.062929586
153	0xbf8619f9	-1.0476676
154	0x3f186b43	0.5953867
155	0xbf337904	-0.7010653
156	0xbeba7492	-0.3641706
157	0xbf545cdb	-0.82954186
158	0x3f4d7f81	0.8027268
159	0xbda92f30	-0.082609534
160	0xbf57aefd	-0.84251386
161	0xbeaedab3	-0.3415123
162	0x3f04a5ae	0.5181531
163	0xbef19168	-0.4718125
164	0xbef5001c	-0.47851646
165	0xbf121af7	-0.57072395
166	0xbea19ef1	-0.31566575
167	0xbf250524	-0.6446097
168	0x3ed1b60a	0.40959197
169	0xbf0b618c	-0.5444572
170	0xbea57f40	-0.32323647
171	0xbf36bec6	-0.7138485
172	0x3eaf9773	0.34295234
173	0xbf1d58d3	-0.6146366
174	0xbeabdd72	-0.33567387
175	0xbf331488	-0.69953203
176	0x3eb0eb9a	0.3455475
177	0xbf1a1af3	-0.6019737
178	0x3e9266d3	0.28594074
179	0x3c28e14b	0.01030762
180	0xbeb4ae64	-0.352893
181	0xbd8ee2dd	-0.069768645
182	0x3e5a121b	0.21295969
183	0x3f403eec	0.7509601
184	0xbeefe0f3	-0.4685131
185	0x3f2310c6	0.6369747
186	0x3dfc207e	0.12310885
187	0x3fa89091	1.3169118
188	0xbf018717	-0.50596756
189	0x3f997314	1.1988244
190	0xbf0b9e1c	-0.5453813
191	0x3fa3a324	1.2784162
192	0x3e046520	0.12929201
193	0x3fb2a023	1.395512
194	0xbef5b2d8	-0.4798801
195	0x3fb6bc52	1.4276221
196	0xbc43836e	-0.011933191
197	0x3fbe45b4	1.4865022
198	0x3e0b962b	0.13631503
199	0xbf8b9099	-1.0903503
200	0x3d9e0288	0.077153265
201	0xbf967e76	-1.1757343
202	0x3d066095	0.03280695
203	0xbf946646	-1.1593711
204	0x3b178876	0.0023122109
205	0xbf956b31	-1.1673337
206	0x3e5a7307	0.21332942
207	0xbf9522d8	-1.1651258
208	0x3ea1f7ff	0.31634519
209	0xbf90c0f8	-1.1308889
210	0x3e8d02ec	0.27541292
211	0xbf91acd7	-1.1380872
212	0x3ec66ba4	0.38753998
213	0xbf8c77d4	-1.0974069
214	0xbd9feea2	-0.078091875
215	0xbf91977a	-1.1374352
216	0x3e7c5882	0.24643138
217	0xbf7d5c26	-0.9896873
218	0x3d8e4f3e	0.06948708
219	0xbf832d96	-1.0248287
220	0x3f159cba	0.5844227
221	0xbf2c49ab	-0.6729991
222	0xbeb9b530	-0.36271048
223	0xbf51edbe	-0.8200339
224	0x3f44fa26	0.76944196
225	0xbd5e147e	-0.05421876
226	0xbf514ac7	-0.81754726
227	0xbead05ab	-0.33793387
228	0x3f0177b7	0.50573295
229	0xbef0bc76	-0.47018784
230	0xbef1dbb4	-0.47237933
231	0xbf1283f8	-0.5723262
232	0xbe933d04	-0.2875749
233	0xbf1e074f	-0.617299
234	0x3ecff246	0.40614527
235	0xbf083c7f	-0.5321731
236	0xbe94a824	-0.2903453
237	0xbf3464bb	-0.704662
238	0x3ecece1c	0.40391624
239	0xbf19e2ce	-0.601117
240	0xbe95ec4f	-0.29281852
241	0xbf30e46d	-0.6909855
242	0x3ecb8ee7	0.39757463
243	0xbf14a66b	-0.58066434
244	0x3e8b69b7	0.27229092
245	0x3d00a7af	0.031409916
246	0xbeaad598	-0.33366084
247	0xbd817144	-0.06320432
248	0x3e6f06c6	0.23342428
249	0x3f3a7659	0.72836834
250	0xbedd88c8	-0.43268418
251	0x3f238bbd	0.638851
252	0x3e039e4e	0.12853357
253	0x3fa278ed	1.2693154
254	0xbef58672	-0.47954136
255	0x3f9801a6	1.1875503
