aiModel/dataset/sequences/playing_games/WhatsApp Video 2025-09-29 at 18.09.07_b3e87305_win001_aug2_t00000.npy (npy, 12800 bytes, 1 tensors)

array f4 [48, 66]
0	0xbd94e8da	-0.072709754
1	0xbf881fd0	-1.0634708
2	0xbcc86cc4	-0.024465926
3	0xbf8eeccd	-1.1166016
4	0x3ca7996b	0.020458898
5	0xbf901c7c	-1.1258693
6	0x3d590e01	0.05299187
7	0xbf8f1f96	-1.1181514
8	0xbe15764f	-0.14595912
9	0xbf90c540	-1.1310196
10	0xbe620e99	-0.22075881
11	0xbf8d41e8	-1.1035738
12	0xbe8b8027	-0.2724621
13	0xbf8f4992	-1.1194327
14	0x3dff2242	0.12457706
15	0xbf88c6d7	-1.0685681
16	0xbeb34b6d	-0.35018483
17	0xbf8a01b6	-1.0781772
18	0xbcb71b44	-0.022351868
19	0xbf79f5d1	-0.9764071
20	0xbe3955b1	-0.18099095
21	0xbf7973e7	-0.9744248
22	0x3ec0bd60	0.37644482
23	0xbf450c57	-0.76971954
24	0xbf1636af	-0.5867719
25	0xbf34113e	-0.7033881
26	0x3f506c03	0.8141481
27	0xbe93d744	-0.28875172
28	0xbf3886fb	-0.72080964
29	0xbe0abc30	-0.1354835
30	0x3eded275	0.4351994
31	0xbeee2b4e	-0.46517414
32	0xbeb74d38	-0.358011
33	0xbeeed82c	-0.466493
34	0x3e9153e0	0.28384304
35	0xbf012a59	-0.5045524
36	0xbe611cc9	-0.21983637
37	0xbefa23a8	-0.4885533
38	0x3e99a505	0.30008712
39	0xbf1780f5	-0.5918115
40	0xbe5334bd	-0.20625587
41	0xbf0eb6f5	-0.5574792
42	0x3e9ab553	0.30216464
43	0xbf1055b3	-0.56380767
44	0xbe6d3b71	-0.23167206
45	0xbf0ff112	-0.5622722
46	0x3e9addac	0.30247247
47	0xbd274148	-0.04083374
48	0xbe983dcc	-0.29734647
49	0x3c5aca8b	0.013353954
50	0x3eb78195	0.3584105
51	0x3f1ecca0	0.6203098
52	0xbe8f56b9	-0.27995852
53	0x3f2355c4	0.6380274
54	0x3eb6055e	0.3555097
55	0x3f8ffc95	1.1248957
56	0xbe49b487	-0.19697772
57	0x3f948eeb	1.1606115
58	0x3ebf6a9b	0.3738602
59	0x3f97c6ea	1.1857579
60	0xbe4f4781	-0.2024212
61	0x3f9b319f	1.2124518
62	0x3eab5bef	0.33468577
63	0x3fa76b2b	1.307958
64	0xbdabb00d	-0.083831884
65	0x3faaaaa7	1.3333329
66	0xbd94e8da	-0.072709754
67	0xbf881fd0	-1.0634708
68	0xbcc86cc4	-0.024465926
69	0xbf8eeccd	-1.1166016
70	0x3ca7996b	0.020458898
71	0xbf901c7c	-1.1258693
72	0x3d590e01	0.05299187
73	0xbf8f1f96	-1.1181514
74	0xbe15764f	-0.14595912
75	0xbf90c540	-1.1310196
76	0xbe620e99	-0.22075881
77	0xbf8d41e8	-1.1035738
78	0xbe8b8027	-0.2724621
79	0xbf8f4992	-1.1194327
80	0x3dff2242	0.12457706
81	0xbf88c6d7	-1.0685681
82	0xbeb34b6d	-0.35018483
83	0xbf8a01b6	-1.0781772
84	0xbcb71b44	-0.022351868
85	0xbf79f5d1	-0.9764071
86	0xbe3955b1	-0.18099095
87	0xbf7973e7	-0.9744248
88	0x3ec0bd60	0.37644482
89	0xbf450c57	-0.76971954
90	0xbf1636af	-0.5867719
91	0xbf34113e	-0.7033881
92	0x3f506c03	0.8141481
93	0xbe93d744	-0.28875172
94	0xbf3886fb	-0.72080964
95	0xbe0abc30	-0.1354835
96	0x3eded275	0.4351994
97	0xbeee2b4e	-0.46517414
98	0xbeb74d38	-0.358011
99	0xbeeed82c	-0.466493
100	0x3e9153e0	0.28384304
101	0xbf012a59	-0.5045524
102	0xbe611cc9	-0.21983637
103	0xbefa23a8	-0.4885533
104	0x3e99a505	0.30008712
105	0xbf1780f5	-0.5918115
106	0xbe5334bd	-0.20625587
107	0xbf0eb6f5	-0.5574792
108	0x3e9ab553	0.30216464
109	0xbf1055b3	-0.56380767
110	0xbe6d3b71	-0.23167206
111	0xbf0ff112	-0.5622722
112	0x3e9addac	0.30247247
113	0xbd274148	-0.04083374
114	0xbe983dcc	-0.29734647
115	0x3c5aca8b	0.013353954
116	0x3eb78195	0.3584105
117	0x3f1ecca0	0.6203098
118	0xbe8f56b9	-0.27995852
119	0x3f2355c4	0.6380274
120	0x3eb6055e	0.3555097
121	0x3f8ffc95	1.1248957
122	0xbe49b487	-0.19697772
123	0x3f948eeb	1.1606115
124	0x3ebf6a9b	0.3738602
125	0x3f97c6ea	1.1857579
126	0xbe4f4781	-0.2024212
127	0x3f9b319f	1.2124518
128	0x3eab5bef	0.33468577
129	0x3fa76b2b	1.307958
130	0xbdabb00d	-0.083831884
131	0x3faaaaa7	1.3333329
132	0xbda6599a	-0.08122559
133	0xbf876be4	-1.0579801
134	0xbcfa6c17	-0.03056912
135	0xbf90bec8	-1.1308222
136	0x3cb81c40	0.022474408
137	0xbf912d63	-1.1341976
138	0x3d8f41f2	0.06995
139	0xbf90ec79	-1.1322166
140	0xbe30e136	-0.17273411
141	0xbf8f990b	-1.121858
142	0xbe549831	-0.20761181
143	0xbf8fe8ca	-1.1242917
144	0xbe85af23	-0.2611018
145	0xbf8efc6f	-1.1170787
146	0x3e15fe70	0.14647841
147	0xbf8c2c02	-1.095093
148	0xbea55ca1	-0.32297233
149	0xbf8b1b24	-1.0867658
150	0xbd0263d5	-0.03183349
151	0xbf7e3d6b	-0.99312466
152	0xbe2b7b12	-0.16746166
153	0xbf7df0e4	-0.99195695
154	0x3ec4e1c8	0.38453507
155	0xbf495594	-0.78646207
156	0xbf180211	-0.59378153
157	0xbf365f2f	-0.7123899
158	0x3f4f4b47	0.8097424
159	0xbe9261f4	-0.28590357
160	0xbf3dc622	-0.7413045
161	0xbe09f386	-0.13471803
162	0x3ee3e699	0.4451187
163	0xbef92594	-0.48661482
164	0xbeb7c200	-0.35890198
165	0xbee6f545	-0.45109
166	0x3e999a10	0.30000353
167	0xbefaf09c	-0.49011695
168	0xbe5f4bbb	-0.21806233
169	0xbeff8e0a	-0.49913055
170	0x3ea4096f	0.32038447
171	0xbf170025	-0.58984596
172	0xbe3d364c	-0.18477744
173	0xbf177b1c	-0.59172225
174	0x3ea86b1b	0.32894215
175	0xbf14df48	-0.581532
176	0xbe6d274b	-0.2315952
177	0xbf127bc9	-0.5722013
178	0x3e9f09ff	0.31062314
179	0xbc9207a7	-0.017825915
180	0xbe8ebeac	-0.27879846
181	0x3cdf5b45	0.0272652
182	0x3ec1c472	0.37845188
183	0x3f1c981a	0.6116959
184	0xbe9a12ea	-0.30092555
185	0x3f25fe6c	0.6484134
186	0x3eb55f67	0.3542435
187	0x3f92e1e5	1.1475188
188	0xbe52ff40	-0.20605183
189	0x3f97577a	1.1823571
190	0x3ec191df	0.37806603
191	0x3f99dd74	1.2020707
192	0xbe63792d	-0.22214194
193	0x3fa05c19	1.2528106
194	0x3e9ddcc7	0.30832502
195	0x3fa8d3d7	1.3189648
196	0xbdd91ebf	-0.106015675
197	0x3fadb1db	1.3569902
198	0xbda9cee9	-0.08291418
199	0xbf892fed	-1.0717751
200	0xbc533d00	-0.0128929615
201	0xbf900b98	-1.1253538
202	0x3d55baba	0.05218003
203	0xbf933271	-1.1499768
204	0x3dbaa1b5	0.091128744
205	0xbf8fd1b0	-1.1235867
206	0xbe21d958	-0.15805566
207	0xbf901d18	-1.1258879
208	0xbe4262b9	-0.18982972
209	0xbf90616d	-1.1279732
210	0xbe8aed50	-0.2713418
211	0xbf90b338	-1.1304693
212	0x3e0b435e	0.13599917
213	0xbf8d7348	-1.1050806
214	0xbeaa0fbf	-0.33215138
215	0xbf8b2d37	-1.0873173
216	0xbbad7bb6	-0.0052942885
217	0xbf7f6950	-0.9977007
218	0xbe20bd25	-0.15697153
219	0xbf7e8017	-0.994142
220	0x3ece49a2	0.40290552
221	0xbf46f052	-0.7771045
222	0xbf1245a7	-0.5713753
223	0xbf35c811	-0.710084
224	0x3f51ad88	0.8190541
225	0xbe90a344	-0.28249562
226	0xbf3ca9c0	-0.7369652
227	0xbe12e48c	-0.14344996
228	0x3ee5beb2	0.4487205
229	0xbef297d1	-0.47381452
230	0xbeb78396	-0.3584258
231	0xbee0c023	-0.4389659
232	0x3e9bda21	0.30439857
233	0xbf01bde3	-0.5068037
234	0xbe7112cd	-0.23542328
235	0xbefb2415	-0.49050966
236	0x3ea4e063	0.32202443
237	0xbf179c5e	-0.5922297
238	0xbe4ad0de	-0.19806239
239	0xbf10b743	-0.56529635
240	0x3ea619c0	0.3244152
241	0xbf15fc6b	-0.58588284
242	0xbe69fcfb	-0.2285041
243	0xbf10dd2c	-0.5658748
244	0x3ea458b5	0.32098928
245	0xbcf69bec	-0.030103646
246	0xbe964563	-0.29349813
247	0x3aa86359	0.0012846991
248	0x3ebb3c9c	0.3656968
249	0x3f1e3165	0.6179412
250	0xbe93e02c	-0.28881967
251	0x3f292639	0.6607395
252	0x3eb4878f	0.35259673
253	0x3f923325	1.1421858
254	0xbe5c7755	-0.21529897
255	0x3f958438	1.1680975
