aiModel/dataset/sequences/playing_games/WhatsApp Video 2025-09-29 at 18.09.07_b3e87305_win001_aug3_t00000.npy (npy, 12800 bytes, 1 tensors)

array f4 [48, 66]
0	0xbce51b25	-0.027967045
1	0xbf89656a	-1.0734074
2	0xbe0263a1	-0.12733318
3	0xbf94c052	-1.1621192
4	0xbe28ecde	-0.16496608
5	0xbf8fa14c	-1.1221099
6	0xbe42cb86	-0.1902295
7	0xbf92146f	-1.1412486
8	0x3cbf6d23	0.02336747
9	0xbf930dd3	-1.1488594
10	0x3dfef124	0.12448338
11	0xbf949566	-1.1608093
12	0x3d8beda3	0.06832435
13	0xbf973d4c	-1.1815581
14	0x3e5a26e0	0.21303892
15	0xbf8f1284	-1.1177526
16	0xbe8363be	-0.25662035
17	0xbf8ae850	-1.0852146
18	0x3d751585	0.059834976
19	0xbf82db6f	-1.0223216
20	0xbdb3b46a	-0.087746456
21	0xbf7cb01f	-0.9870624
22	0x3f08b319	0.5339828
23	0xbf4b8ddd	-0.7951334
24	0xbeed2d78	-0.46323752
25	0xbf382bb4	-0.71941686
26	0x3f4ad7a5	0.792353
27	0xbe84f21b	-0.25965962
28	0xbf510f7a	-0.8166424
29	0xbe197344	-0.14985377
30	0x3ea23cc6	0.3168699
31	0xbf049998	-0.51796865
32	0xbee6372a	-0.44963962
33	0xbece1aa5	-0.40254703
34	0xbeab8ed4	-0.33507407
35	0xbee81434	-0.45327914
36	0x3e414f49	0.18877901
37	0xbf087880	-0.5330887
38	0xbeb0b474	-0.34512675
39	0xbf0aba85	-0.54190856
40	0x3e301f3a	0.17199412
41	0xbf1dbf28	-0.61619806
42	0xbeb33598	-0.35001826
43	0xbf0c4eb1	-0.54807574
44	0x3e4fa81e	0.20278975
45	0xbf18b95c	-0.59657836
46	0x3eafa045	0.34301963
47	0xbcb015f7	-0.021494849
48	0xbe85a4e9	-0.2610238
49	0x3d0a1b4d	0.033717442
50	0x3edfea58	0.43733478
51	0x3f1fdc55	0.62445575
52	0xbe6d9e79	-0.23204984
53	0x3f317464	0.69318223
54	0x3eea09d3	0.4571062
55	0x3f9419c5	1.1570364
56	0xbe110bbb	-0.14164631
57	0x3f9b260e	1.2120988
58	0xbe119fe4	-0.1422115
59	0x3fa4c3a8	1.287221
60	0x3ef24894	0.47320998
61	0x3f9ec35c	1.2403369
62	0xbd5d9f99	-0.054107282
63	0x3fb17f4f	1.3866976
64	0x3ebacf65	0.36486354
65	0x3faeaf49	1.3647243
66	0xbd57cc5c	-0.052685127
67	0xbf8b6c9a	-1.0892518
68	0xbdef1bd9	-0.116752334
69	0xbf95044d	-1.1641937
70	0xbe35e997	-0.17764889
71	0xbf910aeb	-1.1331457
72	0xbe568a53	-0.20951204
73	0xbf9283d5	-1.1446482
74	0x3cde57f9	0.027141558
75	0xbf95b2dd	-1.169521
76	0x3dc904ba	0.09815355
77	0xbf9439d4	-1.1580148
78	0x3da125a7	0.0786851
79	0xbf971d76	-1.1805866
80	0x3e6a4e9f	0.22881554
81	0xbf93f3ae	-1.155874
82	0xbe89265a	-0.26787072
83	0xbf89d181	-1.076706
84	0x3d89fbfb	0.067375146
85	0xbf826cdf	-1.0189475
86	0xbdbbc04e	-0.091675386
87	0xbf80e74c	-1.0070586
88	0x3f051ec0	0.52000046
89	0xbf5534cc	-0.83283687
90	0xbef4cddd	-0.4781331
91	0xbf34bd54	-0.7060139
92	0x3f46df3c	0.7768438
93	0xbe8cabcf	-0.2747483
94	0xbf5475da	-0.8299233
95	0xbe1999a6	-0.15000018
96	0x3e9ad04b	0.3023704
97	0xbf069796	-0.5257505
98	0xbee3a2eb	-0.44460234
99	0xbed24249	-0.41066197
100	0xbeacb5eb	-0.33732542
101	0xbef09d34	-0.46994936
102	0x3e58275e	0.21108767
103	0xbf09c061	-0.5380917
104	0xbebaffef	-0.36523387
105	0xbf0cfd1e	-0.55073726
106	0x3e2a717a	0.1664485
107	0xbf208292	-0.62699234
108	0xbebd007e	-0.36914438
109	0xbf091bbb	-0.5355794
110	0x3e2c44c3	0.16823106
111	0xbf1b93cd	-0.607724
112	0x3ea65d1e	0.32492918
113	0xbbd86f7a	-0.006605086
114	0xbe90fdb0	-0.28318548
115	0x3d17b304	0.037035957
116	0x3eda3a4a	0.42622596
117	0x3f21a153	0.63136786
118	0xbe663df5	-0.22484572
119	0x3f3225de	0.6958903
120	0x3ee416c9	0.44548634
121	0x3f94ec5e	1.1634634
122	0xbe228de8	-0.15874445
123	0x3f9e76ae	1.2379968
124	0xbe1f1c4b	-0.15538137
125	0x3fa60ea3	1.2973217
126	0x3eeae699	0.45879057
127	0x3f9ef115	1.2417322
128	0xbd8675c7	-0.06565433
129	0x3fb44dbc	1.4086223
130	0x3ebf09bf	0.37312123
131	0x3fb3d478	1.4049215
132	0xbd6b7456	-0.057483993
133	0xbf8b79e9	-1.0896579
134	0xbe052128	-0.1300093
135	0xbf93e0e0	-1.1553001
136	0xbe33e226	-0.17566738
137	0xbf916990	-1.136034
138	0xbe6febee	-0.23429844
139	0xbf92333f	-1.1421889
140	0x3c06abb4	0.008219648
141	0xbf94af08	-1.1615915
142	0x3dfa5ff4	0.12225333
143	0xbf973075	-1.1811663
144	0x3da3c2bd	0.07996128
145	0xbf963fb1	-1.1738187
146	0x3e4eec62	0.2020736
147	0xbf95ac8c	-1.1693282
148	0xbe907225	-0.28212085
149	0xbf8f3a57	-1.1189679
150	0x3d55dcb3	0.05221243
151	0xbf860434	-1.0470033
152	0xbdd9e482	-0.106392875
153	0xbf7e816b	-0.99416226
154	0x3f077c97	0.52924484
155	0xbf4e9340	-0.80693436
156	0xbef3f83e	-0.4765033
157	0xbf3b5d83	-0.7318956
158	0x3f463bff	0.77435297
159	0xbe8a66e0	-0.27031612
160	0xbf591d46	-0.8481029
161	0xbe1bb05a	-0.15203992
162	0x3ea3b6ea	0.3197549
163	0xbf041e6e	-0.5160893
164	0xbeeea5cf	-0.46610877
165	0xbed39f5e	-0.41332525
166	0xbeb59e6f	-0.35472438
167	0xbee8727f	-0.45399854
168	0x3e46790a	0.1938211
169	0xbf05d414	-0.5227673
170	0xbeb25662	-0.3483153
171	0xbf06d919	-0.52675015
172	0x3e199005	0.14996345
173	0xbf2126b9	-0.6294971
174	0xbec86de6	-0.39146346
175	0xbf0c4a31	-0.5480071
176	0x3e30c4d2	0.17262581
177	0xbf1f4b9d	-0.6222475
178	0x3ead12b2	0.33803326
179	0xbd0d5033	-0.034500312
180	0xbe8bf218	-0.2733314
181	0x3cd49c71	0.025953503
182	0x3ee43b33	0.44576415
183	0x3f2081dd	0.62698156
184	0xbe6f5816	-0.23373446
185	0x3f31e0aa	0.69483435
186	0x3ee00393	0.43752727
187	0x3f9647f3	1.1740707
188	0xbe0c5d0c	-0.1370737
189	0x3f9e4f25	1.2367903
190	0xbe19ad2a	-0.15007463
191	0x3fa6d33c	1.3033214
192	0x3ef01639	0.46891955
193	0x3f9f96af	1.246786
194	0xbd5646d7	-0.052313652
195	0x3fb5b0bb	1.4194559
196	0x3ec59e87	0.3859751
197	0x3fb03542	1.3766253
198	0xbd57bbe9	-0.05266944
199	0xbf8b3581	-1.0875703
200	0xbe0467e0	-0.1293025
201	0xbf926aac	-1.1438804
202	0xbe531256	-0.20612463
203	0xbf8ef5d3	-1.116877
204	0xbe67cc48	-0.22636521
205	0xbf8f0bf3	-1.1175522
206	0xbc3d8f58	-0.01156982
207	0xbf950a71	-1.1643811
208	0x3e03efd8	0.12884462
209	0xbf96cd13	-1.1781334
210	0x3d9aaaab	0.075520836
211	0xbf93f372	-1.1558669
212	0x3e4e339f	0.2013688
213	0xbf92629f	-1.1436347
214	0xbe970cc7	-0.29501936
215	0xbf8baf80	-1.0912933
216	0x3d615605	0.055013675
217	0xbf815893	-1.0105156
218	0xbde2d55e	-0.11075853
219	0xbf7dae85	-0.9909442
220	0x3f0067a9	0.5015817
221	0xbf508292	-0.81449234
222	0xbef26516	-0.47342747
223	0xbf35d732	-0.71031487
224	0x3f41c964	0.7569792
225	0xbe88aa07	-0.2669222
226	0xbf54558b	-0.8294303
227	0xbe0f3aff	-0.13987349
228	0x3ea22b4a	0.31673652
229	0xbf041b2d	-0.51603967
230	0xbef4680d	-0.47735634
231	0xbec59021	-0.38586524
232	0xbeb0b3df	-0.3451223
233	0xbee2233b	-0.44167504
234	0x3e54d61f	0.20784806
235	0xbf046d88	-0.5172963
236	0xbeba3daa	-0.3637517
237	0xbf0afb0c	-0.5428932
238	0x3e3d9dea	0.1851727
239	0xbf199e26	-0.6000694
240	0xbec8dcf6	-0.3923108
241	0xbf068db4	-0.5255997
242	0x3e469a83	0.19394879
243	0xbf1c6ac9	-0.6110044
244	0x3ea79f96	0.32738942
245	0xbcbe76d4	-0.023250021
246	0xbe8e48f8	-0.27790046
247	0x3c95caf2	0.018285248
248	0x3edf9f98	0.43676448
249	0x3f21beec	0.6318195
250	0xbe62d68e	-0.22152159
251	0x3f310e25	0.6916221
252	0x3eee49c3	0.4654065
253	0x3f93dda4	1.1552014
254	0xbe04970e	-0.12948248
255	0x3f9b27e8	1.2121553
