aiModel/dataset/sequences/playing_games/WhatsApp Video 2025-09-29 at 18.09.07_b3e87305_win004_aug2_t00000.npy (npy, 12800 bytes, 1 tensors)

array f4 [48, 66]
0	0x3d39b96e	0.045342855
1	0xbf9555fc	-1.1666865
2	0xbcfc8c30	-0.030828565
3	0xbf9bef1e	-1.2182348
4	0xbda6f106	-0.0815144
5	0xbf9c1ce1	-1.2196313
6	0xbdeff2ca	-0.1171623
7	0xbf9cd918	-1.2253752
8	0x3e18f3b8	0.14936721
9	0xbf9d236a	-1.2276433
10	0x3e6167b3	0.22012214
11	0xbf9d985d	-1.2312123
12	0x3e3bde60	0.18346548
13	0xbf9b1709	-1.2116405
14	0x3e9a816a	0.3017686
15	0xbf97a0a9	-1.1845905
16	0xbe3c32ba	-0.18378726
17	0xbf96de23	-1.1786541
18	0x3e1e38fe	0.15451428
19	0xbf89adf1	-1.0756208
20	0xbd2a5cca	-0.041592397
21	0xbf88cdd5	-1.0687815
22	0x3f0bb759	0.5457664
23	0xbf42a335	-0.76030284
24	0xbee60172	-0.44922978
25	0xbf4dddef	-0.8041677
26	0x3f598649	0.8497053
27	0xbe39bcb6	-0.18138394
28	0xbf5b69f2	-0.85708535
29	0xbe810341	-0.25197795
30	0x3f00c3aa	0.5029856
31	0xbf02c345	-0.5107921
32	0xbf0e0496	-0.5547575
33	0xbef3e87a	-0.47638303
34	0xbed1e052	-0.40991455
35	0xbf0fc186	-0.5615467
36	0x3ec2258c	0.3791927
37	0xbf192c32	-0.5983306
38	0xbed390e7	-0.4132149
39	0xbf285a0b	-0.65762395
40	0x3eb0f9a0	0.3456545
41	0xbf27f2f9	-0.6560512
42	0xbedee469	-0.43533638
43	0xbf1cecdc	-0.6129892
44	0x3eb76e41	0.35826305
45	0xbf245b54	-0.64201856
46	0x3ea1a896	0.31573933
47	0xbbb99d5e	-0.0056645116
48	0xbe9e4694	-0.30913222
49	0x39eda219	0.00045324935
50	0x3ea5a52d	0.32352582
51	0x3f408ee5	0.7521804
52	0xbec4b80b	-0.38421664
53	0x3f37a9f0	0.7174368
54	0x3e9646b3	0.29350814
55	0x3facade0	1.3490562
56	0xbeb6fa9b	-0.35738072
57	0x3faa8010	1.3320332
58	0xbeb4c3bb	-0.3530558
59	0x3fb0e944	1.3821187
60	0x3e93c926	0.28864402
61	0x3fb2866c	1.3947272
62	0xbe93065a	-0.28715783
63	0x3fc29f5b	1.5204881
64	0x3e380511	0.17970683
65	0x3fc613a3	1.5474743
66	0x3d7a0de1	0.061048392
67	0xbf944e8a	-1.1586468
68	0xbcbb9c56	-0.022901695
69	0xbf9aa939	-1.2082893
70	0xbda651dc	-0.08121082
71	0xbf9c3226	-1.2202804
72	0xbe0eeeae	-0.13958237
73	0xbf9d0903	-1.2268375
74	0x3e009f99	0.12560882
75	0xbf9cd655	-1.2252909
76	0x3e6f22a8	0.23353064
77	0xbf9dd328	-1.2330065
78	0x3e3fd96d	0.18735285
79	0xbf9c7b13	-1.2225059
80	0x3e9b0439	0.3027666
81	0xbf99236b	-1.1963934
82	0xbe4587dc	-0.19290107
83	0xbf974ec6	-1.1820915
84	0x3e172dda	0.14763585
85	0xbf8ca590	-1.0988026
86	0xbd1811a3	-0.037126195
87	0xbf8b2d04	-1.0873113
88	0x3f0e8c7e	0.55683124
89	0xbf4aa9c0	-0.7916527
90	0xbeea4e74	-0.4576298
91	0xbf4c494f	-0.7979936
92	0x3f5a527e	0.85282123
93	0xbe425022	-0.1897588
94	0xbf5b7f6e	-0.8574132
95	0xbe54f6b0	-0.20797229
96	0x3f02fb23	0.51164454
97	0xbf0d619c	-0.55227065
98	0xbf0c9034	-0.54907537
99	0xbef501d2	-0.4785295
100	0xbec55ee0	-0.38548946
101	0xbf0a353a	-0.5398747
102	0x3ec270d4	0.37976706
103	0xbf1c144c	-0.6096847
104	0xbed93326	-0.42421836
105	0xbf261086	-0.6486896
106	0x3ea56586	0.3230402
107	0xbf2d0143	-0.6758005
108	0xbee06a32	-0.4383102
109	0xbf22130d	-0.6331032
110	0x3ea48561	0.3213301
111	0xbf2097d4	-0.6273167
112	0x3e983353	0.29726657
113	0xbbb0b09f	-0.0053921486
114	0xbe9afc46	-0.30270594
115	0x3b9d4a5c	0.004800124
116	0x3eab47ea	0.33453304
117	0x3f41c3a0	0.75689125
118	0xbec1a50d	-0.37821236
119	0x3f3c6aef	0.7360067
120	0x3e956056	0.2917506
121	0x3fac5ce9	1.3465854
122	0xbeb4fa3e	-0.3534717
123	0x3faaa0a7	1.3330277
124	0xbec1c768	-0.37847447
125	0x3fb2c1a0	1.396534
126	0x3e960cbb	0.29306588
127	0x3fb4b859	1.4118758
128	0xbe99d3ed	-0.300445
129	0x3fc440bc	1.5332255
130	0x3e33fda4	0.17577225
131	0x3fc6a6e5	1.5519682
132	0x3d5e6db9	0.05430386
133	0xbf92e229	-1.1475269
134	0xbb6ad0df	-0.0035830063
135	0xbf9d73e5	-1.2300993
136	0xbd8b3ec3	-0.0679908
137	0xbf9c85c1	-1.2228318
138	0xbdf3865a	-0.1189086
139	0xbf9d2749	-1.2277614
140	0x3e022ba5	0.12711962
141	0xbf9a706b	-1.2065557
142	0x3e71e89b	0.23623888
143	0xbf9bcd4c	-1.2172027
144	0x3e3af0ae	0.18255875
145	0xbf9db148	-1.2319727
146	0x3e953e79	0.29149225
147	0xbf9678d6	-1.1755626
148	0xbe316b51	-0.17326094
149	0xbf96edd8	-1.1791334
150	0x3e1a9b77	0.15098368
151	0xbf896857	-1.0734967
152	0xbcea96c8	-0.028636351
153	0xbf88797d	-1.0662075
154	0x3f0d1768	0.5511384
155	0xbf49f16c	-0.78884006
156	0xbee93c53	-0.45553836
157	0xbf4b5faf	-0.79442877
158	0x3f5740a4	0.8408301
159	0xbe3d613b	-0.18494122
160	0xbf60970c	-0.8773048
161	0xbe631075	-0.22174247
162	0x3f001a44	0.5004008
163	0xbf0dd427	-0.55401844
164	0xbf082dd6	-0.5319494
165	0xbf044402	-0.5166627
166	0xbeb1482e	-0.3462538
167	0xbf16a16a	-0.5884005
168	0x3ecc778e	0.39934963
169	0xbf1b6394	-0.6069882
170	0xbecac565	-0.39603725
171	0xbf30243f	-0.6880531
172	0x3ea36c79	0.31918696
173	0xbf314852	-0.6925098
174	0xbec6a773	-0.3879963
175	0xbf256396	-0.6460508
176	0x3e9eafc5	0.30993477
177	0xbf275851	-0.65369135
178	0x3e9ad3da	0.30239755
179	0x3c05d4c6	0.008168405
180	0xbea224db	-0.31668743
181	0xbbd87508	-0.006605748
182	0x3ec20ee1	0.37901977
183	0x3f3defb6	0.74193895
184	0xbeb76571	-0.3581958
185	0x3f370ca2	0.7150365
186	0x3ea9bbb8	0.3315103
187	0x3fa89013	1.3168968
188	0xbea32da4	-0.3187076
189	0x3fa880cb	1.3164304
190	0xbead6ed1	-0.3387361
191	0x3fb44d09	1.4086009
192	0x3eb73ec9	0.3579009
193	0x3fb40aab	1.4065756
194	0xbe853069	-0.26013497
195	0x3fc51493	1.5396904
196	0x3e7e02bc	0.2480573
197	0x3fc6f62e	1.5543878
198	0x3d6d776e	0.057975225
199	0xbf931154	-1.1489663
200	0xbd8090a6	-0.062775895
201	0xbf9733ad	-1.1812645
202	0xbdcc34a6	-0.099709794
203	0xbf98088f	-1.1877612
204	0xbe1db38b	-0.15400521
205	0xbf98d16a	-1.1938908
206	0x3df029e4	0.1172674
207	0xbf99938d	-1.1998154
208	0x3e6b72d2	0.22993019
209	0xbf97f827	-1.1872605
210	0x3e2ad66d	0.1668336
211	0xbf98101b	-1.1879915
212	0x3e9405a3	0.2891055
213	0xbf92e493	-1.1476005
214	0xbe49e4ca	-0.19716182
215	0xbf91e8b4	-1.139914
216	0x3dfa54b6	0.122231886
217	0xbf875836	-1.0573795
218	0xbd12cac3	-0.0358379
219	0xbf861180	-1.047409
220	0x3f0f8c4a	0.5607344
221	0xbf41f4f8	-0.7576442
222	0xbee57c41	-0.4482136
223	0xbf49de47	-0.78854793
224	0x3f4f7e9f	0.81052583
225	0xbe44edf9	-0.19231404
226	0xbf5864dd	-0.84528905
227	0xbe527841	-0.20553686
228	0x3f031e1a	0.51217806
229	0xbf05bac1	-0.5223809
230	0xbf02261b	-0.50839394
231	0xbf070683	-0.5274431
232	0xbeb046e9	-0.344291
233	0xbf158c03	-0.58416766
234	0x3ec30036	0.38086098
235	0xbf16f3cd	-0.5896576
236	0xbeb7790c	-0.3583454
237	0xbf30edac	-0.6911266
238	0x3eb06226	0.3444988
239	0xbf282c3e	-0.6569251
240	0xbeb8bda3	-0.3608218
241	0xbf2cbb05	-0.6747287
242	0x3eb503ce	0.35354465
243	0xbf230eae	-0.63694274
244	0x3eac4f3e	0.33654207
245	0xbaf2c847	-0.0018522822
246	0xbea23efe	-0.31688684
247	0x3c7b2911	0.015329615
248	0x3ebf7486	0.37393588
249	0x3f373df8	0.7157893
250	0xbeadceb2	-0.33946759
251	0x3f347dcc	0.7050445
252	0x3ea86f7a	0.3289755
253	0x3fa48439	1.2852851
254	0xbe9c2f57	-0.30504867
255	0x3fa55ec1	1.2919542
