aiModel/dataset/sequences/playing_games/WhatsApp Video 2025-09-29 at 18.09.07_b3e87305_win000_aug2_t00000.npy (npy, 12800 bytes, 1 tensors)

array f4 [48, 66]
-0.012580319 -1.2292129 -0.10907428 -1.3241193 -0.15427174 -1.3102231 -0.18768682 -1.3110038
0.061711583 -1.3159244 0.15938228 -1.3454155 0.12169231 -1.3305473 0.22998483 -1.30344
-0.24094725 -1.2627307 0.11374823 -1.1811291 -0.08831001 -1.1653547 0.54788357 -0.8836456
-0.46372256 -0.9035025 0.6926935 -0.373631 -0.9012863 -0.5673067 0.6286151 -0.15314676
-1.0247799 -0.3860698 -1.1630535 -0.27136892 0.6716647 0.022804698 -1.0706408 -0.28879178
0.5817179 -0.045127545 -1.0183841 -0.30726147 0.5531554 -0.046804003 0.39764208 -0.008777996
-0.36760804 -0.0013595719 0.29629079 0.70990634 -0.38276827 0.7047815 0.31442505 1.314431
-0.34853938 1.3125056 -0.36062858 1.3904532 0.0 0.0 -0.27604336 1.5137538
0.15934744 1.5225841 -0.031157725 -1.2605298 -0.12326715 -1.3352727 -0.15245779 -1.3249998
-0.18782312 -1.322944 0.066047855 -1.3491658 0.18649305 -1.3618355 0.0 0.0
0.27876732 -1.3146601 -0.24892619 -1.277218 0.1246539 -1.2119987 -0.09909869 -1.189612
0.5628547 -0.91062135 -0.44652376 -0.8754373 0.70524895 -0.38372776 -0.77873665 -0.616678
0.5937028 -0.13735113 -1.0782435 -0.46903148 -1.2685217 -0.3905029 0.5989977 0.029360622
-1.185031 -0.4070581 0.51215446 0.00439297 -1.1154447 -0.43509522 0.4763662 -0.13753213
0.39128283 0.00054121786 -0.3530806 -0.0012231165 0.29000682 0.7262803 -0.37425908 0.7121036
0.24773417 1.3631281 -0.40862063 1.3762802 -0.42184493 1.4854401 0.0 0.0
-0.35522506 1.5716786 0.07632194 1.5711989 0.0059099295 -1.2828898 -0.1054014 -1.3448327
-0.16173877 -1.339475 -0.18253364 -1.3267019 0.059899725 -1.3626853 0.18370879 -1.3520348
0.111070424 -1.361555 0.25327137 -1.3289949 -0.24960436 -1.2840648 0.111594506 -1.208902
-0.10146293 -1.2112067 0.57835686 -0.8898339 -0.44311938 -0.89020663 0.0 0.0
-0.7706607 -0.63787717 0.5920101 -0.10255535 -1.1631454 -0.36682692 -1.3554174 -0.2728845
0.5981225 0.061696798 -1.2899913 -0.27103364 0.5185587 0.027160171 -1.2060815 -0.29144976
0.49764803 -0.013715585 0.38283306 0.00080402265 -0.37498152 -0.02829586 0.274633 0.7550921
-0.41685683 0.72191906 0.22076245 1.3977324 -0.4252812 1.3911319 -0.44551775 1.4882301
0.23191658 1.4942195 -0.38442463 1.6004186 0.07711755 1.6241056 -0.011374478 -1.2749829
-0.1022885 -1.3486942 -0.1463118 -1.3498684 0.0 0.0 0.071471415 -1.3800535
0.19692452 -1.3752284 0.12984455 -1.3752745 0.257833 -1.3288844 -0.2434741 -1.290467
0.116707176 -1.2194875 -0.07245043 -1.2003808 0.5581069 -0.90931356 -0.43262112 -0.90369314
0.72039586 -0.3876134 -0.7703707 -0.6200027 0.6066879 -0.08617818 -1.1857679 -0.33849785
-1.3550805 -0.22150744 0.66076666 0.09637475 -1.2877872 -0.2578031 0.5595943 0.04353744
-1.2016693 -0.24603151 0.5284625 0.019428128 0.0 0.0 -0.3670203 -0.015751448
0.28148717 0.75923336 -0.41762012 0.73297364 0.2346852 1.4166912 -0.43408635 1.4396867
00000000: af1d 4ebc d956 9dbf 5662 dfbd be7c a9bf
00000010: 69f9 1dbe 64b5 a7bf f930 40be f9ce a7bf
00000020: 49c5 7c3d 3670 a8bf 1c35 233e 9336 acbf
00000030: d139 f93d 604f aabf 2581 6b3e 1fd7 a6bf
00000040: e0ba 76be 29a1 a1bf d5f4 e83d 3d2f 97bf
00000050: e1db b4bd 582a 95bf 1942 0c3f 9936 62bf
00000060: 0b6d edbe f14b 67bf 5c54 313f 904c bfbe
00000070: b3ba 66bf 033b 11bf ebec 203f 81d2 1cbe
00000080: fd2b 83bf f1aa c5be f0de 94bf def0 8abe
00000090: 38f2 2b3f ebd0 ba3c c20a 89bf 84dc 93be
000000a0: 77eb 143f a9d7 38bd 695a 82bf 6051 9dbe
000000b0: 989b 0d3f 8eb5 3fbd be97 cb3e 95d1 0fbc
000000c0: 1f37 bcbe aa33 b2ba 6db3 973e 6cbc 353f
000000d0: 34fa c3be 8f6c 343f 52fc a03e 463f a83f
000000e0: c173 b2be 2f00 a83f 4fa4 b8be 5ffa b13f
000000f0: 0000 0000 0000 0000 8e55 8dbe afc2 c13f
00000100: fa2b 233e 09e4 c23f 7c3e ffbc 0a59 a1bf
00000110: 7d73 fcbd 37ea aabf e51d 1cbe 9899 a9bf
00000120: b454 40be 3b56 a9bf 1944 873d 77b1 acbf
00000130: 09f8 3e3e a050 aebf 0000 0000 0000 0000
00000140: 97ba 8e3e c846 a8bf 82e6 7ebe e17b a3bf
00000150: 8b4a ff3d c622 9bbf 41f4 cabd 3545 98bf
00000160: 3f17 103f 7b1e 69bf c39e e4be a91c 60bf
00000170: 328b 343f f777 c4be 495b 47bf 9cde 1dbf
00000180: e8fc 173f c6a5 0cbe e203 8abf e524 f0be
00000190: eb5e a2bf ffef c7be ea57 193f b085 f03c
000001a0: 19af 97bf eb69 d0be 8e1c 033f e7f2 8f3b
000001b0: e4c6 8ebf cdc4 debe 45e6 f33e 39d5 0cbe
000001c0: 3956 c83e 84e0 0d3a fbc6 b4be fb50 a0ba
000001d0: c67b 943e 81ed 393f e39e bfbe 6c4c 363f
000001e0: 07ae 7d3e fb7a ae3f b936 d1be f329 b03f
000001f0: 0ffc d7be e722 be3f 0000 0000 0000 0000
00000200: 0fe0 b5be c42c c93f ad4e 9c3d 0c1d c93f
00000210: 15a8 c13b bc35 a4bf b0dc d7bd 7a23 acbf
00000220: d99e 25be eb73 abbf 19ea 3abe 5ed1 a9bf
00000230: 6a59 753d 796c aebf 281e 3c3e 7a0f adbf
00000240: e478 e33d 6f47 aebf c9ac 813e 811c aabf
00000250: 4998 7fbe 3c5c a4bf a98b e43d 4dbd 9abf
00000260: cccb cfbd d208 9bbf 320f 143f 28cc 63bf
00000270: 8be0 e2be 95e4 63bf 0000 0000 0000 0000
00000280: 054a 45bf eb4b 23bf f98d 173f 8a08 d2bd
00000290: f3e1 94bf bdd0 bbbe 517e adbf 84b7 8bbe
000002a0: 8e1e 193f c8b5 7c3d 6f1e a5bf ecc4 8abe
000002b0: 43c0 043f 027f de3c e160 9abf e738 95be
000002c0: b9cb fe3e 55b7 60bc b202 c43e 0cc5 523a
000002d0: 94fd bfbe b8cc e7bc b29c 8c3e b74d 413f
000002e0: 426e d5be b0cf 383f 8d0f 623e e5e8 b23f
000002f0: 75be d9be 9c10 b23f e71a e4be 537e be3f
00000300: 8a7b 6d3e 9642 bf3f 4ed3 c4be 84da cc3f
00000310: ceef 9d3d b1e2 cf3f 055c 3abc a432 a3bf
00000320: a27c d1bd 03a2 acbf c3d2 15be 7dc8 acbf
00000330: 0000 0000 0000 0000 9b5f 923d 98a5 b0bf
00000340: 95a6 493e 7c07 b0bf f8f5 043e ff08 b0bf
00000350: b002 843e e218 aabf 4651 79be 062e a5bf
00000360: 2c04 ef3d 2b18 9cbf e460 94bd 14a6 99bf
00000370: 18e0 0e3f c6c8 68bf 8480 ddbe 6f58 67bf
00000380: dd6b 383f 4375 c6be 0437 45bf 7fb8 1ebf
00000390: e64f 1b3f 307e b0bd 3ec7 97bf 974f adbe
000003a0: 4773 adbf d9d2 62be 0128 293f 2060 c53d
000003b0: 36d6 a4bf c5fe 83be 9241 0f3f 5154 323d
000003c0: 4dd0 99bf afef 7bbe 5249 073f bd27 9f3c
000003d0: 0000 0000 0000 0000 16ea bbbe 2e09 81bc
000003e0: 161f 903e 1e5d 423f 4ed2 d5be 29a4 3b3f
000003f0: 5151 703e 2356 b53f 9140 debe a747 b83f
