aiModel/dataset/sequences/playing_games/WhatsApp Video 2025-09-29 at 18.09.07_b3e87305_win005_aug1_t00000.npy (npy, 12800 bytes, 1 tensors)

array f4 [48, 66]
0	0xb9fda786	-0.00048380735
1	0xbf8c414b	-1.0957426
2	0x3d554c0b	0.052074473
3	0xbf91f60f	-1.1403216
4	0x3db6cb5d	0.08925507
5	0xbf92caa9	-1.1468097
6	0x3e0766d6	0.13222823
7	0xbf94d662	-1.1627924
8	0xbdd503ee	-0.1040114
9	0xbf980132	-1.1875365
10	0xbe1405ae	-0.14455292
11	0xbf95e3d2	-1.171015
12	0xbe501d48	-0.2032367
13	0xbf92cdb2	-1.1469023
14	0x3e4ab00f	0.19793724
15	0xbf8db716	-1.1071498
16	0xbe89ec21	-0.26937965
17	0xbf8e19d0	-1.1101627
18	0x3d5c5c0c	0.05379872
19	0xbf8270a8	-1.019063
20	0xbe0555fc	-0.13021082
21	0xbf82475d	-1.0178028
22	0x3eeb1d65	0.45920864
23	0xbf4614c9	-0.77375466
24	0xbf0920aa	-0.53565466
25	0xbf4541ae	-0.77053344
26	0x3f681b26	0.90666425
27	0xbe714877	-0.235628
28	0xbf52be78	-0.8232188
29	0xbe34de64	-0.1766296
30	0x3ef81ecb	0.48460993
31	0xbf00ac79	-0.5026317
32	0xbee32d8f	-0.44370696
33	0xbf032378	-0.51225996
34	0x3ea8ae17	0.3294532
35	0xbf0ac2ed	-0.54203683
36	0xbea9e104	-0.33179486
37	0xbf140d25	-0.57832557
38	0x3eb8e2dc	0.3611058
39	0xbf23f710	-0.6404886
40	0xbe954eac	-0.29161584
41	0xbf222137	-0.6333193
42	0x3eb5074a	0.35357124
43	0xbf18690d	-0.59535295
44	0xbea2c153	-0.3178812
45	0xbf1c2f77	-0.61009926
46	0x3e9a2dff	0.30113217
47	0x3baa3e61	0.0051954244
48	0xbeaefb68	-0.34176183
49	0x3c3683e1	0.011139841
50	0x3ec2fce8	0.38083577
51	0x3f328202	0.69729626
52	0xbea7d597	-0.32780144
53	0x3f37f221	0.71853834
54	0x3ec2695c	0.37971008
55	0x3f9f8cbc	1.2464824
56	0xbe86a23e	-0.26295656
57	0x3f9eeaa0	1.2415352
58	0x3ec8b50e	0.39200634
59	0x3fac0499	1.3438903
60	0xbe94e1fa	-0.29078656
61	0x3fabb7a9	1.3415424
62	0x3ea0c19a	0.31397706
63	0x3fba945d	1.4576527
64	0xbe21ed96	-0.15813288
65	0x3fbc3644	1.470406
66	0xb9fda786	-0.00048380735
67	0xbf8c414b	-1.0957426
68	0x3d554c0b	0.052074473
69	0xbf91f60f	-1.1403216
70	0x3db6cb5d	0.08925507
71	0xbf92caa9	-1.1468097
72	0x3e0766d6	0.13222823
73	0xbf94d662	-1.1627924
74	0xbdd503ee	-0.1040114
75	0xbf980132	-1.1875365
76	0xbe1405ae	-0.14455292
77	0xbf95e3d2	-1.171015
78	0xbe501d48	-0.2032367
79	0xbf92cdb2	-1.1469023
80	0x3e4ab00f	0.19793724
81	0xbf8db716	-1.1071498
82	0xbe89ec21	-0.26937965
83	0xbf8e19d0	-1.1101627
84	0x3d5c5c0c	0.05379872
85	0xbf8270a8	-1.019063
86	0xbe0555fc	-0.13021082
87	0xbf82475d	-1.0178028
88	0x3eeb1d65	0.45920864
89	0xbf4614c9	-0.77375466
90	0xbf0920aa	-0.53565466
91	0xbf4541ae	-0.77053344
92	0x3f681b26	0.90666425
93	0xbe714877	-0.235628
94	0xbf52be78	-0.8232188
95	0xbe34de64	-0.1766296
96	0x3ef81ecb	0.48460993
97	0xbf00ac79	-0.5026317
98	0xbee32d8f	-0.44370696
99	0xbf032378	-0.51225996
100	0x3ea8ae17	0.3294532
101	0xbf0ac2ed	-0.54203683
102	0xbea9e104	-0.33179486
103	0xbf140d25	-0.57832557
104	0x3eb8e2dc	0.3611058
105	0xbf23f710	-0.6404886
106	0xbe954eac	-0.29161584
107	0xbf222137	-0.6333193
108	0x3eb5074a	0.35357124
109	0xbf18690d	-0.59535295
110	0xbea2c153	-0.3178812
111	0xbf1c2f77	-0.61009926
112	0x3e9a2dff	0.30113217
113	0x3baa3e61	0.0051954244
114	0xbeaefb68	-0.34176183
115	0x3c3683e1	0.011139841
116	0x3ec2fce8	0.38083577
117	0x3f328202	0.69729626
118	0xbea7d597	-0.32780144
119	0x3f37f221	0.71853834
120	0x3ec2695c	0.37971008
121	0x3f9f8cbc	1.2464824
122	0xbe86a23e	-0.26295656
123	0x3f9eeaa0	1.2415352
124	0x3ec8b50e	0.39200634
125	0x3fac0499	1.3438903
126	0xbe94e1fa	-0.29078656
127	0x3fabb7a9	1.3415424
128	0x3ea0c19a	0.31397706
129	0x3fba945d	1.4576527
130	0xbe21ed96	-0.15813288
131	0x3fbc3644	1.470406
132	0xbc782f0b	-0.015147935
133	0xbf8b2c1e	-1.0872838
134	0x00000000	0.0
135	0x00000000	0.0
136	0x00000000	0.0
137	0x00000000	0.0
138	0x3e12b223	0.14325766
139	0xbf9128a0	-1.1340523
140	0x00000000	0.0
141	0x00000000	0.0
142	0xbe146eea	-0.14495435
143	0xbf92929f	-1.1450995
144	0x00000000	0.0
145	0x00000000	0.0
146	0x3e5df628	0.21675932
147	0xbf8d1dce	-1.1024721
148	0x00000000	0.0
149	0x00000000	0.0
150	0x3d0dd473	0.034626435
151	0xbf82cfd1	-1.021967
152	0xbe04bf6a	-0.12963644
153	0xbf834acc	-1.0257201
154	0x3edb6a77	0.42854664
155	0xbf419643	-0.75619906
156	0x00000000	0.0
157	0x00000000	0.0
158	0x3f6bee90	0.9216089
159	0xbe84148c	-0.25796926
160	0xbf54e898	-0.8316741
161	0xbe49cb85	-0.19706543
162	0x00000000	0.0
163	0x00000000	0.0
164	0x00000000	0.0
165	0x00000000	0.0
166	0x3e9d20ff	0.30689237
167	0xbf12b9e1	-0.5731488
168	0xbea0fa4b	-0.31440958
169	0xbf119ab9	-0.56876713
170	0x3ea02eab	0.31285605
171	0xbf234d6d	-0.6379002
172	0xbe93cbf2	-0.28866535
173	0xbf20ebf0	-0.6286001
174	0x3e9e874d	0.309626
175	0xbf1dec86	-0.6168903
176	0xbe9674ea	-0.29386073
177	0xbf20827f	-0.6269912
178	0x3e9cd57d	0.3063163
179	0x3b2d97f5	0.0026488279
180	0xbea0799e	-0.31342787
181	0xbbee7676	-0.0072773052
182	0x3ec0d148	0.3765967
183	0x3f322b1e	0.6959704
184	0xbea8f076	-0.32995957
185	0x3f365605	0.71225005
186	0x3ec85eee	0.39134926
187	0x3fa373b2	1.2769682
188	0xbe8f26af	-0.279592
189	0x3fa374e1	1.2770044
190	0x3ec7a724	0.38994706
191	0x3fabbe84	1.3417516
192	0xbe8cbf84	-0.27489865
193	0x3fabb34f	1.3414096
194	0x3e9f5beb	0.31124815
195	0x3fbb0a6f	1.4612559
196	0xbe27ab97	-0.1637405
197	0x3fbb681c	1.4641147
198	0xba7d8be2	-0.0009672028
199	0xbf8c293c	-1.0950084
200	0x3d5f6d38	0.05454752
201	0xbf94beac	-1.1620688
202	0x00000000	0.0
203	0x00000000	0.0
204	0x3e2003db	0.1562647
205	0xbf94b64b	-1.1618131
206	0x00000000	0.0
207	0x00000000	0.0
208	0x00000000	0.0
209	0x00000000	0.0
210	0xbe58d838	-0.21176231
211	0xbf95e6d3	-1.1711067
212	0x3e40f323	0.1884275
213	0xbf8d6bfc	-1.1048579
214	0xbe89ea14	-0.269364
215	0xbf9161e6	-1.1358001
216	0x3d82da8d	0.063893415
217	0xbf81afb9	-1.0131751
218	0xbe0b9cc3	-0.13634019
219	0xbf8516ed	-1.0397621
220	0x3ee399dc	0.44453323
221	0xbf4336b3	-0.7625534
222	0x00000000	0.0
223	0x00000000	0.0
224	0x3f6aa1dd	0.91653234
225	0xbe8217d0	-0.25408792
226	0xbf5485ef	-0.83016866
227	0xbe3b848b	-0.1831228
228	0x00000000	0.0
229	0x00000000	0.0
230	0x00000000	0.0
231	0x00000000	0.0
232	0x3e9a6216	0.3015296
233	0xbf0d84d3	-0.552808
234	0xbea0b505	-0.31388107
235	0xbf13ba59	-0.5770622
236	0x3e9e242f	0.3088698
237	0xbf24dee9	-0.64402634
238	0xbe909bfa	-0.28244
239	0xbf249b43	-0.6429941
240	0x3e9e2d34	0.30893862
241	0xbf2347ce	-0.6378144
242	0xbe9a5364	-0.30141747
243	0xbf21732d	-0.6306637
244	0x3e9e432d	0.30910626
245	0x3b1e2190	0.0024128892
246	0x00000000	0.0
247	0x00000000	0.0
248	0x3ec70868	0.388736
249	0x3f326613	0.69687
250	0x00000000	0.0
251	0x00000000	0.0
252	0x3ec45a90	0.38350344
253	0x3fa3f6e2	1.2809718
254	0xbe8aef5c	-0.27135742
255	0x3fa3c2f2	1.2793868
