aiModel/dataset/sequences/playing_games/WhatsApp Video 2025-09-29 at 18.09.07_b3e87305_win005_orig_t00000.npy (npy, 12800 bytes, 1 tensors)

array f4 [48, 66]
00000000: 808a 8ebc bb4a 8cbf c3d9 6c3d d241 94bf
00000010: 40f0 d33d d4ba 93bf 518d 133e 8006 93bf
00000020: 04ad c6bd 1cf9 94bf fa02 19be 7003 95bf
00000030: 9d7b 49be 6405 95bf 23fb 4e3e cacd 8dbf
00000040: d03a 8bbe a563 90bf 9a5a 763d 0707 82bf
00000050: 158f fabd 020a 83bf 681f e53e 5ea8 44bf
00000060: ea67 0dbf ab96 40bf 0426 6b3f a9dd 7abe
00000070: 9c35 56bf 1944 3fbe b6e0 043f 25ce fbbe
00000080: 4d6f e7be 485a 00bf 91d5 ac3e daaa 0cbf
00000090: 45f3 a2be 2e57 12bf 320d b43e caf5 21bf
000000a0: d963 95be 480a 23bf c367 b73e 81ac 1dbf
000000b0: 7db9 9cbe 9ecd 1ebf bb00 a23e 8173 2cbb
000000c0: bc00 a2be 8b76 2c3b f0de be3e 7a66 323f
000000d0: bfb0 a8be 0bdf 353f 0631 c53e 34ae a13f
000000e0: 4b16 89be 0f2e a23f ddbc c83e 0490 aa3f
000000f0: b62b 91be e580 ab3f c445 a53e 1866 bb3f
00000100: cef6 21be 35a4 bb3f be89 92bc 843f 8cbf
00000110: 50fc 683d a122 94bf c133 d23d a894 93bf
00000120: d1af 123e 7fd5 92bf fd20 c8bd 99e2 94bf
00000130: 860b 1abe 8de5 94bf bfb8 4abe bbe3 94bf
00000140: 64e5 4d3e fe9d 8dbf e302 8cbe 1c21 90bf
00000150: bdef 723d b8f6 81bf cadc fcbd d2fc 82bf
00000160: 0ff9 e43e 7a75 44bf 6b7a 0dbf 573a 40bf
00000170: e106 6b3f 272b 7fbe 5397 56bf 8f80 40be
00000180: 4a13 fb3e 5aed fdbe 04b6 ddbe ad30 02bf
00000190: 1ccb 9a3e 4613 0ebf 5f28 9dbe de53 13bf
000001a0: 132a 9a3e 5867 22bf a0c2 8dbe ca76 23bf
000001b0: 8957 a03e b048 1ebf 9ddb 96be 9c5f 1fbf
000001c0: 6543 a33e b008 36bb 6243 a3be bc0b 363b
000001d0: c1d9 be3e 094c 333f aba8 a9be 9bdf 363f
000001e0: 1b66 c33e 0e38 a23f 877b 8bbe 3ad3 a23f
000001f0: 1270 c83e da36 ab3f febd 93be 222e ac3f
00000200: 77bc a13e f216 bc3f 14ce 25be cc57 bc3f
00000210: 0565 91bc 0bd1 8cbf bd66 6b3d 1ba7 94bf
00000220: cadc d33d 440d 94bf 5fb2 133e e141 93bf
00000230: 280b c8bd f089 95bf fe79 1abe 7b91 95bf
00000240: 155c 4bbe e297 95bf c218 4f3e 4516 8ebf
00000250: 8932 8cbe 97da 90bf 4dd6 733d cb7e 82bf
00000260: 0d47 febd a49b 83bf 05df e43e 8d67 45bf
00000270: 5587 0dbf ee25 41bf d625 6c3f f420 81be
00000280: 94e2 56bf efdd 42be f6f2 fb3e abfb febe
00000290: d783 dbbe b556 03bf b05a 9d3e 5eb1 0ebf
000002a0: f896 9ebe eba5 14bf be5f 9c3e fb99 23bf
000002b0: 3331 90be 3a03 25bf c638 a33e fb46 1fbf
000002c0: 0676 98be c293 20bf 6023 a43e b76b 59bb
000002d0: 5d23 a4be b76b 593b df62 bf3e 1866 333f
000002e0: c2bc aabe 5072 373f 7d00 c33e 21f9 a23f
000002f0: 1d18 8cbe 9086 a33f 3e9a c83e fd2d ac3f
00000300: 5902 95be 15df ac3f 6419 a13e 2cf0 bc3f
00000310: 448b 26be 0e0d bd3f b6e5 90bc 79a3 8dbf
00000320: 6a07 6e3d 6890 95bf 68b7 d53d 3ef2 94bf
00000330: 25dc 143e 9023 94bf 332b c8bd e281 96bf
00000340: 95e4 1abe 488b 96bf aff1 4bbe 7894 96bf
00000350: f867 503e 5b00 8fbf fc4e 8cbe 0fd4 91bf
00000360: 5b68 743d 823a 83bf 24d1 ffbd fa6c 84bf
00000370: 876e e53e 6fbd 46bf 8c3f 0dbf 367a 42bf
00000380: a939 5f3f 45e0 81be 73b2 54bf 797a 45be
00000390: 17de fd3e 2852 fdbe bde7 dbbe 9c4f 05bf
000003a0: 7a62 a03e 22bd 0ebf eaf2 9fbe f263 17bf
000003b0: f7a4 a33e 056b 24bf ee5f 92be 897a 27bf
000003c0: 7dd1 a73e cc1e 20bf 4eeb 99be ccc7 22bf
000003d0: c021 a53e 6933 50bb c021 a5be 6933 503b
000003e0: ea53 c03e a268 333f 1f71 aabe a37c 373f
000003f0: ffcc c23e 3fbb a33f 93b4 89be 0c07 a43f
-0.017400026 -1.0960306 0.05782486 -1.1582587 0.103485584 -1.154139 0.14409377 -1.1486359
-0.09700969 -1.1638522 -0.14942542 -1.1641674 -0.19676061 -1.164227 0.20212989 -1.1078427
-0.27193308 -1.1280409 0.060144998 -1.0158395 -0.12234322 -1.0237429 0.44750524 -0.7681941
-0.55236685 -0.752299 0.9185488 -0.24498619 -0.8367555 -0.18678321 0.5190538 -0.49180713
-0.45202103 -0.5013776 0.33756688 -0.549482 -0.31826225 -0.57164276 0.35166317 -0.6326567
-0.2917774 -0.6368756 0.3582135 -0.61591345 -0.30610266 -0.62032497 0.31641182 -0.0026313963
-0.31641185 0.0026315774 0.37279463 0.69687617 -0.32947347 0.7104346 0.38513964 1.2631288
-0.2677482 1.2670306 0.3920659 1.33252 -0.2835366 1.339871 0.3227979 1.4640532
-0.15816805 1.4659487 -0.017887946 -1.0956883 0.05688125 -1.1573068 0.102637775 -1.1529741
0.14324881 -1.1471404 -0.09771917 -1.1631652 -0.15043458 -1.1632553 -0.19797038 -1.1631998
0.20107037 -1.106384 -0.27345952 -1.1260104 0.059310663 -1.0153418 -0.123468 -1.0233405
0.44721267 -0.76741755 -0.5526492 -0.7508902 0.9180737 -0.24918805 -0.8382465 -0.18799041
0.49038154 -0.49595147 -0.4330293 -0.50855523 0.30233085 -0.5549816 -0.30694863 -0.57549846
0.30110225 -0.6343894 -0.2768755 -0.6385313 0.31316784 -0.6182966 -0.29464427 -0.62255263
0.31887355 -0.0027776174 -0.31887347 0.002777799 0.37275508 0.70037895 -0.33136496 0.71434945
0.38163838 1.2673357 -0.2724268 1.2720711 0.39148003 1.3376114 -0.2885589 1.3451579
0.315891 1.4694502 -0.16191894 1.4714293 -0.017748365 -1.1001295 0.057471026 -1.1613497
0.103448465 -1.1566548 0.14423512 -1.150448 -0.09767753 -1.168272 -0.15085599 -1.1685022
-0.19859345 -1.1686976 0.20224288 -1.1100546 -0.27382305 -1.1316708 0.059530545 -1.0194944
-0.124158956 -1.0281873 0.447014 -0.7711113 -0.55284625 -0.754485 0.92245233 -0.25220454
-0.8393948 -0.19029973 0.49208802 -0.49801382 -0.42874023 -0.5130418 0.30733252 -0.5573939
-0.30974555 -0.5806567 0.30541795 -0.6390683 -0.28162536 -0.6445805 0.31879252 -0.6221768
-0.29777545 -0.6272546 0.3205824 -0.0033175775 -0.3205823 0.0033175775 0.3738012 0.7007766
-0.33347136 0.716588 0.3808631 1.2732278 -0.27362147 1.277544 0.39180177 1.3451535
-0.29103354 1.3505579 0.31464684 1.4760795 -0.16264063 1.4769609 -0.01768766 -1.1065513
0.05811254 -1.1684694 0.104353726 -1.1636426 0.14537103 -1.1573353 -0.097738646 -1.1758387
-0.1512626 -1.1761255 -0.19916414 -1.1764059 0.20352161 -1.1171983 -0.2740401 -1.139284
0.059669834 -1.025223 -0.12491062 -1.0345757 0.44810888 -0.776328 -0.5517509 -0.7596773
0.8719736 -0.25366417 -0.8308479 -0.19285001 0.49583504 -0.49476743 -0.4295024 -0.520746
0.31325132 -0.55757344 -0.31240016 -0.5913688 0.31961796 -0.642258 -0.28588814 -0.6542135
0.32777014 -0.6254699 -0.30062336 -0.63586116 0.32252312 -0.0031768924 -0.32252312 0.0031768924
0.3756402 0.7008153 -0.3328943 0.71674556 0.38047025 1.2791518 -0.2689558 1.281465
