aiModel/dataset/sequences/playing_games/WhatsApp Video 2025-09-29 at 18.09.07_b3e87305_win003_orig_t00000.npy (npy, 12800 bytes, 1 tensors)

array f4 [48, 66]
0	0xbc9dc301	-0.019258024
1	0xbf8f2151	-1.1182042
2	0x3d6750d4	0.056473568
3	0xbf97e098	-1.1865416
4	0x3dd2b1bb	0.10287806
5	0xbf97bfe9	-1.1855441
6	0x3e119a04	0.14218909
7	0xbf9773f5	-1.1832262
8	0xbdcdba44	-0.10045293
9	0xbf981196	-1.1880367
10	0xbe1f7a52	-0.15574005
11	0xbf9817b3	-1.1882232
12	0xbe5233fa	-0.2052764
13	0xbf981b55	-1.1883341
14	0x3e48d944	0.1961413
15	0xbf9213e6	-1.1412323
16	0xbe94fb71	-0.29098085
17	0xbf93af2e	-1.1537836
18	0x3d62b01c	0.055343732
19	0xbf84791e	-1.0349462
20	0xbdf9ff3e	-0.12206887
21	0xbf8528e9	-1.040311
22	0x3ed7de6e	0.42161888
23	0xbf486fd8	-0.7829566
24	0xbf14045e	-0.57819164
25	0xbf43795e	-0.76357067
26	0x3f5d0c56	0.8634695
27	0xbe79bf99	-0.24389495
28	0xbf4f70d1	-0.8103152
29	0xbe2a8ec7	-0.16656028
30	0x3f0cafb7	0.5495562
31	0xbefc9922	-0.4933558
32	0xbf1304a8	-0.5742898
33	0xbef4fc46	-0.4784872
34	0x3ebddee5	0.37084118
35	0xbf0e85c6	-0.5567287
36	0xbed6f53b	-0.4198397
37	0xbf0b94a3	-0.54523677
38	0x3ec0af22	0.37633616
39	0xbf277a66	-0.6542114
40	0xbedab4cc	-0.42716062
41	0xbf21d7b0	-0.6321974
42	0x3ec981a1	0.39356712
43	0xbf2312d5	-0.6370061
44	0xbede9ce2	-0.43479067
45	0xbf1db01b	-0.6159684
46	0x3e9781b6	0.2959115
47	0xbbe881a8	-0.0070955344
48	0xbe9781b4	-0.29591143
49	0x3be881a8	0.0070955344
50	0x3eba21ba	0.36353856
51	0x3f32899b	0.6974122
52	0xbea97752	-0.33098847
53	0x3f35510a	0.7082678
54	0x3eb0f84b	0.34564433
55	0x3fa2211f	1.2666358
56	0xbe911472	-0.2833591
57	0x3fa394ac	1.2779746
58	0x3eb39126	0.35071677
59	0x3fabf03d	1.343269
60	0xbe9dbf44	-0.30809987
61	0x3fad88e8	1.3557405
62	0x3e9fee55	0.3123652
63	0x3fba6020	1.4560585
64	0xbe1a3853	-0.15060548
65	0x3fbb46d6	1.4630992
66	0xbcccfa5a	-0.02502172
67	0xbf8fb900	-1.1228333
68	0x3d4e6d5f	0.050397273
69	0xbf98812c	-1.191442
70	0x3dc697a0	0.09696889
71	0xbf986203	-1.1904911
72	0x3e0bad72	0.13640383
73	0xbf981c52	-1.1883643
74	0xbddba33b	-0.10724493
75	0xbf989fcf	-1.192377
76	0xbe25b3f2	-0.16181925
77	0xbf98a341	-1.1924821
78	0xbe5848c9	-0.21121515
79	0xbf98a565	-1.1925474
80	0x3e43acee	0.19108936
81	0xbf92bbc3	-1.146355
82	0xbe97625b	-0.29567227
83	0xbf943500	-1.1578674
84	0x3d525b8d	0.05135684
85	0xbf851ba3	-1.0399059
86	0xbe023a38	-0.12717521
87	0xbf85b898	-1.0446959
88	0x3ed8b20f	0.42323348
89	0xbf492ab3	-0.7858078
90	0xbf139a6e	-0.57657516
91	0xbf442e0b	-0.76632756
92	0x3f5c7691	0.8611842
93	0xbe73f41b	-0.23823588
94	0xbf51cacd	-0.81950074
95	0xbe2a75ca	-0.16646495
96	0x3f0ea215	0.5571607
97	0xbefb9701	-0.49138644
98	0xbf108805	-0.5645755
99	0xbef757f6	-0.48309296
100	0x3ec632db	0.38710675
101	0xbf0e3f98	-0.55565786
102	0xbecbe4e6	-0.39823073
103	0xbf0c1742	-0.5472299
104	0x3ecdda70	0.40205717
105	0xbf277c8c	-0.6542442
106	0xbec743c8	-0.389189
107	0xbf225f1b	-0.6342637
108	0x3ed4401f	0.4145517
109	0xbf22fb86	-0.63665044
110	0xbecbc6fa	-0.39800245
111	0xbf1e48b9	-0.61829716
112	0x3e986671	0.29765657
113	0xbbd6e8e8	-0.0065585263
114	0xbe986674	-0.29765666
115	0x3bd6e764	0.0065583456
116	0x3eba60e1	0.36402038
117	0x3f33756c	0.70101047
118	0xbeac6458	-0.33670306
119	0x3f37164d	0.71518403
120	0x3eb3615f	0.35035226
121	0x3fa28f11	1.269991
122	0xbe927fe1	-0.2861319
123	0x3fa41e94	1.2821832
124	0x3eb7b646	0.3588125
125	0x3fac65bf	1.346855
126	0xbe9d938b	-0.3077663
127	0x3fadfc07	1.3592538
128	0x3e9ce9f6	0.30647248
129	0x3fbb089b	1.4612001
130	0xbe2243ff	-0.15846251
131	0x3fbc56f2	1.4714034
132	0xbd02c07f	-0.03192186
133	0xbf8f5b3d	-1.1199719
134	0x3d2a6c93	0.04160745
135	0xbf981bf1	-1.1883527
136	0x3db4caa6	0.088277146
137	0xbf980143	-1.1875385
138	0x3e030428	0.12794554
139	0xbf97c45b	-1.1856798
140	0xbdecc359	-0.11560697
141	0xbf982d5c	-1.1888843
142	0xbe2ce677	-0.1688479
143	0xbf982f09	-1.1889354
144	0xbe5f3599	-0.2179779
145	0xbf9831b4	-1.1890168
146	0x3e3a7ade	0.18210933
147	0xbf928277	-1.1446065
148	0xbe997966	-0.29975432
149	0xbf93cd3b	-1.1547006
150	0x3d377fd8	0.044799656
151	0xbf84e3d7	-1.0382031
152	0xbe08a0f0	-0.13342643
153	0xbf85645f	-1.0421256
154	0x3ed8618b	0.4226192
155	0xbf487f36	-0.7831911
156	0xbf13c284	-0.5771868
157	0xbf437959	-0.76357037
158	0x3f5ab38d	0.8543022
159	0xbe720a54	-0.23636752
160	0xbf535aa3	-0.82560176
161	0xbe28f8ff	-0.16501234
162	0x3f0c38fa	0.5477444
163	0xbef7e283	-0.48415002
164	0xbf0ea57f	-0.55721277
165	0xbef62cd8	-0.48081088
166	0x3ec38b64	0.38192284
167	0xbf0d0cce	-0.55097663
168	0xbec89452	-0.3917566
169	0xbf0b7eff	-0.54490656
170	0x3eca48e6	0.39508742
171	0xbf2548c5	-0.6456416
172	0xbec6ca05	-0.38826004
173	0xbf21aeca	-0.6315733
174	0x3ed13025	0.40857044
175	0xbf20afdd	-0.62768346
176	0xbecad52a	-0.39615756
177	0xbf1d95e3	-0.61556834
178	0x3e9835bc	0.29728496
179	0xbbccf53a	-0.006254819
180	0xbe9835bb	-0.29728493
181	0x3bccf6bc	0.006254999
182	0x3ebc447f	0.36771008
183	0x3f332ba6	0.6998848
184	0xbeabecad	-0.33579007
185	0x3f372ed8	0.7155585
186	0x3eb9bcc3	0.36276826
187	0x3fa224cc	1.266748
188	0xbe8dc9dd	-0.27693072
189	0x3fa40747	1.2814721
190	0x3ebf0760	0.37310314
191	0x3fabdc8a	1.3426678
192	0xbe965cf0	-0.2936778
193	0x3fadc6df	1.3576316
194	0x3ea0efcf	0.3143296
195	0x3fbab346	1.458596
196	0xbe1eeff5	-0.15521224
197	0x3fbc94b6	1.4732883
198	0xbd00dc46	-0.03146007
199	0xbf8eb487	-1.1148843
200	0x3d2b0dd5	0.041761238
201	0xbf977b3b	-1.1834482
202	0x3db5491c	0.08851835
203	0xbf976130	-1.1826534
204	0x3e0336c8	0.12813866
205	0xbf9726cd	-1.1808716
206	0xbded7d9d	-0.115962245
207	0xbf978a25	-1.1839033
208	0xbe2d86ed	-0.16946001
209	0xbf978bbb	-1.1839517
210	0xbe600308	-0.21876156
211	0xbf978e7e	-1.184036
212	0x3e3ac9cb	0.1824104
213	0xbf91f3e6	-1.1402557
214	0xbe9a282b	-0.3010877
215	0xbf9328a3	-1.1496776
216	0x3d395b17	0.045252886
217	0xbf8438e9	-1.0329868
218	0xbe083ef4	-0.13305265
219	0xbf84b8e1	-1.036892
220	0x3eda67c7	0.426573
221	0xbf47512c	-0.77858233
222	0xbf12bd74	-0.5732033
223	0xbf41eba8	-0.7575021
224	0x3f5882f9	0.8457485
225	0xbe675b87	-0.22593509
226	0xbf552326	-0.8325676
227	0xbe2243c4	-0.15846163
228	0x3f039750	0.5140276
229	0xbef64d78	-0.4810598
230	0xbf0b1012	-0.54321396
231	0xbef2e1d4	-0.47437918
232	0x3eb06b4a	0.34456855
233	0xbf0dfac3	-0.55460757
234	0xbebf43d2	-0.3735643
235	0xbf099624	-0.5374472
236	0x3eb99d52	0.36252838
237	0xbf26982f	-0.65075964
238	0xbebb2c91	-0.3655744
239	0xbf201b70	-0.62541866
240	0x3ec0ec4b	0.37680277
241	0xbf20e97b	-0.6285626
242	0xbec23757	-0.37932846
243	0xbf1c06fe	-0.6094817
244	0x3e98be4e	0.2983269
245	0xbb44f8f8	-0.0030055624
246	0xbe98be4b	-0.29832682
247	0x3b44f8f8	0.0030055624
248	0x3eb5e393	0.35525188
249	0x3f34ddd0	0.7065096
250	0xbeb1db43	-0.34737596
251	0x3f383c88	0.71967363
252	0x3eb0ee36	0.3455674
253	0x3fa3055f	1.2736014
254	0xbe9540ae	-0.2915091
255	0x3fa4ca79	1.287429
