aiModel/models/ai_charades_tcn2.pt (torch, 503704 bytes, 6 tensors)

net.0.weight f4 [128, 66, 5]
0	0x3e23d336	0.1599854
1	0x3d5f992c	0.054589435
2	0x3e087fc0	0.13329983
3	0x3d7b8548	0.061406404
4	0x3d2a517c	0.041581616
5	0x3d74ffc9	0.05981425
6	0x3ca8a604	0.020586975
7	0x3d724c0f	0.059154566
8	0x3d81f607	0.06345754
9	0xbcc9b9ff	-0.024624823
10	0x3e49230f	0.1964228
11	0x3d2977c7	0.041373994
12	0x3e483b96	0.1955398
13	0x3cf1da5f	0.029523073
14	0x3db0b209	0.086277075
15	0x3cdcd4b2	0.02695689
16	0x3d5c42f6	0.053774796
17	0x3c4516ef	0.012029394
18	0xbcb6e55c	-0.022326164
19	0x3ca9810e	0.02069142
20	0x3e0285a9	0.127463
21	0x3c8fed2c	0.017569147
22	0x3dfee7a9	0.124465294
23	0x3d2b62f0	0.0418424
24	0xbb82da47	-0.003993306
25	0x3c2aa793	0.010415929
26	0x3cbba2bf	0.022904752
27	0xbc329871	-0.010900603
28	0x3b5fef26	0.0034169643
29	0xbd6cfb0a	-0.057856597
30	0x3e67b637	0.22628103
31	0xbb3f2787	-0.0029167847
32	0x3e47bb5b	0.19505064
33	0x3c37e7ff	0.011224746
34	0x3c108248	0.008820124
35	0x3d9f3346	0.077734515
36	0x3d000117	0.03125104
37	0x3d31351f	0.04326355
38	0xbc339b1c	-0.010962274
39	0xbd2e9e1c	-0.042631254
40	0x3d939dc4	0.07207826
41	0xbd8309c8	-0.0639835
42	0x3ddacaad	0.106831886
43	0x3c23085e	0.009950725
44	0x3d2f5dbe	0.04281401
45	0x3ca6f635	0.020381073
46	0x3d86998a	0.06572254
47	0x3cf8552e	0.030314054
48	0x3d011505	0.031514186
49	0xbcadbb63	-0.021207517
50	0x3cdd0cc1	0.02698362
51	0xbd39610e	-0.045258574
52	0x3d724d11	0.059155528
53	0x3ccfe88c	0.025379442
54	0x3d0858ca	0.0332878
55	0x3dc8b38b	0.0979987
56	0x3db63515	0.08896843
57	0x3d7b4e5e	0.061354034
58	0x3dafd9bf	0.08586454
59	0xbc06486f	-0.00819598
60	0xbc04e7a8	-0.008111872
61	0xbe2dbda8	-0.1696688
62	0x3d2a854c	0.041631028
63	0xbdd4987b	-0.10380646
64	0xbcba80bb	-0.022766462
65	0x3ced5b0b	0.028974077
66	0x3da42e5e	0.08016656
67	0x3b3b15d1	0.002854694
68	0xbca4fd38	-0.020140275
69	0xbd455ae1	-0.048182372
70	0x3eabc76f	0.33550593
71	0x3e5aba02	0.21360019
72	0x3eb67a99	0.3564041
73	0x3e16f192	0.1474059
74	0x3e2d02ce	0.16895601
75	0x3ca64445	0.020296225
76	0x3d0079a9	0.031366024
77	0x3dac2bf2	0.084068194
78	0x3d8b9b5b	0.06816741
79	0x3d8c3e8e	0.06847869
80	0xbe71f781	-0.23629571
81	0xbec168af	-0.3777518
82	0xbe4d241e	-0.20033309
83	0xbec50846	-0.38482875
84	0xbe956397	-0.29177544
85	0x3cc7bf50	0.024383217
86	0x3d6bab6f	0.05753654
87	0xbd09baed	-0.033625532
88	0xbd3b99db	-0.045801025
89	0xbca90207	-0.02063085
90	0x3e5f3124	0.2179609
91	0x3dbc6d38	0.09200519
92	0x3e87bd21	0.2651148
93	0x3e0ab975	0.13547309
94	0x3db735c9	0.089458056
95	0x3d6adc49	0.057338987
96	0x3e09930e	0.13435003
97	0x3d881d3b	0.066462
98	0x3d3999b2	0.04531259
99	0x3bd23e29	0.0064161015
100	0xbdc706ff	-0.09718131
101	0xbe3a2909	-0.18179716
102	0xbd98dbf5	-0.074638285
103	0xbe7ea08c	-0.24865931
104	0xbe26e203	-0.16297154
105	0x3d280628	0.041021496
106	0x3d1a0fcc	0.03761272
107	0x3d0d91eb	0.034562986
108	0xbb696a55	-0.0035616357
109	0xbc2eb108	-0.010662325
110	0x3ca54363	0.020173734
111	0xbdb816d0	-0.08988726
112	0xbc7edbf7	-0.015555373
113	0xbe3ce49d	-0.18446584
114	0xbe385e75	-0.18004782
115	0x3d451db3	0.048124027
116	0x3d9102e8	0.070806324
117	0xbc335353	-0.010945159
118	0xbc415e95	-0.011802335
119	0xbd0ce598	-0.034398645
120	0xbccc1018	-0.024910018
121	0xbe0f6414	-0.1400302
122	0xbd540df8	-0.051771134
123	0xbe2b3c27	-0.16722165
124	0xbe168665	-0.14699705
125	0x3d479373	0.048724603
126	0x3d680314	0.05664356
127	0x3c14405d	0.0090485485
128	0x3d9b0764	0.07569769
129	0x3c496bcb	0.012293766
130	0x3cd4891b	0.025944283
131	0xbd5deaf9	-0.054179166
132	0xbd99be79	-0.07507033
133	0xbdddd36c	-0.10831341
134	0xbe341510	-0.1758616
135	0xbe167c2f	-0.1469581
136	0xbe3469b5	-0.17618449
137	0xbe5c1e50	-0.21495938
138	0xbe26bd47	-0.16283141
139	0xbe5202e9	-0.20508923
140	0x3e4f3fdb	0.20239203
141	0x3dac9f6e	0.08428846
142	0x3e6d1d06	0.23155603
143	0x3dadea86	0.084919974
144	0x3e022c12	0.12712124
145	0xbdb0686f	-0.08613669
146	0xbd952040	-0.07281542
147	0xbdca7a17	-0.09886568
148	0xbe0e6598	-0.13905942
149	0xbe8960f0	-0.2683177
150	0xbda7fea0	-0.08202863
151	0xbe469e65	-0.1939636
152	0xbdc4a907	-0.09602552
153	0xbe9c2b36	-0.30501717
154	0xbe625a07	-0.22104655
155	0xbdda2a44	-0.10652593
156	0xbd59e63a	-0.053198077
157	0xbda8e55e	-0.08246873
158	0xbdbced14	-0.092249066
159	0xbe0eb8a5	-0.13937624
160	0x3e828471	0.2549167
161	0x3df2c606	0.11854176
162	0x3e4d6232	0.2005699
163	0x3d163972	0.036675878
164	0x3e0db784	0.13839537
165	0xbe2dcb76	-0.16972145
166	0xbe385cd4	-0.18004161
167	0xbe0b12f6	-0.13581452
168	0xbe38db00	-0.18052292
169	0xbe6e8fe4	-0.23297077
170	0x3d0430c3	0.032273065
171	0xbd25b876	-0.04045912
172	0x3dd5466c	0.104138225
173	0xbe058034	-0.13037187
174	0xbe13c511	-0.14430644
175	0x3e92556a	0.2858079
176	0x3e8df41b	0.277253
177	0x3eaabbfe	0.33346552
178	0x3ebd46ea	0.36968166
179	0x3e8d7672	0.2762943
180	0x3d7c63fa	0.061618783
181	0xbc11530a	-0.008869896
182	0x3dc1e979	0.094683595
183	0xbd8065ed	-0.06269441
184	0x3c8d9669	0.017283635
185	0xbec9c23f	-0.3940601
186	0xbecb34d8	-0.39688754
187	0xbeda9260	-0.426898
188	0xbeda9174	-0.42689097
189	0xbed9ac49	-0.42514256
190	0x3d206d29	0.039166603
191	0xbda97ef6	-0.08276169
192	0x3dac99c2	0.084277645
193	0xbde1ab0b	-0.11018952
194	0xbe33f1fe	-0.17572781
195	0x3ed9e0a2	0.42554194
196	0x3ee7c450	0.45266962
197	0x3eeaf8a7	0.45892832
198	0x3ef8bdcc	0.48582304
199	0x3eeeac53	0.46615848
200	0xbcaa9be1	-0.020826282
201	0xbdbd86da	-0.092542365
202	0x3db96999	0.09053344
203	0xbd4daa75	-0.05021139
204	0xbd411865	-0.047142405
205	0xbec609c0	-0.38679314
206	0xbec9be59	-0.39403036
207	0xbed3b4ca	-0.4134887
208	0xbec5488b	-0.38531908
209	0xbeb8595e	-0.36005682
210	0x3d890e57	0.06692188
211	0xbd5c036f	-0.053714212
212	0xbc96399e	-0.01833802
213	0xbe650195	-0.22363885
214	0xbe5912ef	-0.21198629
215	0x3eff7b55	0.49898782
216	0x3ef1d308	0.47231317
217	0x3ee54fbf	0.44787404
218	0x3eecee83	0.4627572
219	0x3ec97365	0.39345852
220	0x3cfc6125	0.03080804
221	0x3c15e4fc	0.009148832
222	0x3d7b382a	0.06133286
223	0xbd59dcf6	-0.05318924
224	0xbd634199	-0.05548248
225	0xbe95201e	-0.29126066
226	0xbe91daf5	-0.28487363
227	0xbe9f5c7b	-0.31125244
228	0xbebe6b23	-0.37191114
229	0xbece2cd3	-0.40268573
230	0x3e8412aa	0.2579549
231	0x3eb325ab	0.34989676
232	0x3eadc229	0.33937195
233	0x3eb21236	0.3477952
234	0x3ea987a7	0.33111307
235	0xbcccaa7d	-0.024983639
236	0xbc94182b	-0.01807793
237	0x3bf178ba	0.007369128
238	0x3da2ef21	0.079557665
239	0x3e3b80fb	0.18310921
240	0xbe8124ac	-0.2522329
241	0xbea00e21	-0.3126078
242	0xbea07202	-0.3133698
243	0xbea97b3c	-0.33101833
244	0xbea5c47e	-0.32376474
245	0x3ecac3a7	0.39602396
246	0x3eae5c41	0.3405476
247	0x3ec3bd07	0.38230154
248	0x3e8e8ea6	0.27843207
249	0x3e9cffdf	0.30663964
250	0x3c8dab85	0.017293701
251	0xbbc6cc4c	-0.0060668346
252	0x3d5fc94d	0.054635335
253	0x3d1bb436	0.03801366
254	0x3d191a89	0.03737882
255	0xbdf848a8	-0.12123233

net.0.bias f4 [128]
0	0xbb375f17	-0.0027980262
1	0xbe0344e2	-0.12819245
2	0x3e0d7a52	0.13816193
3	0x3d8d969c	0.06913492
4	0xbd74a6b9	-0.05972931
5	0xbe838c89	-0.25693157
6	0xbec4bf3f	-0.3842716
7	0x3e261ebb	0.1622266
8	0xbe1c1ff5	-0.15246566
9	0xbeaa6972	-0.33283573
10	0xbe55bf1d	-0.20873685
11	0x3dc9d6ff	0.098554604
12	0xbd13b002	-0.036056526
13	0x3d8a4bc8	0.067527354
14	0x3d00a7ac	0.031409904
15	0xbba94451	-0.0051656147
16	0xbe747cdc	-0.23875755
17	0xbc634b2c	-0.013872903
18	0xbe481a0e	-0.19541189
19	0xbd104260	-0.03521955
20	0x3ddb4bcd	0.10707817
21	0xbedae401	-0.42752078
22	0x3da1a635	0.078930296
23	0xbeaaecd9	-0.33383825
24	0xbdb6d2dd	-0.08926938
25	0x3d53b4fd	0.051686276
26	0xbbd9cffc	-0.006647108
27	0x3e0bbea6	0.13646945
28	0xbc682440	-0.014168799
29	0x3f059b82	0.5219041
30	0xbf1d61ef	-0.6147756
31	0x3df8b10f	0.12143146
32	0x3d03e06d	0.03219645
33	0x3c53d91e	0.012930183
34	0xbaea87a7	-0.0017893211
35	0xbe9a653e	-0.30155367
36	0xbe5470f1	-0.20746209
37	0xbe04dd35	-0.12975009
38	0xbc9145f8	-0.017733559
39	0xbf1c16a3	-0.6097204
40	0x3e5729be	0.21012017
41	0xbe1370d5	-0.14398511
42	0xbea01aa8	-0.31270337
43	0xbeadddae	-0.3395819
44	0xbe044e26	-0.12920436
45	0xbd67941e	-0.05653774
46	0xbe57bbb5	-0.21067698
47	0x3e173774	0.14767247
48	0x3df54251	0.119755395
49	0xbd53b727	-0.05168834
50	0xbecb658d	-0.39725915
51	0xbe3d82f5	-0.18506987
52	0x3e0bd029	0.13653626
53	0xbcc59855	-0.02412049
54	0xbd94f816	-0.07273881
55	0xbf03a43f	-0.51422495
56	0xbf18fc69	-0.5976015
57	0xbe9f6535	-0.31131902
58	0x3d82123b	0.063511334
59	0xbe0d34b9	-0.13789643
60	0x3d865dcf	0.06560861
61	0x3e021c6b	0.12706153
62	0xbd880244	-0.06641057
63	0xbe96f6ba	-0.29485112
64	0xbe67c384	-0.22633177
65	0x3dcad4aa	0.09903844
66	0x3daf5889	0.085618086
67	0xbcdf817c	-0.027283423
68	0x3da20fa3	0.07913139
69	0x3dd44f99	0.103667445
70	0x3e4cbbec	0.19993562
71	0x3e1221aa	0.14270654
72	0xbe15b045	-0.14618023
73	0xbe3d44bf	-0.18483256
74	0xbedb3266	-0.42811888
75	0xbcacad2b	-0.021078667
76	0x3d520f95	0.05128439
77	0x3d1b8ec7	0.03797796
78	0xbb1bad13	-0.0023754283
79	0xbbde8b6e	-0.0067915237
80	0x3d0fc9df	0.03510463
81	0xbeb21d3a	-0.34787923
82	0xbbb0dd3c	-0.005397467
83	0xbed15084	-0.4088174
84	0xbd97b098	-0.074067295
85	0x3cc731bc	0.024315707
86	0x3eaa2fb2	0.33239514
87	0xbeea6811	-0.4578252
88	0xbca3024f	-0.019898562
89	0xbdeb97b5	-0.11503545
90	0x3e47107f	0.19439887
91	0x3ea7c804	0.32769787
92	0xbe85213d	-0.2600192
93	0x3cf41f1f	0.029799996
94	0xbe734cf9	-0.23759831
95	0xbb368b09	-0.0027853868
96	0xbee8b9da	-0.45454293
97	0x39e48b33	0.0004359126
98	0xbed63b60	-0.41842175
99	0x3c716813	0.014734286
100	0xbd29a6b2	-0.04141874
101	0xbdd52c61	-0.10408855
102	0xbd6e0907	-0.058114078
103	0xbeb35ba4	-0.35030854
104	0xbdb45f87	-0.08807283
105	0xbe239e3c	-0.1597833
106	0x3c51f820	0.012815505
107	0xbe5b9016	-0.21441683
108	0xbda1df0e	-0.079038724
109	0xbb350bd1	-0.0027625451
110	0xbc18a77e	-0.009317277
111	0xbf248ac9	-0.6427427
112	0xbe080a9e	-0.132853
113	0xbc5679a7	-0.013090528
114	0x3c787094	0.0151635595
115	0xbc79e0fc	-0.015251394
116	0x3df76f50	0.12081778
117	0x3e9c0145	0.3046972
118	0xbe539200	-0.20661163
119	0x3df26813	0.11836257
120	0xbf1cd2e0	-0.6125927
121	0xbe4bfc84	-0.19920546
122	0xbd22a937	-0.039712157
123	0x3e0496fa	0.12948218
124	0xbd04ac76	-0.032391034
125	0xbebd351e	-0.36954588
126	0xbf420174	-0.7578347
127	0xbe99e8a9	-0.30060318

net.2.weight f4 [128, 128, 5]
0	0x3dfa9ddc	0.122371405
1	0x3e13d407	0.14436351
2	0x3e03ea03	0.12882237
3	0x3dbd0592	0.09229578
4	0x3dc4cb37	0.09609073
5	0x3d4894e8	0.048970133
6	0x3e1d5da4	0.15367752
7	0x3d8e02b5	0.0693411
8	0x3ce8ac79	0.028402554
9	0x3e583d8a	0.21117225
10	0xbdd54222	-0.104130045
11	0xbc4c7468	-0.012478925
12	0xbb69ba51	-0.0035664032
13	0xbc8defbb	-0.017326226
14	0x3daba7c0	0.08381605
15	0x3d437695	0.04772051
16	0x3d6237c8	0.05522898
17	0x3d81b133	0.06332626
18	0x3dd2c27b	0.102910005
19	0x3e190476	0.14943108
20	0xbe5e4a9f	-0.21708153
21	0xbdc74a48	-0.09730965
22	0xbe4429df	-0.19156598
23	0xbe95f06e	-0.29284996
24	0xbe812b6b	-0.25228438
25	0x3dc6fd1e	0.09716247
26	0x3e29a5eb	0.16567199
27	0x3e109d3c	0.1412248
28	0x3e5abd29	0.21361221
29	0x3e435b7c	0.19077867
30	0xbd85c67a	-0.06531997
31	0x3ca518c4	0.02015341
32	0xbb6ae483	-0.003584177
33	0x3c667c01	0.014067651
34	0xbc71aa86	-0.014750129
35	0x3d87156b	0.06595882
36	0x3e34248c	0.17592067
37	0x3e547861	0.20749046
38	0x3e506c7e	0.20353886
39	0x3e573144	0.21014887
40	0x3e1b8ec3	0.15191178
41	0x3e3af6ce	0.18258211
42	0x3e00ceaa	0.12578836
43	0x3e51e884	0.20498854
44	0x3de58316	0.11206643
45	0x3d3f6cca	0.04673461
46	0x3d411c3d	0.04714607
47	0x3cb2bb39	0.02181779
48	0x3b442d45	0.002993421
49	0x3d2807b1	0.04102296
50	0x39584136	0.00020623658
51	0x3ddb9eb0	0.107236266
52	0x3d523c4a	0.051327027
53	0xbd31c226	-0.043398045
54	0xbde17a8f	-0.11009704
55	0x3e3283b4	0.17433053
56	0x3e4ae96e	0.19815609
57	0x3e6be2ad	0.23035689
58	0x3d8d6b1d	0.06905196
59	0x3dd0fdbb	0.10204645
60	0xbe89b655	-0.2689692
61	0xbe91aeb1	-0.2845359
62	0xbe8e76d7	-0.27825043
63	0xbe8742f2	-0.26418263
64	0xbe5758b0	-0.21029925
65	0x3d957c47	0.07299095
66	0x3e21c390	0.15797257
67	0x3e1c9bb0	0.15293765
68	0x3dfbd028	0.12295562
69	0x3e13f6cb	0.14449613
70	0xbed70ebb	-0.42003426
71	0x3e278d5c	0.16362518
72	0x3e2121af	0.15735506
73	0x3e00c0d0	0.12573552
74	0x3efa5c73	0.48898658
75	0xbee842ef	-0.45363566
76	0xbea73e7c	-0.3266486
77	0xbead17b2	-0.3380714
78	0xbe764354	-0.24049121
79	0xbc060647	-0.008180208
80	0xbe1bc121	-0.15210392
81	0xbd70101b	-0.05860911
82	0xbd85f45b	-0.06540748
83	0xbd8be784	-0.068312675
84	0xbd24768f	-0.04015213
85	0x3c6ea430	0.014565513
86	0xbca87ca3	-0.020567244
87	0x3c810209	0.01574804
88	0xbd3ab1a9	-0.045579586
89	0xbbd33502	-0.006445528
90	0x3e663880	0.2248249
91	0x3e830e96	0.25597066
92	0x3e375622	0.17903951
93	0x3e0ba7fd	0.13638301
94	0x3e669f3e	0.22521684
95	0xbe72101b	-0.23638956
96	0xbdd6b77e	-0.10484217
97	0xbd6d8d5f	-0.05799615
98	0xbc1b2402	-0.009469034
99	0x3e150f05	0.14556511
100	0x3e0d098a	0.1377317
101	0x3e5bfce0	0.21483183
102	0x3e8c424c	0.2739433
103	0x3e599590	0.2124846
104	0x3e97bf64	0.29638207
105	0xbe6ed8c0	-0.23324871
106	0xbe549699	-0.20760573
107	0xbe8759c3	-0.2643567
108	0xbe7dfac3	-0.24802689
109	0xbe3bb971	-0.18332459
110	0x3dca90e2	0.098909155
111	0x3e595d16	0.21226916
112	0x3e4c1cc5	0.1993285
113	0x3e144ef8	0.14483249
114	0x3de1a299	0.11017341
115	0xbe6c1bc9	-0.23057474
116	0xbdae3f87	-0.08508211
117	0xbdb0ce54	-0.08633104
118	0xbe164d89	-0.14678015
119	0xbe204d53	-0.15654497
120	0xbda26767	-0.07929879
121	0xbb15d361	-0.0022861587
122	0x3ddccdde	0.107814535
123	0x3d602edb	0.054732185
124	0x3e57e36c	0.21082848
125	0x3d2d338a	0.04228548
126	0x3e0c9a28	0.13730681
127	0x3de1dbac	0.11028227
128	0xbc61a633	-0.013772535
129	0x3e6e995e	0.23300692
130	0x3d81917e	0.063265786
131	0x3d4de42d	0.050266434
132	0x3de6852c	0.11255869
133	0x3d11c94a	0.035592355
134	0x3d3ac973	0.045602273
135	0x3db8cee4	0.09023836
136	0x3dc0c271	0.09412087
137	0x3d842881	0.06453038
138	0x3dcc9acc	0.09990463
139	0x3e1e8811	0.15481593
140	0x3d97aa66	0.07405548
141	0x3d702f0c	0.058638617
142	0x3de5dea2	0.112241045
143	0x3e0733dd	0.13203378
144	0x3e1710e9	0.14752544
145	0xbc05833a	-0.008148963
146	0xbc6e036f	-0.014527186
147	0xbb7893ae	-0.003792982
148	0x3ced0790	0.02893427
149	0x3cb99ba2	0.02265722
150	0x3d58443f	0.05279946
151	0x3dad2f08	0.08456236
152	0x3e486ad5	0.19572003
153	0x3e7aa381	0.24476434
154	0x3e819a99	0.2531326
155	0xbd89b5e1	-0.06724144
156	0xbd9f3738	-0.07774204
157	0xbd0de049	-0.034637723
158	0xbd8ff96e	-0.07029997
159	0x3d782f3e	0.06059193
160	0x3e5d6591	0.21620776
161	0x3e673bad	0.22581358
162	0x3e590a26	0.21195278
163	0xbd057c36	-0.03258916
164	0x3e32eb67	0.17472611
165	0xbd1098b8	-0.035301894
166	0xbd271e20	-0.040800214
167	0xbbad9a41	-0.0052979295
168	0xbda4c091	-0.080445416
169	0xbd3959df	-0.045251723
170	0x3e2ab348	0.16669953
171	0x3e98f313	0.2987295
172	0x3e953cca	0.2914794
173	0x3e40b269	0.18818058
174	0x3e308893	0.17239599
175	0xbead03cf	-0.33791968
176	0xbe9da556	-0.30790204
177	0xbebb8599	-0.36625364
178	0xbed9d3ce	-0.42544407
179	0x3c43500a	0.011920938
180	0xbe8423e1	-0.25808623
181	0xbe9cad8c	-0.30601156
182	0xbe87440c	-0.26419103
183	0xbea3e473	-0.3201023
184	0xbea04194	-0.31300032
185	0xbdff0093	-0.124512814
186	0xbd90b5d8	-0.07065934
187	0xbd0eb249	-0.034837995
188	0xbd8e274c	-0.06941089
189	0xbd7712df	-0.06032073
190	0xbe88b905	-0.2670366
191	0xbdb93b19	-0.09044475
192	0xbe340829	-0.17581238
193	0xbe95dd76	-0.29270524
194	0xbeccd437	-0.40005657
195	0x3d0c1ef2	0.0342092
196	0xbd1bf265	-0.038072962
197	0xbdcc32ec	-0.0997065
198	0xbdc235af	-0.094828956
199	0x3da19c0e	0.07891093
200	0x3da2bcef	0.079461925
201	0x3e177d30	0.14793849
202	0x3e86bdb7	0.26316616
203	0x3e3d28e6	0.18472633
204	0x3eaa9d63	0.33323202
205	0x3e8da115	0.27661958
206	0x3e462472	0.1934984
207	0x3e31daa8	0.17368567
208	0x3da4b682	0.08042623
209	0x3e5108cb	0.2041351
210	0x3ac8e4e6	0.0015327006
211	0x3df1eb33	0.11812439
212	0x3dcea163	0.10089376
213	0xbc71fd78	-0.014769904
214	0xbd7de5dc	-0.06198679
215	0xbe14faf6	-0.14548859
216	0xbe343d8a	-0.176016
217	0xbe650cba	-0.22368136
218	0xbe2ff982	-0.17185023
219	0xbd92b82a	-0.07164033
220	0x3d533626	0.05156531
221	0x3d2d116f	0.042252954
222	0x3d9f486d	0.07777486
223	0x3e049895	0.1294883
224	0x3e2a10a0	0.16607904
225	0xbd1cb33a	-0.03825686
226	0xbd559e25	-0.05215277
227	0x3d9509fe	0.072772965
228	0x3ce487b5	0.027896741
229	0x3e322c26	0.17399654
230	0x3db9e68c	0.090771765
231	0x3dfb948a	0.12284191
232	0x3e09741a	0.13423195
233	0x3dfc30b1	0.12313975
234	0x3e117663	0.14205317
235	0x3e14eb5f	0.14542912
236	0x3e0da922	0.1383405
237	0x3e0c70a4	0.13714844
238	0x3d9da72c	0.07697901
239	0x3e7354b0	0.23762774
240	0x3e452509	0.19252409
241	0x3e5dff94	0.21679527
242	0x3e6011fe	0.21881863
243	0x3e77e409	0.24208082
244	0x3ead86cc	0.33891904
245	0xbec0aee5	-0.37633434
246	0xbe45c47b	-0.19313233
247	0xbeac087b	-0.3360022
248	0xbef77663	-0.4833251
249	0xbd908d31	-0.0705818
250	0x3d24a5b5	0.040197093
251	0x3ca84bd0	0.020543963
252	0x3d00de18	0.031461805
253	0x3d36e132	0.044648357
254	0x3e0b42e0	0.1359973
255	0xbe00b179	-0.125677

net.2.bias f4 [128]
0	0x3e7b36b7	0.24532591
1	0xbdc91067	-0.098175816
2	0xbf279b89	-0.654717
3	0xbe9bfbbc	-0.30465496
4	0x3ed1df26	0.4099056
5	0xbd29fb89	-0.04149965
6	0x3c6ede33	0.014579344
7	0xbd5e60ef	-0.05429166
8	0x3e9e44b4	0.3091179
9	0xbe9368c0	-0.28790855
10	0xbf0f3341	-0.5593758
11	0xbe188353	-0.14893846
12	0x3e297782	0.16549495
13	0x3d2d596a	0.0423216
14	0x3cc5d6e4	0.02415032
15	0xbac7dbe0	-0.0015248023
16	0xbbc55254	-0.006021777
17	0x3d833e1a	0.06408329
18	0x3e29f75b	0.16598265
19	0x3d9f84cf	0.07789003
20	0x3e08193c	0.13290876
21	0x3cab138b	0.020883342
22	0xbe0752e8	-0.1321522
23	0x3e9f6ca5	0.31137577
24	0xbeaca886	-0.33722323
25	0x3ec6c8bd	0.38825026
26	0x3e97501e	0.29553312
27	0x3e06cef9	0.13164891
28	0x3d9ff163	0.07809713
29	0xbe1dba96	-0.15403208
30	0x3e5aaa3c	0.21354002
31	0xbcced791	-0.025249274
32	0x3e73aefb	0.23797219
33	0x3c88b7fd	0.016689295
34	0x3de2e2f3	0.110784434
35	0xbb02008e	-0.0019836756
36	0xbd877355	-0.06613795
37	0xbd8cf24b	-0.06882151
38	0x3daa95e7	0.08329373
39	0xbe7e38f1	-0.24826409
40	0x3ded9c16	0.11602037
41	0x3cf1404c	0.029449604
42	0x3e74aaf2	0.23893335
43	0x3ebb52b3	0.36586532
44	0xbdfe405a	-0.12414618
45	0x3f2a1568	0.66438913
46	0x3cfa7024	0.030571051
47	0x3d33ec60	0.043926597
48	0x3d90cc32	0.07070197
49	0xbd8a8d6e	-0.06765257
50	0x3e3e6abe	0.18595406
51	0xbebba1f8	-0.3664701
52	0x3dc0578f	0.093917005
53	0x3dada171	0.08478058
54	0x3dafcbee	0.085838184
55	0xbcf561ff	-0.029953955
56	0xbc871039	-0.016487228
57	0xbee2a61c	-0.44267356
58	0x3dd954bf	0.10611867
59	0x3e3f60fb	0.18689339
60	0xbd12b1de	-0.03581416
61	0x3e7361eb	0.23767821
62	0xbe866749	-0.26250675
63	0xbd6611cf	-0.056169327
64	0xbe4e0087	-0.20117389
65	0x3e970bf2	0.295013
66	0x3deb8ffd	0.11502073
67	0x3e571f11	0.21007945
68	0xbf2a317e	-0.6648177
69	0xbeb760f5	-0.3581616
70	0x3e9231cd	0.2855362
71	0x3e790d5b	0.24321501
72	0x3e925ee6	0.28588027
73	0x3e5ae34d	0.21375771
74	0x3cd4c91a	0.025974799
75	0x3d822cb4	0.06356183
76	0x3cef2b7a	0.029195536
77	0x3f027b8e	0.5096978
78	0xbc6d013f	-0.014465629
79	0x3d6a4065	0.057190318
80	0xbe8f3826	-0.27972525
81	0xbe689166	-0.22711715
82	0x3e6d9889	0.23202719
83	0xbd67e6aa	-0.056616463
84	0x3def46be	0.11683415
85	0x3df1adf1	0.11800755
86	0xbd59bb9f	-0.053157445
87	0xbd84b6f3	-0.06480207
88	0xbb6d3357	-0.003619393
89	0x3edd895a	0.43268853
90	0x3e184c0f	0.14872764
91	0xbb9da31b	-0.0048107035
92	0x3e354357	0.1770147
93	0x3e054398	0.13014066
94	0x3e57fea0	0.21093225
95	0x3e7494cf	0.23884891
96	0x3e5ece89	0.21758474
97	0x3ee2b141	0.4427586
98	0x3deb48d3	0.114884995
99	0x3cea87d0	0.028629214
100	0x3ee30937	0.44342968
101	0xbeb7c4aa	-0.3589223
102	0x3ee4648b	0.44607958
103	0x3ce82a38	0.028340444
104	0x3e229e62	0.15880731
105	0x3d884a4a	0.066547945
106	0xbeb409f6	-0.3516385
107	0x3e48591f	0.19565247
108	0xbd26e23d	-0.0407431
109	0xbb7b8613	-0.0038379475
110	0x3e5d7d33	0.21629791
111	0x3d95762d	0.07297931
112	0x3c9a06ab	0.018802008
113	0x3e846d9e	0.2586488
114	0x3f170d2d	0.5900448
115	0x3de8b8e9	0.11363394
116	0xbd6fe13e	-0.058564417
117	0xbec527ee	-0.38507026
118	0x3e24beb3	0.16088371
119	0xbeebc6f2	-0.4605022
120	0x3ca39297	0.01996736
121	0xbd266ed3	-0.040633034
122	0xbe0e8e0b	-0.13921373
123	0xbe06de30	-0.13170695
124	0x3ebb02d2	0.3652559
125	0x3d9b3365	0.07578162
126	0xbe2ea170	-0.17053771
127	0xbdf58b7f	-0.119894974

fc.weight f4 [6, 128]
0	0xbe383041	-0.17987157
1	0x3e025048	0.12725937
2	0xbec04d33	-0.37558898
3	0x3e9d6360	0.3073988
4	0xbee91aa6	-0.45528144
5	0x3b9e3f20	0.0048293024
6	0xbdb0359b	-0.086039744
7	0x3d3a38a4	0.045464173
8	0xbe89b4f6	-0.26895875
9	0x3df6bc5e	0.12047647
10	0x3bfaa9a2	0.0076496163
11	0xbcc7991c	-0.024365
12	0xbddeeba8	-0.108847916
13	0xbd8e17cb	-0.06938132
14	0xbef454c2	-0.47720915
15	0x3e4dd4ae	0.20100662
16	0xbcf46894	-0.029835023
17	0x3e8ff041	0.28112987
18	0xbf1d9d4d	-0.61568147
19	0x3c541447	0.012944288
20	0x3df5adda	0.1199605
21	0x3b3b925a	0.0028621168
22	0x3e66e2d3	0.22547464
23	0xbe236e8e	-0.15960142
24	0x3eac4a23	0.33650312
25	0xbf22b94f	-0.6356401
26	0x3d8e45a5	0.069468774
27	0x3e835564	0.25651085
28	0xbdc9bf5b	-0.09850951
29	0x3e35c396	0.17750391
30	0xbc469222	-0.012119802
31	0xbdf3db1b	-0.119070254
32	0xbe721c64	-0.23643643
33	0x39d1bf04	0.00040005904
34	0x3e542742	0.207181
35	0x3daaf875	0.08348171
36	0xbc10ec28	-0.008845367
37	0x3d99cc11	0.07509626
38	0x3dce1df5	0.100643076
39	0x3cf7aff4	0.030235268
40	0xbee7aea4	-0.45250428
41	0x3dc78916	0.09742944
42	0xbed0b3ca	-0.40762168
43	0x3d92e870	0.0717324
44	0xbee47422	-0.44619852
45	0x3ecf48fb	0.40485367
46	0xbe1cc1b6	-0.1530827
47	0xbf010679	-0.504005
48	0x3e0eecb9	0.1395749
49	0x3d75b15a	0.05998359
50	0x3efbe630	0.49199057
51	0xbef5af9e	-0.47985548
52	0x3ce617e7	0.02808757
53	0xbdab9a00	-0.083789825
54	0xbe9997da	-0.29998666
55	0x3defbcad	0.11705909
56	0xbcd0ea6d	-0.025502408
57	0xbe141186	-0.1445981
58	0x3e43f9b4	0.19138223
59	0x3d5383ea	0.051639475
60	0xbd9b7c7a	-0.075921014
61	0xbdbc64db	-0.09198924
62	0x3de189fd	0.11012647
63	0x3be469db	0.006970627
64	0x3d8d2fd7	0.0689389
65	0x3dbab6ba	0.091168836
66	0xba042174	-0.00050403853
67	0xbe8de071	-0.27710298
68	0x3d8fdf8f	0.07025062
69	0x3d6c4dda	0.057691433
70	0xbec63746	-0.38714045
71	0x3da816f4	0.08207503
72	0x3ed982a2	0.42482477
73	0xbd0f66e0	-0.03501022
74	0x3d8ca438	0.0686726
75	0x3db74ee9	0.08950598
76	0x3d56d356	0.05244764
77	0x3e0cdd2d	0.13756247
78	0x3d919dd7	0.07110184
79	0x3e022a03	0.12711339
80	0xbbcf4ad9	-0.006326061
81	0xbe43eee8	-0.19134104
82	0x3d8c92c4	0.06863931
83	0xbf049f7d	-0.5180586
84	0xbd1f21a6	-0.03885045
85	0xbcdf0ee6	-0.027228784
86	0xbd8ba111	-0.0681783
87	0x3ce3c5b4	0.027804233
88	0x3d93cab8	0.072164
89	0x3d6d782e	0.05797594
90	0xbdccb4e3	-0.09995439
91	0x3e0c59e3	0.13706164
92	0x3d185820	0.037193418
93	0xbe1cf377	-0.1532725
94	0xbd9458f6	-0.072435305
95	0xbdea591d	-0.11442778
96	0xbdb25af4	-0.08708754
97	0xbf373fd7	-0.71581787
98	0xbd19dbe0	-0.037563205
99	0x3da66148	0.08124024
100	0x3ceb2484	0.028703935
101	0x3d4be2fd	0.04977702
102	0x3e53780f	0.20651267
103	0x3dbd5d1f	0.09246277
104	0x3cd2af8f	0.025718478
105	0xbd0c733d	-0.034289587
106	0x3e758ea8	0.239802
107	0x3e28b33f	0.16474627
108	0xbcb5d564	-0.02219648
109	0x3c675688	0.014119752
110	0xbdadd446	-0.084877536
111	0x3ea7a36f	0.32741877
112	0x3ee3b9f1	0.444778
113	0x3cea70fc	0.028618328
114	0x3e81b88e	0.25336117
115	0x3e5b71e1	0.2143016
116	0xbe92a7e1	-0.28643706
117	0xbc58f812	-0.013242738
118	0xbee8998a	-0.4542964
119	0x3d92d929	0.07170326
120	0xbe77f14e	-0.24213144
121	0x3e0a53a8	0.13508475
122	0x3da088d9	0.078386016
123	0x3db0e248	0.0863691
124	0xbef01521	-0.4689112
125	0x3e035195	0.1282409
126	0x3d9d69b1	0.07686175
127	0x3e19583d	0.14975066
128	0xbe263d99	-0.16234435
129	0x3c8cd3e0	0.017190874
130	0x3e185326	0.14875469
131	0x3e6f6bca	0.23380962
132	0xbd4e3bf0	-0.05035013
133	0x3d6671bd	0.056260813
134	0x3db77c2a	0.08959229
135	0x3e2792d6	0.16364607
136	0x3d335a59	0.043787334
137	0xbc1557ff	-0.009115218
138	0x3d39f5cd	0.04540043
139	0xbbb281e3	-0.0054476126
140	0xbe37a0bb	-0.17932408
141	0xbe0d4958	-0.1379751
142	0xbe83dd28	-0.25754666
143	0xbd349773	-0.044089746
144	0x3d3977a1	0.045280103
145	0xbd2f9a54	-0.04287179
146	0xbd87ca82	-0.06630422
147	0x3e70f7cb	0.23532026
148	0xbe92f831	-0.2870498
149	0xbe2966bb	-0.16543095
150	0x3d79ebb2	0.061015792
151	0xbf700d2f	-0.93770117
152	0x3ded4863	0.11586072
153	0x3e193762	0.14962533
154	0xbe8485fc	-0.25883472
155	0xbe584670	-0.2112062
156	0xbd303dd8	-0.04302773
157	0x3e2edcbd	0.17076392
158	0x3d3274f0	0.04356855
159	0x3e37e950	0.17960095
160	0xbec6d66f	-0.38835475
161	0x3e4d887e	0.20071599
162	0xbee2efb4	-0.44323504
163	0xbe0797c2	-0.13241485
164	0xbe5d8eee	-0.21636555
165	0xbe61cbeb	-0.22050445
166	0xbe9bf567	-0.30460665
167	0xbe891865	-0.26776424
168	0x3e5ba6b5	0.21450312
169	0xbe646acd	-0.22306366
170	0x3dc8c3b4	0.098029524
171	0xbe550528	-0.20802748
172	0x3e29da94	0.16587287
173	0xbe8d46a4	-0.27592957
174	0x3e45e287	0.19324695
175	0x3e3ac9bb	0.18241017
176	0xbe4a8ee9	-0.19781078
177	0xbd6f3ebb	-0.058409434
178	0xbe979e44	-0.29612935
179	0x3ded54c3	0.11588433
180	0x3d9ee9fb	0.07759472
181	0xbe82e0bc	-0.25562084
182	0xbe6a8dde	-0.2290568
183	0x3cbdcb00	0.023168087
184	0xbe2130eb	-0.15741317
185	0x3e75ecb2	0.24016073
186	0x3eb0283f	0.34405705
187	0xbec31749	-0.38103703
188	0xbc751392	-0.014958279
189	0xbc5db10a	-0.013530979
190	0x3cc2e6d1	0.023791702
191	0x3e20b76d	0.15694971
192	0x3e4ed243	0.20197396
193	0xbeda8759	-0.42681387
194	0xbaf88ef7	-0.0018963505
195	0xbbf11f52	-0.00735847
196	0x3cfb9520	0.030710757
197	0xbdd1bf2f	-0.102415435
198	0x3e1abd9f	0.15111397
199	0xbea26414	-0.3171698
200	0xbe22d0b7	-0.15899931
201	0xbf23869d	-0.6387728
202	0xbd6770c7	-0.056504037
203	0x3ddb7c76	0.107170984
204	0xbeac7946	-0.33686274
205	0xbef76793	-0.48321208
206	0x3baf4f6f	0.0053500454
207	0xbed8ea18	-0.423661
208	0x3e4c443f	0.19947909
209	0x3de4d465	0.111733235
210	0xbe82c177	-0.25538227
211	0xbe3b6652	-0.18300751
212	0xbef89649	-0.48552158
213	0x3e226442	0.15858558
214	0xbcdf3ace	-0.02724972
215	0x3d442336	0.047885142
216	0x3d8cf789	0.06883151
217	0x3d22e42d	0.039768387
218	0x3e89757a	0.2684744
219	0xbedcbee8	-0.431144
220	0xbe7ae3f9	-0.24501027
221	0x3d4b841d	0.04968654
222	0xbf0520e5	-0.5200332
223	0xbd2194f3	-0.03944869
224	0x3e40b016	0.18817171
225	0x3df5d1ba	0.12002893
226	0x3d8da5dd	0.069164015
227	0xbd6005fd	-0.05469321
228	0xbe7d0ef4	-0.24712735
229	0xbdfbed5b	-0.12301131
230	0xbf1da435	-0.61578685
231	0xbe250b67	-0.16117631
232	0xbe686007	-0.22692882
233	0x3ea08be4	0.31356728
234	0xbe358d8a	-0.17729774
235	0xbd304851	-0.043037716
236	0xbd3c56af	-0.045981105
237	0xbd1c194d	-0.038110066
238	0x3e0f0692	0.1396735
239	0xbc25f92e	-0.01013021
240	0xbccb175a	-0.024791408
241	0xbf1f6198	-0.6225829
242	0xbf35e2c9	-0.7104917
243	0xbe811479	-0.25210932
244	0xbeb24650	-0.3481927
245	0x3c5355f1	0.012898908
246	0x3f00f27f	0.5037002
247	0x3dda8883	0.10670569
248	0xbd40625e	-0.04696881
249	0xbe5d8949	-0.21634401
250	0xbddc9678	-0.10770887
251	0x3dcb6c76	0.09932797
252	0x3cad1748	0.021129265
253	0x3e62b9be	0.22141168
254	0x3d31248a	0.043247737
255	0x3dcbe532	0.09955825

fc.bias f4 [6]
0	0xbda446e1	-0.080213316
1	0xbde1f2b1	-0.11032618
2	0x3eaef270	0.3416934
3	0xbe08a651	-0.13344695
4	0xbe4f3972	-0.20236757
5	0x3ea021d8	0.3127582
