aiModel/models/ai_charades_tcn.pt (torch, 503605 bytes, 6 tensors)

net.0.weight f4 [128, 66, 5]
0	0xbd9422a5	-0.072331704
1	0xbd85ecb8	-0.06539291
2	0xbdf7ffca	-0.12109335
3	0xbd702265	-0.05862655
4	0xbdfc843a	-0.12329908
5	0x3d22bbab	0.039729755
6	0xbadd2360	-0.0016871504
7	0x3d639e7e	0.05557107
8	0x3d8a6e26	0.067592904
9	0xbc99a2cf	-0.018754391
10	0xbd72250a	-0.059117354
11	0xbdc3282b	-0.09529146
12	0xbd70499d	-0.058663953
13	0xbdbe29f3	-0.09285345
14	0xbdaabced	-0.08336816
15	0x3cb97706	0.022639763
16	0x3d8912c0	0.066930294
17	0x3d0e022e	0.034670047
18	0xbb1570f4	-0.002280292
19	0x3d0c0e5b	0.034193378
20	0xbdf1c0eb	-0.11804374
21	0xbdc531a7	-0.09628611
22	0xbdd802fc	-0.10547444
23	0xbd53148c	-0.051533267
24	0xbe0c40ee	-0.13696644
25	0x3bb9ac03	0.0056662573
26	0x3c2852ed	0.010273677
27	0xbb639f24	-0.0034732306
28	0x3d06a92a	0.03287617
29	0xbcc6b182	-0.024254564
30	0xbcffcb8d	-0.03122499
31	0xbdfef044	-0.12448171
32	0xbd098744	-0.033576265
33	0xbd9105b3	-0.07081165
34	0xbdd4f3ba	-0.1039805
35	0x3d838817	0.064224415
36	0x3d11bab5	0.03557845
37	0x3d91472b	0.07093652
38	0x3cf42011	0.029800447
39	0x3baa4356	0.0051960154
40	0xbd3c1b4b	-0.045924466
41	0xbd96cb4d	-0.07362995
42	0xbd0242e9	-0.03180209
43	0xbbc7d08f	-0.00609786
44	0xbcd5416f	-0.026032178
45	0x3c018396	0.007904908
46	0x3d74c658	0.059759468
47	0x3d23c467	0.039982226
48	0x3d68309a	0.056686975
49	0xbb08f5df	-0.0020898504
50	0xbde595de	-0.112102255
51	0xbd9d19e1	-0.07670952
52	0xbdc37a09	-0.09544761
53	0xbc2c2420	-0.01050666
54	0xbd267de4	-0.040647402
55	0x3d554962	0.052071936
56	0x3d275110	0.04084879
57	0x3cb529cc	0.022114657
58	0x3d78886f	0.06067699
59	0xbc823bd4	-0.015897669
60	0xbd1aea47	-0.03782108
61	0xbda14c47	-0.07875877
62	0xbca19f5e	-0.019729313
63	0xbd61a77c	-0.055091366
64	0xbcb5884b	-0.022159716
65	0x3c806a75	0.015675763
66	0x3d88d00b	0.06680306
67	0xbc097eee	-0.008392079
68	0xbc02d739	-0.007985883
69	0xbbe128aa	-0.0068713026
70	0xbcc1aa3c	-0.023640744
71	0xbd4eb37f	-0.05046415
72	0xbc69bcf4	-0.014266241
73	0xbdea6f35	-0.11446992
74	0xbdff8de6	-0.12478237
75	0xbc3a86ff	-0.011384725
76	0xbc1a9e59	-0.009437167
77	0x3d520934	0.051278308
78	0x3d4111e3	0.0471362
79	0x3d9430ef	0.07235896
80	0x3cb2251d	0.021746213
81	0x3c551d11	0.013007418
82	0x3dadddd1	0.08489574
83	0x3cf90069	0.030395703
84	0x3da8ce12	0.0824243
85	0x3c878c72	0.016546462
86	0x3d6618a7	0.056175854
87	0xbc739ba7	-0.014868653
88	0xbb8b05f4	-0.004242653
89	0x3d25fba5	0.04052319
90	0xbdd89daa	-0.10576947
91	0xbe0470e7	-0.12933694
92	0xbd9e1191	-0.07718194
93	0xbd9057cd	-0.07047997
94	0xbe19e2a6	-0.15027866
95	0xbc4acbf9	-0.012377732
96	0x3d7e590e	0.062096648
97	0xbb5505a7	-0.003250459
98	0xbbab84e8	-0.0052343495
99	0xbd1483cb	-0.0362585
100	0xbda855e2	-0.08219506
101	0xbd1926a0	-0.03739035
102	0xbd587e2c	-0.052854702
103	0xbdadb239	-0.08481259
104	0xbd43dad4	-0.047816113
105	0xbccb4a39	-0.024815666
106	0xbd21ff98	-0.039550394
107	0xbca96a63	-0.020680612
108	0xbd1e0a36	-0.038583957
109	0xbcd02741	-0.025409343
110	0x3e109217	0.14118229
111	0x3dd18135	0.102297224
112	0x3dddc4ec	0.108285755
113	0x3d210e33	0.039320182
114	0x3d5c7e3d	0.053831328
115	0x3a63e107	0.00086928945
116	0x3cbecb53	0.023290312
117	0xbd050b6c	-0.032481596
118	0xbc1e4e00	-0.009662151
119	0xbc97ee51	-0.018546255
120	0xbb607d2f	-0.0034254303
121	0xbccac1b2	-0.024750564
122	0xbbe42b3d	-0.006963162
123	0xbd2618aa	-0.040550865
124	0xbd1e9d6e	-0.038724355
125	0xbc05ddfb	-0.0081706
126	0x3a14743b	0.00056630716
127	0xbcbdc8eb	-0.023167094
128	0x3d846922	0.06465365
129	0x3c303634	0.0107551105
130	0x3d9feabf	0.07808446
131	0x3d500b50	0.05079204
132	0xbc29e793	-0.010370153
133	0x3d95b30b	0.0730954
134	0x3cb4b763	0.022060102
135	0xbddd13af	-0.1079477
136	0xbe090a84	-0.13382918
137	0xbe11032f	-0.1416137
138	0xbd93c09e	-0.07214473
139	0xbdc83413	-0.09775557
140	0x3c5733c6	0.013134902
141	0xbd61e1f3	-0.055147123
142	0x3d086b41	0.03330541
143	0xbd3d0a7b	-0.046152573
144	0xbc854ae7	-0.016271068
145	0xbd7debd1	-0.06199247
146	0xbd429e17	-0.047514047
147	0xbce2e065	-0.02769489
148	0xbc9451de	-0.018105444
149	0xbdd8d508	-0.105875075
150	0xbd803a6c	-0.06261143
151	0xbdc9bf55	-0.09850947
152	0xbda84760	-0.08216739
153	0xbdf13787	-0.11778169
154	0xbcce91b1	-0.025215955
155	0xbdfed591	-0.12443078
156	0xbd5f916a	-0.054582037
157	0xbd6bea79	-0.057596657
158	0xbd67ba16	-0.05657395
159	0xbdcfca17	-0.101459675
160	0x3d2c7343	0.04210211
161	0xbb1334d2	-0.0022461903
162	0xbbb3f3b9	-0.0054917005
163	0xbd6e88d9	-0.058235977
164	0x3c8914ee	0.016733613
165	0xbd448241	-0.047975782
166	0xbd7e35f7	-0.062063184
167	0x3c832d2c	0.01601275
168	0xbc950d03	-0.018194681
169	0xbd76c61b	-0.06024752
170	0xbdb86678	-0.09003919
171	0xbd8cbfda	-0.0687253
172	0xbcf662f4	-0.030076481
173	0xbda36695	-0.0797855
174	0xbdcb762d	-0.099346496
175	0xbdf4924f	-0.11941969
176	0xbe10c2a6	-0.14136752
177	0xbd9c2b8b	-0.07625493
178	0xbd549139	-0.051896308
179	0xbe0f5aa9	-0.13999428
180	0xbd2ba50e	-0.041905455
181	0xbd0c4de8	-0.034253985
182	0xbd56efc5	-0.052474756
183	0xbd9f45aa	-0.07776959
184	0xbcc86e25	-0.024466584
185	0x3d217826	0.039421223
186	0x3d0d15e5	0.03444471
187	0x3c340ceb	0.010989408
188	0x3b69e0c3	0.0035686947
189	0x3cbdccab	0.023168882
190	0xbd82d57c	-0.06388375
191	0xbd936caa	-0.071984604
192	0xbca7a21b	-0.02046304
193	0xbc7f8aae	-0.015597029
194	0xbd88aafd	-0.066732384
195	0xbd95adfd	-0.07308576
196	0xbd7968ef	-0.060891088
197	0xbd7b3a3a	-0.061334826
198	0xbd35a6a7	-0.044348385
199	0xbd209426	-0.039203785
200	0xbdf195de	-0.11796163
201	0xbdc14dcc	-0.09438667
202	0xbce8a13d	-0.028397197
203	0xbd4e3b51	-0.050349537
204	0xbd8b6802	-0.06806947
205	0xbd023632	-0.031789966
206	0xbcf75f01	-0.030196669
207	0xbd2a02bd	-0.041506518
208	0xbc355af0	-0.0110690445
209	0x3cb04bc5	0.021520505
210	0xbd00da48	-0.03145817
211	0xbd2159c1	-0.039392237
212	0xbdd3ec3a	-0.10347791
213	0xbdc19ec6	-0.09454112
214	0xbd8909c8	-0.06691319
215	0xbc3c071b	-0.011476303
216	0xbd6f66f5	-0.058447797
217	0xbd98214a	-0.074282244
218	0xbd1b716a	-0.037949957
219	0xbd9e4d19	-0.07729549
220	0xbdba5594	-0.09098354
221	0xbcb2815c	-0.021790199
222	0xbdad9e4a	-0.08477457
223	0xbd8ba6e6	-0.06818943
224	0xbdd68af2	-0.104757205
225	0x3d3234b2	0.043507285
226	0x3d5530bf	0.05204844
227	0x3d141b17	0.036158647
228	0xbcb8cfdd	-0.022560054
229	0xbd24a00a	-0.040191688
230	0x3cbabc5c	0.022794895
231	0x3de27c7a	0.11058898
232	0x3dbd042d	0.09229312
233	0x3de76d61	0.11300159
234	0x3dc5b41a	0.09653492
235	0xbd0defc8	-0.0346525
236	0xbd1fc2a8	-0.039003998
237	0xbda8dd33	-0.082453154
238	0xbdbca491	-0.09211076
239	0xbddc1ec7	-0.10748058
240	0xbd7514c1	-0.059834246
241	0xbde1bdce	-0.110225305
242	0xbdbcb6c5	-0.09214548
243	0xbde870c8	-0.11349636
244	0xbdba404e	-0.090942964
245	0x3da16dfd	0.07882307
246	0x3d9f8109	0.077882834
247	0x3e0b7ca1	0.13621761
248	0x3dda0c86	0.1064692
249	0x3e272eb8	0.16326416
250	0x3d64e190	0.055879176
251	0x3d12a679	0.035803292
252	0x3d8c8bf7	0.06862634
253	0x3d578d9b	0.05262528
254	0x3d7e6fe9	0.062118445
255	0xbdcb7a39	-0.099354215

net.0.bias f4 [128]
0	0xbb5c897c	-0.0033651283
1	0xbc2f20d8	-0.010688983
2	0x3e1176ee	0.14205524
3	0x3ca3de8d	0.020003581
4	0x3e0c6821	0.13711597
5	0xbd3ce7e8	-0.0461196
6	0xbde2d6f8	-0.11076158
7	0x3df0c542	0.11756374
8	0xbd871562	-0.06595875
9	0xbd13aaa7	-0.03605142
10	0xbb0375e1	-0.0020059275
11	0x3e00ba15	0.12570985
12	0x3cc265c2	0.023730163
13	0x3da92ceb	0.082605205
14	0xbc1eb543	-0.009686771
15	0xbe1ed884	-0.15512282
16	0xbcb2a449	-0.021806853
17	0x3e89dbde	0.26925558
18	0x3cff6569	0.031176286
19	0xbe7343b0	-0.2375629
20	0x3e875dd3	0.2643877
21	0xbdf7708b	-0.12082013
22	0x3e1a6280	0.15076637
23	0xbd27416a	-0.040833868
24	0xbd9ace90	-0.0755893
25	0xbc2f2ca0	-0.010691792
26	0x3ce224ca	0.027605433
27	0xbd9e958f	-0.0774337
28	0xbd1bb8e9	-0.03801814
29	0x3b6be8ef	0.0035996994
30	0xbb7a773b	-0.003821804
31	0x3e258bcb	0.16166608
32	0x3c2f697b	0.010706301
33	0x3d8a52bb	0.06754061
34	0xbb9b46cd	-0.0047386647
35	0x3dfe951a	0.124307826
36	0x3ced661c	0.028979354
37	0xbc9ceac2	-0.01915491
38	0xbe448934	-0.19192964
39	0x3c45b4b2	0.012067007
40	0x3df67332	0.120336905
41	0xbdc15aa3	-0.09441116
42	0xbdd68c22	-0.10475947
43	0xb95d8793	-0.00021126708
44	0xbcf98bc0	-0.030462146
45	0x3a972c0c	0.0011533513
46	0xbc9b138b	-0.018930217
47	0x3cd9f89c	0.026607804
48	0xbe6d7c25	-0.23191889
49	0x3ddc17c5	0.10746721
50	0x3e102c4e	0.14079401
51	0xbd90ffe4	-0.07080057
52	0x3da604dd	0.08106396
53	0xbd507aff	-0.05089855
54	0xbde6b4e3	-0.1126497
55	0x3da6accb	0.081384264
56	0x3c284407	0.010270125
57	0x3ccf03c1	0.025270345
58	0xbbce75a6	-0.006300646
59	0xbd4575ad	-0.048207927
60	0x3dcb7067	0.099335484
61	0x3e0c6135	0.13708957
62	0x3d79991e	0.06093704
63	0xbcadb194	-0.02120284
64	0xbc52dc01	-0.012869836
65	0x3bbd330e	0.0057739085
66	0xbdeccdbe	-0.1156268
67	0xbdcf616d	-0.10126004
68	0xbd98c61f	-0.074596636
69	0x3e1e0c09	0.15434279
70	0x3e75242e	0.23939583
71	0x3eaa6aa2	0.3328448
72	0xbdb0f6e5	-0.086408414
73	0xbad6204d	-0.0016336531
74	0x3cb76d6e	0.022391047
75	0x3e750094	0.23926002
76	0xba68eac4	-0.00088850805
77	0xbe0395ad	-0.12850066
78	0x3e8fe663	0.2810546
79	0xbd30bcdb	-0.043148857
80	0x3dc0047f	0.093758576
81	0xbda7d439	-0.08194775
82	0x3ec19680	0.37810135
83	0xbbc520ba	-0.006015864
84	0xbe09aabc	-0.13444036
85	0x3d836d24	0.06417301
86	0x3ea274c7	0.3172972
87	0xbc556cd9	-0.01302644
88	0xbd1a2ae2	-0.037638552
89	0xbce12a1a	-0.027485896
90	0xbd757263	-0.05992354
91	0x3d82fe94	0.06396213
92	0xbcf3959b	-0.029734423
93	0x3cb8c7c1	0.022556188
94	0xbd4fcc30	-0.050731838
95	0x3df874f4	0.12131682
96	0xb9caaf95	-0.0003865926
97	0x3dd9c67f	0.10633563
98	0xbd952a80	-0.07283497
99	0x3e13e353	0.14442186
100	0x3dba6634	0.09101525
101	0x3c4dbb97	0.012556932
102	0xbd71de0c	-0.05904965
103	0xbd588b1e	-0.052867047
104	0xbc0415c0	-0.008061826
105	0x3bb9f6f3	0.0056751906
106	0x3d8896f8	0.0666942
107	0xbbd08a98	-0.006364178
108	0xbd967019	-0.073456
109	0x3e50fb7d	0.20408435
110	0xbd032fe2	-0.032028086
111	0xbd6a27ff	-0.05716705
112	0xbd6b6878	-0.057472676
113	0xbda08003	-0.07836916
114	0xbe0a0754	-0.13479358
115	0xbd5e37af	-0.054252323
116	0x3c91e0df	0.017807422
117	0x3eb02793	0.34405193
118	0x3c740b23	0.014895233
119	0x3da0a170	0.07843292
120	0x3c2abba4	0.010420714
121	0xb9292c4f	-0.00016133602
122	0xbdd923ab	-0.10602506
123	0x3def3d64	0.11681631
124	0xbd07d4d0	-0.03316194
125	0xbe2e9466	-0.17048797
126	0xbd8fb5f0	-0.07017124
127	0xbdee132f	-0.11624753

net.2.weight f4 [128, 128, 5]
0	0xbbe66b59	-0.00703184
1	0xbc959473	-0.018259263
2	0xbccb0adc	-0.024785452
3	0xbd1f6c77	-0.0389218
4	0xbd04032c	-0.032229587
5	0x3b008491	0.0019610266
6	0x3d5d6447	0.05405071
7	0x3c28c889	0.010301718
8	0xbc9dc9a5	-0.01926119
9	0x3d01a580	0.031651974
10	0xbd570298	-0.052492708
11	0xbbea3006	-0.007146838
12	0xbc9749ba	-0.018467773
13	0xbd4d2fb6	-0.05009433
14	0xbd143a1f	-0.03618824
15	0xbd4ed5cb	-0.050496858
16	0xbd80a440	-0.06281328
17	0xbd6b9f1f	-0.057524797
18	0xbc3c20f6	-0.011482468
19	0xbaf6e22a	-0.0018835713
20	0xbd397044	-0.04527308
21	0x3ccc3762	0.024928752
22	0x3b268d5e	0.0025413851
23	0xbc5a176b	-0.013311247
24	0xbd1e5bcc	-0.038661763
25	0x3e0338eb	0.12814681
26	0x3e1e5191	0.15460803
27	0x3dd8433e	0.105597004
28	0x3e232a24	0.15934044
29	0x3df3b8d0	0.119004846
30	0xbd871fd9	-0.06597871
31	0xbb86cf46	-0.0041140644
32	0xbd24122b	-0.04005639
33	0xbd0de6df	-0.034644004
34	0xbda974eb	-0.082742535
35	0xbc15141a	-0.009099031
36	0x3ce27fef	0.027648894
37	0x3c832d2e	0.016012754
38	0x380cf0d8	3.3602904e-05
39	0xbcca2860	-0.024677455
40	0x3c1bfe79	0.00952112
41	0x3c711f2e	0.0147169065
42	0xbcae422f	-0.021271793
43	0x3c7a900f	0.015293135
44	0xbcda7f11	-0.026671918
45	0xbc3427a3	-0.010995778
46	0xbcc2e236	-0.023789506
47	0xbd545c4b	-0.05184583
48	0xbd9a8fdc	-0.0754697
49	0xbcda28a9	-0.026630716
50	0xbcacd10e	-0.021095779
51	0x3d1fbf1a	0.039000608
52	0x3b9c35f6	0.004767175
53	0xbc312d81	-0.010814072
54	0xbcb17da8	-0.021666363
55	0x3c0e17c6	0.00867266
56	0x3d10cc47	0.035351064
57	0x3d58cd9f	0.05293047
58	0x3be6cee3	0.007043706
59	0x3d5fcf6e	0.05464118
60	0xbdcafe73	-0.099118136
61	0xbddf7e93	-0.10912814
62	0xbdb759ab	-0.0895265
63	0xbda34ed4	-0.0797402
64	0xbd7f7615	-0.06236847
65	0x3b9be49a	0.004757476
66	0x3d04c226	0.032411717
67	0x3c906900	0.017628193
68	0x3cb77d74	0.022398688
69	0x3cd03701	0.025416853
70	0xbd8aa6d5	-0.06770102
71	0xbd9db9aa	-0.07701428
72	0xbd56982f	-0.052391227
73	0xbda59cc8	-0.08086544
74	0xbd8a09fc	-0.067401856
75	0xbc35fb5f	-0.011107295
76	0x3b4004cd	0.0029299736
77	0xbd050a0d	-0.03248029
78	0xbcce6bdc	-0.025197916
79	0xbd7f4aa9	-0.06232706
80	0xbd3691cd	-0.04457264
81	0x393c4d32	0.00017957835
82	0xbd27d70e	-0.040976577
83	0xbd3ae40e	-0.045627646
84	0xbccb20ae	-0.024795856
85	0x3cdb4218	0.026764914
86	0xbce0eb62	-0.02745599
87	0xbbed78d9	-0.007247072
88	0xbd12ec82	-0.035870083
89	0x3c8b1840	0.016979337
90	0x3d475f53	0.048674893
91	0x3d7867d1	0.060645882
92	0xbbba611b	-0.0056878454
93	0xbbce36ca	-0.0062931525
94	0x3c062ca9	0.008189359
95	0xbd0ab9e0	-0.03386867
96	0xba057744	-0.00050913193
97	0xbcc271a3	-0.023735827
98	0x3c0193f9	0.007908815
99	0x3d09d5f9	0.033651326
100	0x3d91c7ad	0.07118163
101	0x3db36272	0.08759011
102	0x3da21020	0.07913232
103	0x3d1baa44	0.038004175
104	0x3d643f32	0.05572433
105	0x3c8ccb27	0.017186714
106	0x3cadb7da	0.021205831
107	0xbd0f6763	-0.035010707
108	0xbce70ac5	-0.028203378
109	0xbc8ecaa2	-0.017430607
110	0x3be62216	0.0070231063
111	0x3d4c456a	0.049870886
112	0x3d636bcb	0.05552272
113	0x3c8cba5e	0.01717871
114	0x3d6a0abc	0.057139143
115	0xbd019fc8	-0.03164652
116	0x3d21a1e2	0.039461024
117	0x3c9e02c2	0.019288424
118	0xbc70fb13	-0.014708298
119	0xbbd933fb	-0.006628511
120	0xbaa23c4d	-0.001237759
121	0xbd3da77c	-0.046302304
122	0x3c8a2e84	0.016867884
123	0xbd662e94	-0.056196764
124	0x3bfc18fe	0.007693409
125	0x3d16a3c1	0.03677726
126	0x3c9cb8d0	0.019131094
127	0x3d79e8a9	0.061012898
128	0x3cd39abf	0.025830625
129	0x3d8984f6	0.067148134
130	0x3d1e814f	0.038697537
131	0xbb3734ac	-0.002795498
132	0x3d47f6c6	0.048819326
133	0x3c6c36b7	0.014417342
134	0x3c653281	0.013989092
135	0xbc3e63a4	-0.011620436
136	0xbbe22e2e	-0.0069024777
137	0xbd02ee07	-0.03196528
138	0x3ba61ba1	0.0050692116
139	0x3c67bb38	0.0141437575
140	0xbcb60224	-0.022217818
141	0xbd3c91a6	-0.04603734
142	0xbad842e2	-0.0016499425
143	0x3ad31810	0.0016105194
144	0xbd34896a	-0.04407636
145	0xbd95c07e	-0.073121056
146	0xbd953865	-0.07286147
147	0xbd6fa8e4	-0.058510676
148	0xbcba9917	-0.022778077
149	0xbd2f9642	-0.042867906
150	0x3cc45828	0.023967817
151	0xbc9aa36d	-0.018876756
152	0x3d040fa5	0.032241482
153	0x3d19a1db	0.037507873
154	0x3a698b09	0.00089089625
155	0x3d2a9cb0	0.041653335
156	0x3c9ff8be	0.01952779
157	0x3d522382	0.051303394
158	0x3c36e886	0.011163836
159	0x3bb0a17a	0.0053903433
160	0x3d2a6698	0.041601747
161	0xbc3557cb	-0.011068295
162	0x3d29ebf0	0.041484773
163	0xbb596d8f	-0.0033176874
164	0x3bf5d8ce	0.007502652
165	0xbcb27316	-0.021783393
166	0xbcb2b9ab	-0.021817049
167	0x3cdf2ba2	0.027242485
168	0xbd23879e	-0.039924257
169	0xbc8e65ee	-0.017382588
170	0xbbf6dfc8	-0.007534001
171	0xbd05e2a8	-0.03268686
172	0xbbf167c9	-0.0073671085
173	0x3c7ef5e0	0.015561551
174	0x3c991bf2	0.018690083
175	0x3c223073	0.0098992465
176	0xba888089	-0.0010414283
177	0xbbd12213	-0.006382236
178	0xbc177670	-0.009244546
179	0xb95e68ea	-0.00021210653
180	0x3db4ad60	0.08822131
181	0x3c730697	0.014833114
182	0x3d6f5a71	0.05843586
183	0x3cbae267	0.022813035
184	0x3d1491b1	0.036271755
185	0xbd1e016c	-0.038575575
186	0xbc9d8377	-0.019227726
187	0x3ac65915	0.001513275
188	0xbd0595a8	-0.032613426
189	0xbc9b2730	-0.018939584
190	0xbd7bbd03	-0.061459552
191	0xbcc90b85	-0.024541626
192	0xbcf2797d	-0.029598946
193	0xbd62c588	-0.05536416
194	0xbdc49eee	-0.09600626
195	0xbd2f7c73	-0.042843293
196	0xbd97bdde	-0.07409261
197	0xbd7c480e	-0.061592154
198	0xbd4b5aa4	-0.04964699
199	0xbdb2a7e4	-0.08723429
200	0x3dd0b567	0.1019085
201	0x3ddc038f	0.10742866
202	0x3dace00d	0.08441172
203	0x3dc011cc	0.093783945
204	0x3da9bc70	0.08287895
205	0xbc40eb64	-0.0117748715
206	0xbd0c3bb8	-0.03423664
207	0x3d0afdcf	0.033933457
208	0xbc2da6ac	-0.01059882
209	0xbc865884	-0.01639963
210	0xbb8cc8b1	-0.004296385
211	0x3bd8a605	0.006611588
212	0x3bef18a6	0.0072966395
213	0xbd2b8e72	-0.041883893
214	0xbd055e15	-0.032560427
215	0xbd184955	-0.03717931
216	0xbcfe26d6	-0.031024378
217	0xbd7ebfcf	-0.06219464
218	0xbce2ebb7	-0.027700288
219	0x3bb2babd	0.00545439
220	0x3cb54c15	0.022131005
221	0xbc19063a	-0.009339863
222	0x3c89a8af	0.016804067
223	0x3d09ecb9	0.033673022
224	0x3c881c86	0.016615164
225	0x3cae40f2	0.021271203
226	0xbd297275	-0.04136892
227	0x3cf6dc44	0.030134328
228	0xbd2f896c	-0.042855665
229	0x3cc62387	0.024186863
230	0xbc34b9ac	-0.011030596
231	0x3ca4e742	0.020129804
232	0x3d17f265	0.0370964
233	0x3c6f3726	0.014600551
234	0x3c08d4fc	0.008351561
235	0x3cc5fea8	0.024169281
236	0x3bc8b7f0	0.0061254427
237	0x3ba740b2	0.005104148
238	0xbcb10e43	-0.021613246
239	0x3c8a1f1b	0.016860535
240	0x3d272b45	0.04081275
241	0x3c5b042f	0.013367697
242	0x3cd6b784	0.026210554
243	0x3d3370b7	0.043808665
244	0x3ce7acc2	0.02828062
245	0xbdde4f50	-0.108549714
246	0xbd4ee299	-0.05050907
247	0xbdcafad4	-0.09911123
248	0xbd8b2e5c	-0.06795952
249	0xbdd7b6d4	-0.105329186
250	0x3cc68f80	0.024238348
251	0xbb9ad526	-0.0047251163
252	0xbb26bbb3	-0.0025441467
253	0xbc11a63a	-0.008889729
254	0x3d37616d	0.044770647
255	0x3b69f9b1	0.0035701806

net.2.bias f4 [128]
0	0x3d153875	0.036430795
1	0xbd1e7566	-0.03868618
2	0xbc8714ce	-0.016489413
3	0x3d4312e7	0.04762545
4	0x3e668326	0.22510967
5	0x3d8a7383	0.06760313
6	0x3d21c69a	0.03949604
7	0x3c98a34d	0.018632555
8	0x3c179728	0.009252347
9	0xbb5dd0b3	-0.0033846318
10	0x3db61231	0.088901885
11	0xbd255e0a	-0.040372886
12	0x3d876f03	0.06612971
13	0x3dd70d66	0.105006024
14	0xbcdbc9aa	-0.02682956
15	0x3db68617	0.08912294
16	0xbb2dead0	-0.0026537664
17	0x3c7dfee8	0.015502669
18	0x3da279b9	0.07933373
19	0x3d13cd1f	0.03608429
20	0x3d878ec5	0.06619028
21	0xbd0a1a3d	-0.03371643
22	0x3d22403a	0.039612032
23	0xbdee0290	-0.116215825
24	0x3bde43d9	0.0067829904
25	0x3d35a4af	0.044346508
26	0xbc8d280c	-0.01723101
27	0x3c854454	0.016267933
28	0x3cbeac23	0.02327544
29	0xbcb2cadf	-0.021825252
30	0x3cb0103a	0.021492112
31	0x3d4ce108	0.050019294
32	0x3cabce33	0.020972347
33	0xbd1c9a71	-0.038233224
34	0x3cbdd7af	0.023174135
35	0x39f86833	0.0004737988
36	0x3dd7a3f1	0.10529316
37	0x3d42dec4	0.047575727
38	0x3b836f1f	0.0040110494
39	0xbdaff67e	-0.085919365
40	0x3c429455	0.011876185
41	0xbbeb8156	-0.007187049
42	0x3d08b603	0.033376705
43	0x3d3b4702	0.045722015
44	0x3da2ef89	0.07955844
45	0x3d934261	0.07190395
46	0x3b586309	0.0033018014
47	0xbb86caf2	-0.0041135484
48	0xbd7dcf04	-0.061965004
49	0x3c7744f9	0.015092128
50	0x3ccc1cc4	0.02491606
51	0x3a85f575	0.0010220247
52	0x3da609c6	0.08107333
53	0x3b07d647	0.0020727084
54	0x3df6f7f8	0.12059015
55	0x3d1ff686	0.039053462
56	0x3d964cc3	0.0733886
57	0x3cedcdcc	0.029028796
58	0x3c0d5aae	0.008627577
59	0x3d8bc5b3	0.068248175
60	0x3abe4cfe	0.0014518795
61	0x3bf3d299	0.0074408767
62	0x3c8a4f03	0.016883379
63	0x3d9fe3ab	0.07807096
64	0x3d17df1c	0.037078008
65	0x3b08765e	0.0020822505
66	0x3d180cd5	0.037121613
67	0x3d9ac234	0.075565726
68	0x3d802d6b	0.06258663
69	0x3dc6c0e4	0.0970476
70	0x3d887ca1	0.06664396
71	0x3c145061	0.009052367
72	0xbe0c3c53	-0.13694887
73	0x3bfe07ec	0.007752409
74	0xbbe311cb	-0.0069296113
75	0x3d51f2cc	0.05125694
76	0x3b54fa81	0.0032497945
77	0x3d253c2b	0.040340584
78	0x3c3fc183	0.011703852
79	0xbd92bb4e	-0.07164632
80	0xbc44bd07	-0.012007958
81	0x3c2a4a8e	0.010393752
82	0x3d77a583	0.06046058
83	0x3c2e9a22	0.010656865
84	0xbdd1279e	-0.102126345
85	0x3ce7fef3	0.028319811
86	0x3cfc8b58	0.030828163
87	0xbcd14293	-0.02554444
88	0x3dad9039	0.08474774
89	0x3d89d5ec	0.067302555
90	0xbc4efe08	-0.012633808
91	0x3bd020a0	0.0063515455
92	0x3dc93b4b	0.09825762
93	0x3b5c1de8	0.0033587161
94	0x3d110129	0.035401497
95	0x3d4d9fb2	0.050201125
96	0xbcc58876	-0.024112921
97	0x3ce391c8	0.027779475
98	0x3dd23ab6	0.102651045
99	0x3dfb90e4	0.12283495
100	0x3c959a51	0.01826206
101	0xbce68358	-0.028138801
102	0x3c759100	0.014988184
103	0x3dc8c399	0.09802932
104	0x3cb4288a	0.021991987
105	0x3d16b634	0.036794856
106	0xbd08ffe8	-0.033447176
107	0x3d33fa0d	0.04393964
108	0x3d0d9549	0.034566198
109	0x3cd57560	0.026056945
110	0x3ce4e442	0.027940873
111	0x3d4c9c14	0.049953535
112	0x3d01b4a4	0.031666413
113	0x3d849c0c	0.06475076
114	0x3d208877	0.039192643
115	0x3cb3d287	0.021950973
116	0xbd3e1237	-0.04640409
117	0xbd2107bd	-0.03931402
118	0xbc958c01	-0.018255236
119	0x3db06657	0.0861327
120	0x3e95d18d	0.29261437
121	0xbdb68dc1	-0.08913756
122	0x3d3c594d	0.0459836
123	0x3daf144f	0.085487954
124	0x3b557fc7	0.0032577382
125	0x3be4f47a	0.0069871517
126	0x3d327d77	0.043576684
127	0x3c20fda8	0.009826101

fc.weight f4 [5, 128]
0	0xbe671f2d	-0.22570486
1	0x3c684dc7	0.0141787
2	0xbde96d9c	-0.113978595
3	0x3d82da2c	0.06389269
4	0xbe83c992	-0.25739723
5	0xbd1fce94	-0.039015368
6	0xbd273f72	-0.04083199
7	0xbdfc20b3	-0.123109244
8	0xbe373510	-0.17891335
9	0x3d292f32	0.041304775
10	0x3dc23149	0.09482057
11	0xbd1a0185	-0.037599105
12	0xbe2efc98	-0.17088544
13	0xbdcb01e8	-0.09912473
14	0xbd947a92	-0.07249941
15	0xbe641bc5	-0.22276218
16	0xbcbc2255	-0.02296559
17	0x3d1d5dae	0.038419418
18	0xbda14735	-0.0787491
19	0xbdf1ec33	-0.118126296
20	0xbe8e83ca	-0.27834922
21	0xbbf2f09a	-0.007413936
22	0x3d93b852	0.07212891
23	0xbca759d0	-0.020428568
24	0x3d193fbf	0.03741431
25	0xbe807428	-0.2508862
26	0x3d7d633e	0.061862223
27	0x3da30790	0.07960427
28	0xbe2bca15	-0.16776307
29	0xbe29018c	-0.16504496
30	0xbc861004	-0.016365059
31	0xbdde4387	-0.108527236
32	0xbd968468	-0.07349473
33	0xbb9929e6	-0.004674184
34	0x3ddb2672	0.10700692
35	0xbda2bb40	-0.07945871
36	0x3cbb8ec5	0.022895226
37	0x3d3a9c51	0.04555923
38	0x3d359531	0.044331733
39	0x3d86e98e	0.06587516
40	0xbde85847	-0.113449626
41	0x3d0dd1dc	0.034623966
42	0xbe18c667	-0.14919434
43	0x3ae353e5	0.0017343728
44	0xbd914532	-0.07093276
45	0xbde155fb	-0.110027276
46	0x3ccb4add	0.024815971
47	0xbe16a825	-0.1471258
48	0x3c229f7a	0.0099257175
49	0xbcdaeb11	-0.026723417
50	0x3d9bf0fc	0.076143235
51	0xbe065414	-0.13118011
52	0x3cbc41a6	0.022980522
53	0xbd9c0f73	-0.07620134
54	0xbda1effa	-0.079071
55	0x3dc10b5c	0.09425995
56	0x3c81c008	0.015838638
57	0xbdd9bc19	-0.1063158
58	0xbce5e443	-0.028062945
59	0xba933f91	-0.0011234154
60	0xbdda12f5	-0.10648147
61	0xbde9cd9d	-0.11416171
62	0x3d8a4ebe	0.067533
63	0x3ce4d18f	0.027931957
64	0x3dafa6bb	0.08576723
65	0xbb742acd	-0.0037256957
66	0xbe65910a	-0.2241861
67	0xbe36c7ef	-0.17849706
68	0x3cebe229	0.028794365
69	0x3da74830	0.081680655
70	0xbde08d9a	-0.10964508
71	0xbe0ebfe8	-0.13940394
72	0xbd25009f	-0.040283795
73	0xbbf19f13	-0.0073736995
74	0x3b4d7a9a	0.0031353594
75	0xbd1a19c6	-0.037622236
76	0xbd0641b5	-0.032777507
77	0x3d08bb67	0.033381846
78	0xbdaecd70	-0.08535278
79	0x3d577ba5	0.05260815
80	0xbd48213b	-0.048859816
81	0xbde6535c	-0.11246368
82	0xbcaa9c27	-0.020826412
83	0xbda9c073	-0.0828866
84	0x3aee6ddc	0.00181907
85	0xbc304149	-0.010757753
86	0xbea1e2b3	-0.3161827
87	0xbdb15dbd	-0.08660457
88	0xbc9a6e5e	-0.018851455
89	0x3ca61eaa	0.020278294
90	0xbd74e5e1	-0.059789542
91	0x3b542b27	0.0032374354
92	0xbe26a8eb	-0.16275375
93	0xbe6b082d	-0.22952338
94	0xbe3047cc	-0.17214888
95	0xbd4b6ade	-0.049662463
96	0xbd328191	-0.043580595
97	0xbe34de80	-0.17663002
98	0xbcfdc97a	-0.03097986
99	0x3db0166f	0.08598029
100	0xbde5a58a	-0.11213215
101	0x3dba5eb6	0.09100096
102	0x3db03e03	0.08605578
103	0x3d6b5622	0.05745519
104	0xbdfebc09	-0.124382086
105	0xbd15dd5b	-0.036588054
106	0x3d7839a6	0.060601853
107	0x3beeb855	0.0072851577
108	0xbe0c4542	-0.13698295
109	0xbcb446a3	-0.022006338
110	0xbe851e0d	-0.2599949
111	0x3da83307	0.08212858
112	0x3da178ef	0.078843944
113	0x3d866b62	0.065634504
114	0x3d90ef72	0.070769206
115	0x3d84b08b	0.064789854
116	0xbd558923	-0.052132737
117	0xbe394c5a	-0.18095532
118	0x3bd74945	0.0065700137
119	0x3c247415	0.010037442
120	0xbf0b6a8c	-0.5445945
121	0x3c8f06cf	0.017459301
122	0x3da8d999	0.082446285
123	0x3ca0e763	0.019641584
124	0xbdce06f0	-0.10059917
125	0xbd272af9	-0.040812466
126	0x3dbb1e1e	0.09136604
127	0x3db1213c	0.08648917
128	0xbcabd6ac	-0.020976387
129	0x3cc702d5	0.024293343
130	0xbc390902	-0.011293652
131	0x3e163c26	0.14671382
132	0x3da384a6	0.07984285
133	0x3e038788	0.1284467
134	0xbe00c3e8	-0.12574732
135	0x3db2e268	0.0873459
136	0x3d9f22e4	0.07770327
137	0xbdc54769	-0.09632761
138	0xbe71efb2	-0.23626593
139	0xbcd40eed	-0.025886023
140	0xbd8f6f93	-0.07003703
141	0xbea02a1f	-0.31282136
142	0xbd8cd279	-0.06876082
143	0xbd1dbeef	-0.038512167
144	0x3d75521b	0.059892755
145	0x3d925bfd	0.071464516
146	0x3d77525e	0.060381286
147	0x3de1d9dd	0.11027882
148	0xbdcc89fe	-0.099872574
149	0xbdc03438	-0.0938496
150	0x3df5ab35	0.11995546
151	0xbe065907	-0.13119899
152	0x3e4a99f9	0.19785298
153	0x3ddbbb6c	0.10729107
154	0xbe3b2c48	-0.1827861
155	0xbd5a3ea1	-0.053282384
156	0xbd020934	-0.031747058
157	0x3d575b66	0.0525774
158	0x3d9cbf3b	0.07653662
159	0x3c50e369	0.012749531
160	0xbe64bf55	-0.22338612
161	0x3e0147dd	0.1262507
162	0xbdd4b961	-0.10386921
163	0x3d6b7e2d	0.057493377
164	0xbe5fd4c5	-0.21858509
165	0xbd0ee0e6	-0.03488245
166	0xbe1070cf	-0.14105533
167	0xbcfc1e57	-0.030776186
168	0x3d335b50	0.043788254
169	0xbe03effd	-0.12884517
170	0xbc101d2c	-0.008796018
171	0xbe30b423	-0.17256217
172	0x3da3898f	0.079852216
173	0xbd67b095	-0.056564886
174	0x3d62c270	0.05536121
175	0x3dbf40d5	0.093385376
176	0xbece3bed	-0.40280095
177	0x3d15b0fc	0.03654574
178	0xbc9b970e	-0.018992927
179	0xba42ef6c	-0.00074361893
180	0x3cd20be9	0.025640445
181	0xbdcaef20	-0.09908891
182	0xbe903f22	-0.28173167
183	0x3d500c85	0.05079319
184	0xbe1e09a5	-0.15433367
185	0x3d885a06	0.066577956
186	0xbb9f0058	-0.004852336
187	0xbe8218af	-0.25409457
188	0x3adbed95	0.0016779179
189	0xbc971967	-0.01844473
190	0x3dda682c	0.106644005
191	0x3ddb88f4	0.10719481
192	0x3da92e16	0.08260743
193	0xbe1be144	-0.15222651
194	0x3d80c20d	0.06287012
195	0x3dccc1bc	0.099978894
196	0x3cce33f9	0.025171267
197	0xbd99e554	-0.07514444
198	0x3de87df2	0.11352147
199	0xbd117917	-0.03551587
200	0xbe14d5da	-0.14534703
201	0xbe3873bf	-0.18012904
202	0xbd21470a	-0.03937439
203	0x3dd7abbe	0.10530804
204	0xbde6661c	-0.112499446
205	0xbda03db7	-0.07824271
206	0x3e162595	0.14662774
207	0xbda25cda	-0.07927866
208	0x3d377cbf	0.0447967
209	0x3d30079f	0.042976018
210	0xbe32f6cf	-0.17476963
211	0x3da3c8bf	0.07997274
212	0xbc97a767	-0.01851244
213	0x3dbacde6	0.09121303
214	0xbca9709e	-0.020683583
215	0x3e73dd2d	0.2381484
216	0x3e0415b4	0.12898904
217	0x3ccbc97b	0.024876347
218	0x3d954b3f	0.07289743
219	0xbe1ddace	-0.15415499
220	0xbe098aac	-0.13431805
221	0xbe28dc4c	-0.16490287
222	0xbe39250a	-0.18080536
223	0x3e091e79	0.1339053
224	0x3d93854a	0.07203157
225	0x3cb73878	0.022365794
226	0xbe35b5dd	-0.17745157
227	0xbe1142c8	-0.14185631
228	0xbe24ca71	-0.1609285
229	0xbd44619e	-0.047944658
230	0xbceb6b2d	-0.028737629
231	0xbe08b714	-0.13351089
232	0xbde32d4a	-0.110926226
233	0x3c6d6293	0.014488834
234	0xbd695ad9	-0.056971405
235	0xbaddd8b5	-0.0016925546
236	0xbe11d34b	-0.14240758
237	0xbe6c37fc	-0.23068231
238	0x3dbc1666	0.0918396
239	0x3d83d52a	0.06437142
240	0xbda5122d	-0.080601074
241	0xbe637ff5	-0.2221678
242	0xbd2e4dcf	-0.042554673
243	0xbdefb7d4	-0.11704984
244	0xbd7c2fae	-0.06156891
245	0xbdb3ef1b	-0.0878584
246	0x3e4e32bc	0.20136541
247	0x3dcc86b2	0.099866286
248	0xbdf712bd	-0.12064121
249	0xbdbc162d	-0.09183917
250	0xbe627c9a	-0.22117844
251	0x3d1775c1	0.036977533
252	0x3d325b67	0.0435442
253	0x3b8fa3bb	0.004383532
254	0x3e74807b	0.23877136
255	0x3da5a293	0.08087649

fc.bias f4 [5]
0	0xbc8194bd	-0.015817994
1	0xbd3e2a0f	-0.04642683
2	0xbb4f062c	-0.0031589372
3	0x3d269653	0.040670704
4	0x3c04f51d	0.00811508
