aiModel/models/ai_charades_tcn2.pt (torch, 504216 bytes, 6 tensors)

net.0.weight f4 [128, 66, 5]
00000000: 3605 253e cd46 313d 435c 963a 88c5 9b3d
00000010: 3b78 a73d 2208 93bc 127c 53bd 0619 d13c
00000020: 876f 043d add2 7abd bbc2 463e 1593 2a3d
00000030: a9c1 963d 890b 613d 380e 103e 1700 f8bc
00000040: 7035 a53c 55ab 463b 9450 0bbd 4881 a23a
00000050: 25e1 013e 47fc 033d aa87 963c bf86 c13d
00000060: 323e ab3d f7e6 95bc ddc1 48bb 92af ce39
00000070: b01b e13c 1a3c 46bd a529 873e ba68 753d
00000080: 501e 153e 1a98 053e f91c 2b3e 09a2 8e3c
00000090: b6b4 18bc 8620 3d3d 785c dd3b d2a1 70bc
000000a0: fbc2 e23d d716 46bd 0c5a 21bc ab4d 5f3c
000000b0: 852e 943d 1ba9 49bd 6ca8 ac3b cd24 1c3b
000000c0: c767 c73b f751 86bd 7566 47bc 3ed4 e6bd
000000d0: aca4 00be 1b3b 29bd 2c2b f23b 1f7c 663c
000000e0: a6a6 153b ac61 973b 8bd6 483d 9956 18bd
000000f0: 9ff2 9c3c f59b 21be 9924 c9bd 013d 04be
00000100: 6403 14bc 2ed8 e6bc c307 ab3c 8d64 1abd
00000110: 1c36 3bbd 97d7 93bd 5891 193e b096 f7bb
00000120: 1ef9 c63c 00c9 58bd dbd9 debb 3db4 1cbd
00000130: cd09 12bd 25b2 1d3d 7847 113d 363a 4a3d
00000140: 250e 07be d4be 85be 3d68 48be 482a 80be
00000150: da6d cabd 45b6 b4bc aa0c ba3c cc49 1fbd
00000160: e3f2 fdbc c807 aab7 54de 113e 58e1 dabb
00000170: 0056 5e3d 6672 813d 24cf 663d 2246 53bd
00000180: 5b21 aa3c fb36 fcbc 4e93 fdbc 50c9 93bd
00000190: a0df 2b3c e13f a0bd c4b8 bebd ae66 f7bd
000001a0: df50 c73b 57d4 5ebd b9c6 9dbd eb2c 30bd
000001b0: 384c 90bd ae91 8abd 5a92 a2bc cb74 23be
000001c0: e561 1abe 5939 65be 9658 28be e4f5 1ebd
000001d0: e0b4 0dbc 18dd 08bd e971 5ebb 7729 cebc
000001e0: 49fb 6fbe 9126 a8be 8d3b 9abe b998 a7be
000001f0: 7373 7ebe 04bb fe3d e56c 083e 98e0 083e
00000200: 185e 673e ac2a 1c3e dc61 213e 413d 6f3c
00000210: 969d 28bd 884e 2b3d 0c52 343d 5154 26bf
00000220: 95b7 31bf ac03 32bf e3ee 1abf ab54 20bf
00000230: 256e d73e 2ab9 873e 0bdd b53e 62d4 943e
00000240: 1c16 c13e a9bf b03e f485 c53e 263c e03e
00000250: affd f03e 8dcd a93e b17e d23d 38aa 0abd
00000260: a2cf 32bc 46c2 53bd af5f cc3d fc22 06be
00000270: 200c 92bd 52d1 51bd ddf9 3abc ba36 b4bd
00000280: e6e3 033e 99cf 24bc 41f7 a23c 147f 36bc
00000290: 1188 0d3e 06ff 853d 3270 3b3d 9d4e 253e
000002a0: 2be7 313e 1e2a a93d f52f 8a3e 2f76 4d3e
000002b0: 6489 6e3e 98d4 4b3e cfe3 603e 954a 853d
000002c0: 8c18 793d 8096 223e 2974 623e 541d 3c3d
000002d0: b83a 64be 5f23 a0be febe 93be c052 a3be
000002e0: 9040 28be 173f 88bd 0fbd 85bd c936 37bd
000002f0: fc0d f8bb 673c 26bc db65 3c3e 3c8c a23d
00000300: 87f1 093e 552e 183e 6e67 1a3e 6fa3 ce3d
00000310: 2128 103e 54e7 293e b463 5a3e d2a2 0b3e
00000320: 734d fdbe c849 10bf b090 ecbe 020e 00bf
00000330: baf1 d1be 6c50 c6bd 1ec8 afbd a9e6 5bbd
00000340: b289 ea3a 52c7 9c3a 0e6f 783e 50c3 0f3e
00000350: 9343 833d c97c b63d 3999 213e 28fd d43d
00000360: 4f0b a53d 8dbd a93d bfb1 243e 339e 813d
00000370: b189 e3be a2f0 f3be 77e8 febe b2d0 f8be
00000380: 6f61 d5be 3fa4 f63c f182 fb3c 7004 573d
00000390: a06a db3c a200 04bc e8bb 1d3c 27d1 b33d
000003a0: 7559 913d 0e61 a93d bb05 823d 1bdb 61bf
000003b0: 6071 5bbf e3ba 66bf 269a 65bf 12be 56bf
000003c0: ca36 ef3d a73f ba3d 72b8 fb3d f603 f93d
000003d0: d4b3 193e fe24 803f fc31 5e3f b7d1 703f
000003e0: 4e92 693f 373c 6b3f 6eb4 8dbd fd4f 49be
000003f0: f49d 16be c1ef 09be df54 b4bc d8d4 aabd
0.16115269 0.04328041 0.0011471588 0.076060355 0.08177229 -0.017948214 -0.051631995 0.025524627
0.032332923 -0.061236072 0.19410221 0.041644175 0.073611565 0.05494264 0.14067924 -0.03027348
0.020167083 0.0030314524 -0.034012392 0.0012398148 0.12683542 0.032223012 0.018375237 0.09449529
0.08361472 -0.01829861 -0.003063313 0.00039422192 0.027479023 -0.04839716 0.2639896 0.05991433
0.14562345 0.13046303 0.16710271 0.017411249 -0.009320429 0.046173595 0.006755408 -0.0146870185
0.11072346 -0.048361626 -0.009848129 0.013629357 0.072354354 -0.049233537 0.005269101 0.0023825646
0.0060853693 -0.06558602 -0.012170424 -0.11270951 -0.12562817 -0.041316133 0.0073904004 0.014067679
0.0022834926 0.0046197977 0.04903273 -0.03719196 0.01915866 -0.15782149 -0.098214336 -0.12913896
-0.0090340115 -0.028179254 0.020877725 -0.03769355 -0.0457059 -0.07218855 0.1499685 -0.007555805
0.02428871 -0.052926064 -0.0068008727 -0.038257826 -0.035653878 0.03849997 0.03546855 0.04937192
-0.1318899 -0.26122153 -0.19571014 -0.25032258 -0.09884234 -0.02205957 0.022711117 -0.038888738
-0.030999606 -2.0269203e-05 0.14244968 -0.006679695 0.054281235 0.06320648 0.05634989 -0.051580556
0.020767858 -0.030787935 -0.03095403 -0.07216132 0.010490328 -0.07824684 -0.09312585 -0.120801315
0.0060826386 -0.05440172 -0.07703919 -0.043011587 -0.070457876 -0.067660674 -0.019845176 -0.15962522
-0.15076406 -0.22385158 -0.16440043 -0.03880872 -0.008649081 -0.033413976 -0.0033942407 -0.025166256
-0.23435701 -0.32841924 -0.3012356 -0.32733706 -0.24848728 0.12438014 0.1332279 0.13366926
0.22594488 0.15250653 0.15759987 0.014602006 -0.04116591 0.04182294 0.04402356 -0.64972407
-0.6942075 -0.6953685 -0.6052076 -0.62629193 0.4207622 0.26508456 0.35520205 0.29068285
0.3771218 0.34521225 0.3857876 0.4379589 0.47068545 0.33164635 0.10278071 -0.03385374
-0.010913761 -0.051698945 0.09979188 -0.13099283 -0.07131219 -0.051225014 -0.011412111 -0.08799501
0.12879905 -0.010059261 0.01989329 -0.011138696 0.13821436 0.065427825 0.045761295 0.1614327
0.1737334 0.08259986 0.26989713 0.20064615 0.23294598 0.19905317 0.21961902 0.06508366
0.060814425 0.15877724 0.22114624 0.045926407 -0.22288024 -0.31276986 -0.28856653 -0.3189907
-0.16430879 -0.066526584 -0.06530201 -0.04472998 -0.0075700264 -0.010146237 0.1839823 0.07936904
0.13471042 0.14861424 0.15078518 0.10089766 0.14077808 0.16592151 0.21327096 0.1363633
-0.49473152 -0.5636258 -0.46204138 -0.50021374 -0.41004735 -0.09683308 -0.08583091 -0.05368677
0.001789382 0.0011961258 0.24261114 0.1403935 0.06409373 0.0891052 0.15781106 0.10399848
0.080587976 0.08288107 0.1608343 0.06329002 -0.44440988 -0.47644526 -0.49786732 -0.48596722
-0.41675898 0.030107616 0.030702086 0.052494466 0.026784241 -0.0080567915 0.00962732 0.08780127
0.07097141 0.08270465 0.06348749 -0.88224953 -0.8571987 -0.90128917 -0.89688337 -0.83883774
0.11680372 0.09094172 0.122910395 0.121589586 0.15010005 1.0011289 0.8679502 0.9407
0.9123887 0.91888756 -0.0691918 -0.1965942 -0.14708692 -0.13470365 -0.022013126 -0.08341378

net.0.bias f4 [128]
00000000: 8b56 0fbe 4442 523e 0636 a13e 4678 0cbc
00000010: b22c e73e b854 41bf f369 5e3e 36d1 2b3e
00000020: 7691 92be 143d adbe 1f8b b4bd caba 743e
00000030: 6626 59bc 1144 e7bd f5d7 6cbe a241 13be
00000040: 5c92 a3be 8219 b13e 5413 72bc 273e dfbe
00000050: fba1 973d 1c54 8dbc 3d58 233e 766b acbe
00000060: 751f 513e 8aae adbb 720e d0be 3a8b a6be
00000070: f535 fbbe 7a56 cfbb e7cd 86bf fb82 333d
00000080: 369c 21bf dc78 2d3d a0a8 fb3d d272 5bbe
00000090: 024f c9bc 3a89 013e 63f4 193d 06db a2be
000000a0: de1b 4ebd 3206 093d 20d0 d8bd b25e c7be
000000b0: 6770 80bc b215 1fbb a684 42be 8a0a e03d
000000c0: 8594 263e fd4f 1e3d 48e2 7e3d 1cdc 51be
000000d0: 74a4 bf3c cccb 323d 36ea a23d c004 59bf
000000e0: a362 47bf 6461 25be 5150 b4be 4a27 583d
000000f0: 79f7 573e e613 333e 5f79 95bf 0437 9abe
00000100: 26c4 6dbf 1673 bfbd 099a 9f3c fc5d 12be
00000110: 42d7 92be a1bf 903e 6888 ae3d 31d0 90bc
00000120: c2b1 eaba f912 b3bd 861b c23c 08cb b8be
00000130: 15b9 f7be 1090 05bf 3375 9c3c e261 233e
00000140: a517 53be 6cf2 28bf d2e6 a13e ce81 da3a
00000150: bf99 5f3e 048a 6fbc 9458 b23e 89dd 073e
00000160: 1aa6 e3bb b29d 9bbc 2f4a c4bd dd81 4c3e
00000170: d6dd 9cbe b2c8 5ebe 0c21 63be 262c 4f3d
00000180: f9f1 253e c3e9 2ebe 657d 87bf 5c38 43be
00000190: 6f14 6cbc 70ff 59be 956a 7bbe 20ca e03d
000001a0: f420 963d 92cb 79be c22a fa3e db60 82bf
000001b0: 572d 7bbe b247 753d 013a f93c b932 25bd
000001c0: 3667 0e3e c9bf 64be 0419 bcbe b3a9 3d3d
000001d0: 663e 4d3d b526 6a3e e78f 8abe 8b7a c93d
000001e0: 4932 ecbd 38fb b9bd c527 37bc e1cc 2c3e
000001f0: b439 a5be 1d58 88ba 4aba 05be ed6f 57bf
-0.13997857 0.20533091 0.3148653 -0.008573597 0.45151287 -0.75519896 0.21720104 0.16779026
-0.28626603 -0.3383566 -0.08815598 0.2389938 -0.013253784 -0.112922795 -0.23129256 -0.14380506
-0.319476 0.34589773 -0.014775116 -0.43602106 0.07403942 -0.01725202 0.15951629 -0.33675736
0.20422156 -0.0053003477 -0.4063602 -0.32528096 -0.49064603 -0.0063274475 -1.0531586 0.043826085
-0.63128984 0.04235159 0.12288022 -0.21430519 -0.024573807 0.12650004 0.03758658 -0.31807727
-0.050319545 0.033453174 -0.10586572 -0.38939434 -0.015678598 -0.0024274406 -0.18995914 0.1093951
0.16267593 0.0386505 0.062227517 -0.20494121 0.023393847 0.043651387 0.079548284 -0.8477287
-0.7788488 -0.16150433 -0.35217527 0.052771844 0.21090497 0.1748806 -1.1677665 -0.301201
-0.92877424 -0.09348123 0.01948263 -0.14293665 -0.28679854 0.282712 0.08522111 -0.017677398
-0.0017905759 -0.08743853 0.023694765 -0.360924 -0.48383394 -0.52172947 0.019098854 0.15955308
-0.20614488 -0.65994906 0.31621414 0.0016670765 0.21835993 -0.014620308 0.34833205 0.13268103
-0.006947291 -0.018996093 -0.09584462 0.19971414 -0.30637997 -0.21756247 -0.22180575 0.050579213
0.16205586 -0.1708136 -1.0585142 -0.19064468 -0.014409169 -0.21288848 -0.24552377 0.10976052
0.07330504 -0.24394062 0.48860747 -1.0185808 -0.24529015 0.059882827 0.030423166 -0.040331576
0.1390656 -0.22338785 -0.36737835 0.046304416 0.050108336 0.22866328 -0.27062914 0.09837826
-0.11533029 -0.09081119 -0.011178915 0.1687503 -0.32270586 -0.0010402236 -0.13059345 -0.8415516

net.2.weight f4 [128, 128, 5]
00000000: 1f44 b33d 07f4 d53c 0da9 97bb 5d99 77bd
00000010: 4212 d5bc ac8b 1d3e 13ce 793e aaa2 1c3e
00000020: 76e7 e13d 66cd 163e 5f24 c1be 1f0b bcbe
00000030: f8c2 b7be b769 b9be 9b03 afbe 1219 80bd
00000040: f05e c3bd 039c 00be 8f27 c6bd c762 cebd
00000050: edd7 123e be13 703e fae9 723e 1c92 533e
00000060: 80c0 2d3e 655b 09bd 96be 883d babd fc3d
00000070: 977f 5a3e 01d1 3e3e 3f4c 35bd 77d8 103d
00000080: 2696 7b3c f38d 413d 0eca f2ba 990a efbd
00000090: 8772 c5bd cf21 f9bd aaa4 0fbe 5bc6 40be
000000a0: 35da b9bc 69dd 1cbc 48c8 8cbd aad3 89bb
000000b0: bf8d b4bc 155f 82be ac3b 89be e2af 99be
000000c0: 7051 9fbe 53be 94be af1e 773d 4cc3 f43d
000000d0: d88b a73d c106 5a3d 7e21 3d3d 47fa 9dbc
000000e0: 02e6 3cbd 8e4f f7bd b739 5abe b368 4cbe
000000f0: 9b6b a6be 65bf 9abe ea50 77be af42 5fbe
00000100: 17f8 6dbe b03b a8bc 0d23 ad3b 910b 39bc
00000110: 94a9 fabc 8fe0 17bd e8fa b7be a409 c2be
00000120: a58d bdbe 862a c7be 6612 c7be 5f86 c2bc
00000130: 6dfe b93b 3b66 34bd 811e abbc 948b 5bbd
00000140: fe79 3fbe 3dbe 07be 7687 3fbe 5b7f 3ebe
00000150: da89 1fbe dd87 84bd a9e4 30bd 4683 14b8
00000160: 52cf e1bd f7fc 2abd f720 bb3e c1de b73e
00000170: 6fd1 843e d711 5d3e 7b8f 423e 3e77 3abe
00000180: fa64 35be 399b 2fbe ef9e 80be 7f82 72be
00000190: c36d 683d f1e1 083d c3fb 853c 826a 113c
000001a0: 19c2 993d f7df 6a3c cab9 9f3b d90c 70bd
000001b0: 07b9 1dbd b8e9 1cbd 45a0 45bd 505d 1b3c
000001c0: f3bd e43c 2449 9cbc d35b b83c 59c6 9abe
000001d0: b5cf 8abe 04f0 88be 7c4c a3be fc1e babe
000001e0: 2d42 bb3d 0354 5b3d 52bb 0a3e e3d1 233d
000001f0: 92cf 593d a149 1dbe 84fb 0fbe 7a42 ddbd
00000200: e19a 26be c19a 2dbe 9cfc e73d b69b e23d
00000210: 6127 173e ce8f c93d 3dbe 9b3d 2bfc b2bc
00000220: 3556 aabd 2eee 29be 6165 0fbe ec0b 36be
00000230: fd73 a1be c959 adbe 8a73 6bbe 0442 20be
00000240: fd70 33be c928 4cbd c60b d6bc 5945 0abd
00000250: 83b7 08bd 1cac 8cbd 3472 b4bd 0928 debd
00000260: e0d7 92bd 0d7b b6bd a6c8 f9bd 5549 7f3e
00000270: f57e 5e3e 7a29 783e c895 533e 05dd 353e
00000280: e35f 263d e585 4abd dc15 0abd 4c6e 0fbe
00000290: 72bc 6ebe 1174 4dbc e6a6 90bd 05f2 93bd
000002a0: 2ff9 45be 80d7 75be 4035 cabe b578 d7be
000002b0: 8083 ccbe 485b b8be 65d9 bebe e1fc eabd
000002c0: d381 28be f928 46be ca19 82be a592 90be
000002d0: 2487 933d d03b 9bbc 0060 243d 2698 fabc
000002e0: e6ef 09bd 115b 013e fee5 0e3e 0cd1 083e
000002f0: 7dcf 9c3d 0629 b73d b3e4 fa3d 9111 b73c
00000300: 23cc c8bd 854b c3bd d038 07be 9aaa cbbd
00000310: a09d 1bbe 887b fcbd a6c4 9fbd 124f 18be
00000320: 5503 fe3d 1051 d73d 9088 383d d2bb 1bbd
00000330: bfcd cfbd e86f b1bc 7e43 64bd 6dab 8ebc
00000340: aaba 91bd fc07 c5bd c739 1a3d 1ddd f23c
00000350: 0366 bdbc 7fae e7bd f7d2 dabd 7be4 64be
00000360: 020d 7bbe e575 98be 01c1 a7be 12dd cbbe
00000370: b05a 14be 046b 4dbe cb7f 2cbe d721 e3bd
00000380: 9a1d dabd eecf c83d ed08 2e3d 826f 083e
00000390: e678 ac3c 951b b63b 3981 68bd acbf 04bd
000003a0: 6a18 3f3c 9df8 d83c 1a98 8f3d 4e4d 1a3c
000003b0: 7a70 05bd da84 0abc acb6 65bd 44b8 93bd
000003c0: 3fd4 3f3e d113 053e 3a58 10bd 1b18 b5bc
000003d0: 2f04 39bd a4b5 433d 6b7f 893d 105b 7bbc
000003e0: 7f6c 50bc ea91 85bd 3f20 ef3d 4e5f 8d3d
000003f0: 170c 213d 45ff 84bd 1cef 84bd cd0c 59be
0.087532274 0.026117338 -0.0046283067 -0.060448993 -0.026009683 0.15385312 0.24395017 0.15296426
0.11030476 0.14726791 -0.3772306 -0.36727235 -0.35890937 -0.36213467 -0.34182438 -0.06254782
-0.09539592 -0.12559514 -0.09675514 -0.10077434 0.14340182 0.23445031 0.23722067 0.20661205
0.16967964 -0.033534426 0.066769764 0.12340875 0.21337734 0.18634416 -0.044262167 0.035362687
0.015355622 0.047254514 -0.0018523352 -0.11671943 -0.09640985 -0.121646516 -0.14027658 -0.18825667
-0.022687057 -0.009574273 -0.06874138 -0.0042061405 -0.022040246 -0.25463167 -0.2680334 -0.30017
-0.3111682 -0.29051456 0.060331997 0.119513124 0.0818097 0.053229097 0.04617452 -0.01928438
-0.04611779 -0.12075721 -0.21311079 -0.19961815 -0.3250397 -0.30224147 -0.2415196 -0.21802782
-0.2323917 -0.020536274 0.0052837194 -0.011294262 -0.03059844 -0.03707939 -0.35933614 -0.3789798
-0.3702213 -0.3889963 -0.38881224 -0.023745714 0.005676082 -0.044042807 -0.020888569 -0.05359991
-0.1869888 -0.13256164 -0.18704018 -0.1860327 -0.1557993 -0.06471226 -0.043186817 -3.5408208e-05
-0.11025871 -0.041745152 0.36548588 0.35912135 0.25941035 0.21588837 0.19000046 -0.1820955
-0.17714301 -0.17149056 -0.25121257 -0.23682593 0.056745302 0.0334186 0.0163554 0.008875491
0.07507724 0.014335624 0.0048744427 -0.058606002 -0.038506534 -0.03830883 -0.048248548 0.009482697
0.027922606 -0.019077845 0.022504723 -0.30229452 -0.27111593 -0.26745617 -0.3189429 -0.36351764
0.091434814 0.053546917 0.1354802 0.039995085 0.05317647 -0.15360118 -0.1406079 -0.10803695
-0.16270019 -0.16953565 0.11327478 0.11064856 0.14761116 0.09841882 0.076046444 -0.021848759
-0.08317224 -0.16594765 -0.14003517 -0.17777985 -0.31533805 -0.33857563 -0.22993293 -0.15650183
-0.1752357 -0.049843583 -0.02612866 -0.03375754 -0.033378135 -0.06868765 -0.08810845 -0.1084748
-0.07170081 -0.08910189 -0.12196474 0.24930318 0.21728118 0.24234572 0.20662606 0.17760094
0.04061879 -0.049444098 -0.033712253 -0.14006919 -0.23314074 -0.012539879 -0.07063083 -0.07223896
-0.19333337 -0.24007988 -0.39493752 -0.4208428 -0.39944077 -0.36007142 -0.37275234 -0.11474014
-0.16455774 -0.19351567 -0.254103 -0.2823688 0.072035104 -0.01894942 0.040130615 -0.030590128
-0.03367605 0.12632395 0.13954923 0.13360995 0.07656763 0.089433715 0.12250652 0.022347244
-0.09804561 -0.095358886 -0.13205266 -0.09944649 -0.15196848 -0.12328249 -0.078011796 -0.14873913
0.12402979 0.10513508 0.04505211 -0.038020916 -0.10146665 -0.021659806 -0.055728428 -0.017415727
-0.071156815 -0.096206635 0.037652757 0.02964645 -0.023119932 -0.11312579 -0.106847696 -0.22352783
-0.24516681 -0.29777446 -0.32764438 -0.398171 -0.1448772 -0.20060354 -0.16845624 -0.11090439
-0.10650177 0.098052844 0.04248898 0.13323787 0.021053743 0.0055574873 -0.05676386 -0.032409355
0.011663536 0.026485736 0.07011433 0.009417845 -0.03257797 -0.008454526 -0.056082413 -0.0721288
0.18733309 0.1299584 -0.03524039 -0.022106221 -0.045170005 0.047780648 0.06713756 -0.015341535
-0.01272118 -0.065219715 0.11676072 0.069029436 0.03931817 -0.06494001 -0.06490919 -0.2119629

net.2.bias f4 [128]
00000000: af0b dd3c 3cbb 6abe 59ec a5bd 7dee b6be
00000010: afd0 7f3e f87b d4bb 9bc0 b6bd f8f5 1cbe
00000020: 786f dc3d f890 523e 46c8 0b3f 528a 05bd
00000030: b7c6 8cbe 2a1d d83d 571c e1be e9f0 1c3e
00000040: 55dd 4dbb aa12 0b3e 8922 f3bd 1e1b 923e
00000050: c9a0 d53e fc47 793d 06fd c73e 4eff 533c
00000060: 3772 efbd d942 cd3d 889c 123e 5c37 2c3f
00000070: e18d 30be 1133 edbd 2ea5 82bd a110 f33d
00000080: e8ff e73d c368 ce3d 201e 39bf fc85 c03d
00000090: 3095 4b3d e444 383e 565a 903d fec2 25bd
000000a0: 2882 1b3e 8660 afbe b711 083f 1422 d73d
000000b0: 9a5b 803c 2d43 133e a6f3 2fbe 0d72 e1bd
000000c0: 1b07 8d3e 19b6 9a3e 0337 0a3e b12b 1bbd
000000d0: c282 bfbe 7247 aebd ef8d 2c3e 9261 c3ba
000000e0: b02c 59bc ca70 433e b59a dcbb cbd7 0f3e
000000f0: 5990 df3d 50c0 d73e 8716 2fbe 8d75 92bd
00000100: cc10 853d f577 933c 7244 84bd 83ed f6bd
00000110: 9b75 c63d 5fd6 2e3f fd73 8abc fe1d b6be
00000120: 2fc6 773d 5583 b7be fc65 1cbf 2989 bd3e
00000130: 8dd7 aa3e 7253 8dbd 439a c53d c1e8 db3d
00000140: 2c00 943e 31f1 4fbe 1163 5d3e 805b 1a3f
00000150: 340b 89be 987e d53d 5cc5 a63d e5b9 4f3e
00000160: 352c 4dbe c359 873c 21d4 003f 3581 87bd
00000170: 38f5 91bc 8bd5 cebe b54b cebb a4c4 523e
00000180: e9df 023f 03d4 ac3e 08de 36bd 2159 ba3d
00000190: 3012 343e de5c d23d 08fd 403c e2d3 0f3c
000001a0: b665 0b3e 26c9 5ebd 9456 1f3e 4b09 243e
000001b0: 0457 063d 67a3 91be 6412 c33e 7360 69bd
000001c0: 9251 2fbd c65c 893e e68c ca3c 8df8 303d
000001d0: 6911 653e 7662 a73e 609d c43d 374d fdbd
000001e0: ac1f a93e 3e55 1c3d 1ae6 9a3d 0e50 473c
000001f0: 87b6 683e c8f6 233e 7fe3 0cbe 9877 d73d
0.02698311 -0.22922987 -0.0810172 -0.35728827 0.2498195 -0.006484505 -0.08923455 -0.15328205
0.107634485 0.20563114 0.5460247 -0.032602616 -0.27495357 0.105524376 -0.43966934 0.15326275
-0.0031412442 0.13581339 -0.118718214 0.28536314 0.41724232 0.060859665 0.3906023 0.012939287
-0.11691707 0.10022516 0.14317524 0.6727197 -0.17241623 -0.11582006 -0.06379162 0.11868406
0.11328107 0.100785755 -0.7231159 0.094005555 0.049702823 0.1799503 0.0704848 -0.040469162
0.1518637 -0.3425333 0.5315203 0.10504547 0.015668679 0.14381094 -0.17182788 -0.110080816
0.27544484 0.30217054 0.13497548 -0.037883464 -0.37404448 -0.08509721 0.16851018 -0.0014906398
-0.013255283 0.19085994 -0.0067323097 0.14047162 0.10916204 0.4213891 -0.17098437 -0.07151327
0.064973444 0.018001536 -0.064583674 -0.120570205 0.096904 0.68295854 -0.01690101 -0.35569757
0.060491737 -0.35842386 -0.61093116 0.37018707 0.33367577 -0.069006816 0.09648564 0.10737754
0.2890638 -0.20306851 0.21619822 0.6029587 -0.2676636 0.104245365 0.08143112 0.20285757
-0.20036395 0.016522294 0.50323683 -0.06616441 -0.017817125 -0.40397295 -0.006295646 0.20582825
0.5112291 0.33755502 -0.04464534 0.09099031 0.17585063 0.10271619 0.011779077 0.008778544
0.13613018 -0.05439105 0.1556037 0.1601917 0.03279783 -0.2844498 0.38099968 -0.056976747
-0.0428024 0.26828593 0.024725389 0.043205786 0.22369923 0.32692307 0.096003294 -0.12368243
0.33031976 0.03816723 0.0756342 0.012165083 0.22725879 0.16012108 -0.13758658 0.105208576

fc.weight f4 [7, 128]
00000000: f877 d6be 3634 c43d 4534 ae3e c48c ab3d
00000010: 9a0b 2bbd 977d 733c d2e6 73bc ed6b 92bb
00000020: 35e8 20be 7e05 443d a61f eb3c d447 aabe
00000030: 3a9d d8bd 884a 93be 2e2b 3b3e f01b db3d
00000040: 5e8b dbbc 0713 1e3d 077b bfbe bae5 b03d
00000050: 42b1 173e e945 cf3c aae8 193f 4f02 e63d
00000060: 2e76 8a3d 22d6 d4be 0636 053e 9c38 283e
00000070: ec52 54be c279 5ebd 248e 193f ace7 44bf
00000080: d595 14bd cee3 afbc 1e0d 0f3e 70d6 053c
00000090: 5c0b 813e 759e 0e3e 6e56 8c3e b39c 783d
000000a0: 4db4 68be 784b 0a3e 5e4e adbe 4fab ac3d
000000b0: 2cc6 6abb 5c31 67bd de1b edbc 14bc 1bbe
000000c0: 8672 a23c 655b cdbd 89b6 053e e12d 77bd
000000d0: b98e 073e 2602 5bbd 5a98 05be bdf3 483d
000000e0: c89c 243e e108 57bd b3d0 a3bd eb09 343e
000000f0: eeec a9bd b1d7 c9be adb8 ff3c 9e00 8b3e
00000100: 995d 7b3e d3e1 56bd 872a db3b 9f29 cbbe
00000110: 3283 1bbc 403f 8b3d 7516 56be acf1 d1bd
00000120: 59d0 05b9 be2d 1b3e b468 dbbc 62f0 22be
00000130: 533b d8bd fd8a 7c3d e841 c93d 9f1f 923e
00000140: 458f 233e f187 94bf a42c 28b9 a17a 92be
00000150: 6171 673e 7e15 a6bc 10bd 19be 0d39 5e3e
00000160: 4f0f 5c3e c1af 073e b42d 15bf 817e 013e
00000170: c5a1 8fbd 8f72 853e 3d38 0a3e 5f14 19be
00000180: 1394 19bf d029 0bbf 3f42 3bbc 7da0 a43d
00000190: a270 1ebe 7e97 e23d 3b46 ab3d d49e ad3d
000001a0: a151 3bbe 1f0f e43c 211b 9d3e 975c 09bc
000001b0: 6330 b23d fc6c c43d 7f12 6f3c d7fc 413e
000001c0: 1c2a 3e3e 78b6 fb3d 94fa 6d3d 0a83 ed3d
000001d0: 2e60 18bf c3c6 84bd 6511 aa3e 75c1 7d3e
000001e0: 1bab 88be a4a4 6f3d ba2e 243e ec35 9c3d
000001f0: 70f2 c13c 2306 b13d 25c0 ca3d 41da 963e
00000200: c8dd e2bd 1d37 f23e 202e 3dbe 83bc e73d
00000210: 69ff 1bbe 7704 f43d 38c9 fabe 5cf4 033e
00000220: 8390 873d b6cf 973b adfa fbbd d145 e2bd
00000230: e286 c4be cfd4 d5be d2aa 0cbf 268f 8d3e
00000240: a96d 613d d3c4 e73d fc61 c73d 7641 f83d
00000250: 853e 23be dd25 cabd ea2a 3dbd c692 1f3e
00000260: f79e 273e d478 d43d 407b afbe b487 08bf
00000270: ee23 693e f39f 933d 75b4 b53e 445a cb3c
00000280: 0312 6abe 7a08 8f3d 4f6a 41bc 8e04 d73d
00000290: 5c42 eebd eb9d 9cbe 56a4 debe 0bbc 49bd
000002a0: 5d09 453e 1dc8 fcbc bb3d a3bb 293f d1be
000002b0: d7c5 a03c ec48 b13d c744 fa3d 8f2a d13d
000002c0: 30dc 97be cc66 93bd 7e51 f1bd 8e37 04bb
000002d0: e9fc f63d 4528 1bbd d89f a7bd b63e 7c3c
000002e0: 1969 19be 9759 fdbd f84a 7ebc 0816 183d
000002f0: 9ff8 8c3c f4f0 38b9 8fca 913c 5d52 973e
00000300: 491b e33d 3f4a 06bf 62cf acbb 185b e43d
00000310: e300 1a3e 717e 5ebe 0ac1 a83d 523e 9c3d
00000320: 830d c4be 01c0 aabd d4f9 7fbe 1bba 3c3e
00000330: bb17 1b3d 46ab bebe e631 773d e9ae 17bf
00000340: 6981 cebe 25f1 2f3e 865d 80be 8192 3b3e
00000350: c949 bf3d b8e3 293c 7704 cb3e 3948 663d
00000360: f521 493d faf6 f9bc 9016 673e 3e18 e73c
00000370: 686b 4dbd ec57 ca3c 942e f3bd f910 a3be
00000380: a301 b2bd de62 01be 62e9 bfbd cd77 dabd
00000390: 930b 71be 9941 753c 2bab cfbc 4d4b 57be
000003a0: f7d2 d43c 9969 703d 87f4 cbbd f119 1c3e
000003b0: cce3 01be 1d8b f9bd bc4d 553c dfea c33c
000003c0: e21e 75bb ecf0 7dbf 2bed 093d a00a f0be
000003d0: 2105 a63c 2714 29be 0866 c33d 4e6e 243e
000003e0: 6b56 cfbd bb56 cdbd 63b8 d6be e406 763c
000003f0: e3ea 013e 0798 3d3e f913 a03d 2342 96be
-0.41888404 0.09580271 0.34024253 0.08376458 -0.04175911 0.014861486 -0.014886575 -0.004468432
-0.1571358 0.0478568 0.028701615 -0.33257926 -0.105768636 -0.287678 0.1827819 0.10698688
-0.026799854 0.038592365 -0.3739855 0.08637567 0.14813712 0.02530189 0.6012064 0.11230909
0.06760822 -0.4156962 0.1300889 0.16427845 -0.20734757 -0.054315336 0.59982514 -0.76916003
-0.036275703 -0.02147093 0.13969848 0.008168802 0.2520398 0.13927634 0.2740969 0.060696315
-0.2272503 0.13505352 -0.33848852 0.08431112 -0.0035823686 -0.056443557 -0.028943952 -0.15208465
0.01983 -0.10027198 0.13057913 -0.060346488 0.13238038 -0.053468846 -0.13046399 0.049060572
0.16075432 -0.052498702 -0.079987906 0.17581908 -0.08297144 -0.39422372 0.03121599 0.27148908
0.24547423 -0.052461457 0.0066884193 -0.39680192 -0.009491729 0.06799173 -0.20907004 -0.102511734
-0.00012761484 0.15154168 -0.026783325 -0.15912011 -0.1055819 0.061655987 0.09827024 0.2853975
0.15972622 -1.1603986 -0.00016038358 -0.28609183 0.22601844 -0.02027392 -0.15013528 0.2170145
0.21490215 0.13250639 -0.5827286 0.12645914 -0.07013277 0.26063964 0.13498016 -0.14949177
-0.5999157 -0.54360676 -0.0114293685 0.08038423 -0.15472654 0.11064051 0.08363005 0.0847756
-0.18292858 0.027839242 0.3068476 -0.008383892 0.08700635 0.095910996 0.014591812 0.18944107
0.18570751 0.122906625 0.058100298 0.11597259 -0.5952176 -0.06483223 0.33216396 0.24780829
-0.26693043 0.058506623 0.1603345 0.07627472 0.023675174 0.086437486 0.0989993 0.2946339
-0.11077458 0.47307673 -0.18474627 0.11315253 -0.1523415 0.11914914 -0.48981643 0.12886184
0.0661936 0.0046329154 -0.12303672 -0.11048473 -0.38384157 -0.41763923 -0.5494815 0.27648276
0.05503622 0.11316838 0.09735486 0.12121861 -0.15941818 -0.09870503 -0.046183504 0.15583333
0.16369234 0.10374609 -0.3427372 -0.53332067 0.22767612 0.07208242 0.3548924 0.024823315
-0.22858433 0.06984039 -0.011805131 0.104989156 -0.11633751 -0.30589232 -0.43484753 -0.049251597
0.19241853 -0.03085714 -0.004981724 -0.408685 0.019625587 0.08656487 0.122201495 0.102131955
-0.29660177 -0.07197341 -0.117831215 -0.0020174715 0.120599575 -0.0378802 -0.08184785 0.015395811
-0.14981498 -0.123706035 -0.015520804 0.037130386 0.017208396 -0.0001763737 0.017796783 0.29555026
0.110891886 -0.5245704 -0.0052737454 0.11150187 0.15039401 -0.21727921 0.08239944 0.07629074
-0.3829156 -0.08337403 -0.24997646 0.18430369 0.037864428 -0.37240046 0.06035032 -0.59251267
-0.40333107 0.17181833 -0.25071353 0.18317606 0.09340245 0.010369234 0.39651844 0.05622122
0.04910465 -0.030513275 0.225672 0.028209802 -0.05015126 0.024700128 -0.118741184 -0.31848887
-0.086917184 -0.12635371 -0.09370686 -0.106673814 -0.23539571 0.014969253 -0.025350174 -0.21024819
0.025979502 0.058694456 -0.09958749 0.15244271 -0.12684554 -0.12184737 0.013019022 0.023915706
-0.003740244 -0.9919574 0.033673447 -0.46883106 0.020266118 -0.16511594 0.09540945 0.16057703
-0.10123905 -0.10026308 -0.4193755 0.015016291 0.12687258 0.18515025 0.078163095 -0.29347333

fc.bias f4 [7]
00000000: d14d 0fbc 64c6 3bbc 6b6c 803e c4ba b1bc
00000010: ea5f 15bf 0536 9e3d 92ff b23e
-0.00874658 -0.011460874 0.25082716 -0.021695502 -0.5834948 0.07725147 0.3496061
