aiModel/models/ai_charades_tcn2.pt (torch, 502616 bytes, 6 tensors)

net.0.weight f4 [128, 66, 5]
0	0x3df692ab	0.120396934
1	0x3dda14e6	0.10648517
2	0x3d868586	0.06568436
3	0x3ddd8189	0.108157225
4	0x3d4f1da4	0.050565377
5	0xbcc2e9dd	-0.023793155
6	0xbd5e9ccc	-0.054348752
7	0xbcaa0366	-0.020753574
8	0xbcc9b8e5	-0.024624297
9	0xbdce8636	-0.100841925
10	0x3e0b8c35	0.13627703
11	0x3dae68cb	0.085160814
12	0x3dfd82e7	0.12378483
13	0x3d8af653	0.06785264
14	0x3db0b200	0.08627701
15	0xbd75a916	-0.059975706
16	0xbc465cd7	-0.012107096
17	0xbd81385d	-0.063095786
18	0xbde8ffc0	-0.113769054
19	0xbd849bab	-0.06475004
20	0x3d416bd7	0.047221985
21	0x3d56e4d0	0.052464306
22	0x3d45c2f9	0.048281644
23	0x3daf90b1	0.085725196
24	0x3bbdec6b	0.0057960055
25	0xbd5ada4b	-0.053430837
26	0xbd4caf1d	-0.04997169
27	0xbdc42e47	-0.09579139
28	0xbda7cfef	-0.08193957
29	0xbe0320e7	-0.1280552
30	0x3def5a1c	0.11687109
31	0x3c80ad15	0.015707532
32	0x3de3b596	0.11118619
33	0x3d5bd73b	0.053672057
34	0x3cdbac3c	0.026815526
35	0xbc42cbd4	-0.011889417
36	0xbd27b393	-0.04094274
37	0xbcf3bc7c	-0.029752962
38	0xbdb412a0	-0.08792615
39	0xbdd20da8	-0.10256511
40	0x3db4be8b	0.08825406
41	0x3d48fcf8	0.049069375
42	0x3dcdd63d	0.10050628
43	0x3ddc3b49	0.10753495
44	0x3dc7bdf0	0.097530246
45	0xbd8a9a00	-0.067676544
46	0xbc76fb96	-0.015074631
47	0xbd5d358d	-0.054006148
48	0xbd5d1e41	-0.05398393
49	0xbdc0ce52	-0.094143525
50	0x3be02bd8	0.006841164
51	0x3ce44233	0.027863597
52	0x3cc10b28	0.02356489
53	0x3dc9c437	0.09851878
54	0x3d989840	0.074509144
55	0xbcd51e52	-0.026015434
56	0xbd06a76d	-0.032874513
57	0xbd938990	-0.07203972
58	0xbd3f9917	-0.046776857
59	0xbdf9506c	-0.121735424
60	0x3d6ca5d6	0.05777534
61	0x3af64725	0.0018789513
62	0x3d927e9c	0.07153055
63	0x3cc59c2a	0.024122316
64	0x3d962d6b	0.073328815
65	0xbd66c9d3	-0.05634482
66	0xb988910f	-0.00026048018
67	0xbdc9e699	-0.09858436
68	0xbdf829f6	-0.121173784
69	0xbde81ace	-0.113332376
70	0x3e3b6f60	0.18304205
71	0x3e06e888	0.13174641
72	0x3e279cc5	0.16368397
73	0x3d3c621d	0.045992006
74	0x3cf5503b	0.029945483
75	0xbd947cc1	-0.072503574
76	0xbd8eb52e	-0.06968151
77	0xbd0672d0	-0.032824337
78	0xbd87a15e	-0.06622575
79	0xbd1632c9	-0.036669526
80	0xbd59a3a1	-0.053134564
81	0xbd8da072	-0.06915368
82	0x3c42237f	0.011849283
83	0xbd4db680	-0.050222874
84	0x3cbd30ee	0.02309462
85	0xbdb7b325	-0.08969716
86	0xbd517e68	-0.05114594
87	0xbe16ecfe	-0.14738843
88	0xbe1ff929	-0.15622391
89	0xbdca3ef2	-0.09875287
90	0x3dec9441	0.11551715
91	0x3d94adb6	0.07259695
92	0x3e0345a0	0.12819529
93	0x3de20ba5	0.11037377
94	0x3ce5d1d8	0.028054163
95	0xbd281735	-0.041037757
96	0x3d0f023f	0.03491425
97	0xbd55d555	-0.052205402
98	0xbd9dd746	-0.07707076
99	0xbdd82d80	-0.105555534
100	0x3cd034c7	0.025415791
101	0x3d679039	0.056534026
102	0x3d64491f	0.055733796
103	0x3ba0e11d	0.004909648
104	0x3d7c5358	0.06160292
105	0xbd6b28c9	-0.057411943
106	0xbd865431	-0.06559027
107	0xbd9b0ccd	-0.07570801
108	0xbded835f	-0.11597323
109	0xbdbdd210	-0.09268582
110	0x3e345666	0.17611083
111	0x3dd8f703	0.10593989
112	0x3dcaecd5	0.099084534
113	0xbbb06486	-0.005383077
114	0xbc23432f	-0.009964748
115	0xbdacb010	-0.08432019
116	0xbd71ec47	-0.059063222
117	0xbe0889d5	-0.13333829
118	0xbe0b950e	-0.13631079
119	0xbe039dc5	-0.12853153
120	0xbdd4240c	-0.10358438
121	0xbe13285e	-0.14370868
122	0xbdee7600	-0.116436005
123	0xbe0faa4f	-0.14029811
124	0xbdd8b43f	-0.10581254
125	0xbde1b540	-0.11020899
126	0xbdd5c67f	-0.10438251
127	0xbe17ef8c	-0.14837474
128	0xbd9e19d5	-0.07719771
129	0xbde50285	-0.11182121
130	0x3e3c3f7d	0.18383594
131	0x3e10e5d0	0.14150167
132	0x3d89c3fd	0.06726835
133	0x3dda598d	0.10661612
134	0x3c880454	0.016603626
135	0xbc005b90	-0.00783433
136	0xbbcc714c	-0.006239092
137	0xbcfe71b4	-0.031060077
138	0x3d0f34d1	0.03496248
139	0xbbb7dd60	-0.0056111068
140	0xbe0394c5	-0.1284972
141	0xbe51e4b1	-0.20497395
142	0xbdc1d9b2	-0.0946535
143	0xbe05a8a2	-0.1305261
144	0xbd81e71b	-0.06342908
145	0xbd1b7d0e	-0.03796106
146	0x3b3c28ee	0.002871092
147	0x3af8c0c9	0.0018978353
148	0x3cb753d0	0.022378832
149	0xbd8eb4b2	-0.06968059
150	0x3e434635	0.1906975
151	0x3e19733d	0.14985366
152	0x3e1a452a	0.15065446
153	0x3d8a0e33	0.067409895
154	0x3e072874	0.13199025
155	0x3e1678cd	0.1469452
156	0x3e97f4a7	0.29678842
157	0x3e8977dd	0.2684926
158	0x3e8be814	0.273255
159	0x3e465523	0.19368415
160	0xbcb69395	-0.02228717
161	0xbd3e2bb9	-0.046428416
162	0xbc3f3ba4	-0.011671934
163	0xbc9d40c7	-0.019195927
164	0x3d81f2ca	0.063451365
165	0x3df368b4	0.11885205
166	0x3e23e8ad	0.16006728
167	0x3e599647	0.21248733
168	0x3e431065	0.19049223
169	0x3e077e6c	0.1323182
170	0xbde873bf	-0.11350202
171	0xbd7409bd	-0.0595796
172	0xbd08a3b7	-0.033359256
173	0xbdbac846	-0.091202304
174	0xbde00819	-0.109390445
175	0x3e4d0699	0.20022048
176	0x3e8a764a	0.27043372
177	0x3ea824a4	0.32840455
178	0x3ec7da29	0.3903363
179	0x3e8a62c2	0.2702847
180	0x3dff2d75	0.12459842
181	0x3e018584	0.12648588
182	0x3dfe64e7	0.12421589
183	0x3de42b5a	0.11141081
184	0x3e17ca43	0.1482325
185	0x3e20678d	0.15664501
186	0x3e7475f8	0.23873127
187	0x3e406d59	0.18791713
188	0x3e35122e	0.17682716
189	0x3e2ecfc6	0.17071447
190	0xbb9c34d7	-0.004767041
191	0x3ca7a4e3	0.020464366
192	0x3d92ed05	0.07174114
193	0x3d7cbb90	0.06170231
194	0x39b45c3a	0.0003440099
195	0x3e402c63	0.18766932
196	0x3e8f0eb8	0.27940917
197	0x3e8d44b4	0.2759148
198	0x3ea872d0	0.32900095
199	0x3ea22d91	0.3167539
200	0x3d3a1d54	0.045438126
201	0x3d8aa992	0.06770624
202	0x3e10738e	0.1410658
203	0x3dffdb60	0.12493014
204	0x3dc2a2b5	0.0950369
205	0x3e06b0db	0.13153403
206	0x3e52d06d	0.2058732
207	0x3e2f8568	0.17140734
208	0x3e43b038	0.19110191
209	0x3e450bd2	0.1924279
210	0x3d492a93	0.049112868
211	0x3d89935e	0.06717561
212	0xbb99fcb0	-0.004699312
213	0x3bef2749	0.0072983843
214	0x3c64fd8b	0.013976465
215	0x3e8b06fe	0.27153772
216	0x3e96646c	0.2937349
217	0x3e8676c8	0.26262498
218	0x3eaf81d8	0.3427875
219	0x3e861ffa	0.2619627
220	0x3da9e6dd	0.08295987
221	0x3e1a4f71	0.15069367
222	0x3dcc28bf	0.09968709
223	0x3df97ea3	0.12182357
224	0x3d919146	0.07107787
225	0x3e23893b	0.15970318
226	0x3e719644	0.23592478
227	0x3e48ff4c	0.19628638
228	0x3e0f3ea1	0.13988735
229	0x3dcc9536	0.09989397
230	0x3e20ef8e	0.15716383
231	0x3e7b93eb	0.24568145
232	0x3e4d6db0	0.20061374
233	0x3e2b9ebf	0.16759776
234	0x3dcc31c5	0.0997043
235	0x3c07af35	0.008281519
236	0xbc825888	-0.015911356
237	0xbd519eab	-0.05117671
238	0xbdaa9b9b	-0.08330461
239	0xbdd8ff79	-0.105956025
240	0xbde7b39e	-0.11313556
241	0xbe1dca0e	-0.15409109
242	0xbdd80420	-0.10547662
243	0xbda66918	-0.08125514
244	0xbab87cd1	-0.0014075284
245	0xbd94ab73	-0.07259264
246	0xbd81ee97	-0.063443355
247	0xbc7f3411	-0.015576378
248	0xbd04a6ac	-0.032385513
249	0x3c913b5a	0.017728496
250	0x3e06f90b	0.1318094
251	0x3e039355	0.12849171
252	0x3e03b105	0.12860496
253	0x3db3967e	0.087689385
254	0x3d80c836	0.06288187
255	0xbdd1b8f6	-0.102403566

net.0.bias f4 [128]
0	0x3d196e36	0.03745862
1	0xbd056186	-0.03256371
2	0xbc938b49	-0.018010752
3	0xbb5469a9	-0.0032411611
4	0x3e13445b	0.14381544
5	0x3caeb98e	0.021328714
6	0xbc58a9c8	-0.013224073
7	0x3d7b619b	0.06137238
8	0xbe653ff6	-0.2238768
9	0xbd1ffba9	-0.03905836
10	0x3d854306	0.06506924
11	0x3da0f57c	0.078593224
12	0x3d9dd29e	0.07706188
13	0xbbb23aaf	-0.0054391245
14	0xbcfc34bc	-0.030786864
15	0x3d3262f1	0.04355139
16	0x3d590321	0.0529815
17	0xbeb2b313	-0.34902248
18	0xbd987a6e	-0.074452266
19	0xbc92acea	-0.017904717
20	0x3e04c37a	0.12965193
21	0xbde80d5a	-0.113306716
22	0x3dfce169	0.12347681
23	0x3d4a5236	0.04939481
24	0x3da85068	0.08218461
25	0xbc565d76	-0.013083806
26	0xbe9b2166	-0.30298918
27	0x3e4eefe3	0.20208697
28	0x3e6d761f	0.23189591
29	0x3d2ed8b1	0.04268712
30	0xbea45e14	-0.32103026
31	0x3e2031fb	0.15644066
32	0x3e1dd164	0.15411907
33	0xbe023287	-0.12714587
34	0x3df4309e	0.119233355
35	0xbd56455d	-0.052312244
36	0xbe2e2cef	-0.17009328
37	0x3d8da3ff	0.069160454
38	0xbe984c6d	-0.29745808
39	0x3e1d9afb	0.15391152
40	0xbb96ebfa	-0.0046057673
41	0xbe52bcdf	-0.20579861
42	0xbb83693b	-0.004010347
43	0xbe61195e	-0.21982333
44	0xbd28ecdf	-0.041241523
45	0x3d1da92d	0.038491417
46	0x3d910e88	0.0708285
47	0x3e70dc38	0.23521507
48	0x3d0ef1ff	0.034898754
49	0xbd945fd6	-0.07244842
50	0x3d2aaafc	0.04166697
51	0x3ea19083	0.31555566
52	0x3e2d7e05	0.16942604
53	0x3dacd929	0.084398575
54	0xb80d6c54	-3.3717908e-05
55	0xbe591ed1	-0.21203162
56	0x3d784c57	0.06061968
57	0xbd15a088	-0.036530048
58	0xbe8431a3	-0.2581912
59	0xbdd8f5a1	-0.10593725
60	0x3d5c108a	0.05372671
61	0xbd2d9a39	-0.042383406
62	0x3e5c4d27	0.21513806
63	0xbe05fe5d	-0.13085313
64	0xbe7dd227	-0.24787198
65	0x3d95c101	0.07312203
66	0xbe948685	-0.2900888
67	0xbc885a5b	-0.016644647
68	0xbeb51798	-0.35369563
69	0xbdd820e7	-0.105531506
70	0x3db17f08	0.086668074
71	0xbd624c74	-0.055248693
72	0xbea0320b	-0.3128818
73	0xbdb0db2d	-0.086355545
74	0xbb747d16	-0.0037306002
75	0xbcdc2c6c	-0.02687665
76	0xbc29a656	-0.010354599
77	0x3cfc8b4c	0.03082814
78	0xbcca65cd	-0.024706746
79	0xbc19ffb8	-0.009399347
80	0xbdc7f170	-0.097628474
81	0xbd20c4bb	-0.039250117
82	0x3c8946ed	0.016757453
83	0xbdf6763b	-0.120342694
84	0xbe8121a2	-0.25220972
85	0x3d81d8cd	0.063401796
86	0x3d610d6f	0.054944452
87	0x3d6ed934	0.05831261
88	0xbeb0b8c6	-0.3451597
89	0x3e0f616a	0.14002004
90	0xbcfb1a6a	-0.030652244
91	0xb9d147c3	-0.00039917053
92	0xbd0b778b	-0.034049552
93	0xbe490c89	-0.19633688
94	0xbe0ae11c	-0.13562435
95	0x3d604fc4	0.05476357
96	0xbdede4e9	-0.11615927
97	0xba87f9e3	-0.0010374155
98	0xbd1d3e60	-0.038389564
99	0xbb2675df	-0.0025399846
100	0x3deceb6c	0.11568341
101	0xbbc39aea	-0.005969395
102	0xbca16ce7	-0.019705249
103	0xbd67ec0d	-0.0566216
104	0x3da186b6	0.07887022
105	0xbe277e74	-0.16356832
106	0xb9e35068	-0.0004335672
107	0xbec08982	-0.3760491
108	0x3e0ce3e1	0.13758804
109	0x3dfd554c	0.12369785
110	0x3d272a9d	0.040812124
111	0xbd709109	-0.058732066
112	0x3c2a3bce	0.010390235
113	0xbeb20d0e	-0.34775585
114	0xbe09552b	-0.13411395
115	0x3da62468	0.08112413
116	0xbe4e596c	-0.20151299
117	0x3e8c61a0	0.27418232
118	0xbd52d387	-0.05147126
119	0x3db89cbf	0.09014272
120	0xbdf29564	-0.118449
121	0x3dcaab0d	0.098959066
122	0x3d0f1857	0.03493532
123	0xbcc2edeb	-0.023795089
124	0xbea71dfc	-0.32640064
125	0xbd2d0d47	-0.04224899
126	0xbcd70bf8	-0.026250824
127	0xbe114d47	-0.14189635

net.2.weight f4 [128, 128, 5]
0	0xbd9122b4	-0.07086697
1	0xbe0dd4c7	-0.138507
2	0xbe0e2a5d	-0.13883348
3	0xbd4b56eb	-0.04964344
4	0xbd149a8a	-0.036280192
5	0xbe8e04fd	-0.2773818
6	0xbe538326	-0.20655498
7	0xbe7cc93f	-0.24686144
8	0xbe6360a4	-0.22204834
9	0xbe1337af	-0.1437671
10	0xbea84c8d	-0.32870904
11	0xbea142cd	-0.31496277
12	0xbe916617	-0.283982
13	0xbe86a642	-0.2629872
14	0xbe364cc9	-0.17802729
15	0x3e680922	0.22659734
16	0x3e6589a4	0.22415787
17	0x3e736a3f	0.23770998
18	0x3e9b1c0c	0.30294836
19	0x3ea8fb67	0.33004305
20	0xbdfbd1e9	-0.122958966
21	0xbd9d44a3	-0.07679107
22	0xbda96392	-0.08270945
23	0x3c64e6b8	0.013971023
24	0x3de4b04b	0.11166438
25	0x3c33cc47	0.0109739965
26	0x3d3c562a	0.04598061
27	0xbd9f928f	-0.07791626
28	0xbd5f6593	-0.054540228
29	0xbdafd0d4	-0.08584753
30	0xbde39c81	-0.11113835
31	0xbd7daecb	-0.061934274
32	0xbdcc5fad	-0.09979186
33	0xbdb9d423	-0.09073665
34	0xbe0e4da8	-0.13896811
35	0xbd0c18eb	-0.03420345
36	0xbc10c47a	-0.008835906
37	0xbbd96a77	-0.006635006
38	0xbd176bd8	-0.036968082
39	0xbd2b0ca1	-0.04176009
40	0x3e3291de	0.17438456
41	0x3e24f6e9	0.16109814
42	0x3df82900	0.12117195
43	0x3e16dac9	0.14731897
44	0x3dc45264	0.09586027
45	0xbc0263e5	-0.007958387
46	0xbc1e0487	-0.009644634
47	0xbd3caabf	-0.046061274
48	0xbcc4b427	-0.024011685
49	0x3bed2a83	0.007237734
50	0x3b209180	0.0024500787
51	0x3d7fcbf9	0.062450383
52	0x3c0aaf09	0.008464583
53	0xbcf3cc45	-0.02976049
54	0xbd94ab05	-0.07259182
55	0xbe78d674	-0.24300557
56	0xbe50b391	-0.20380999
57	0xbe217f3d	-0.15771194
58	0x3da0d19c	0.0785248
59	0x3e32320f	0.17401908
60	0xbe41d049	-0.1892711
61	0xbe36aae3	-0.17838626
62	0xbde4fae0	-0.11180663
63	0xbd298c82	-0.041393764
64	0x3c57502c	0.013141673
65	0x3e271936	0.16318211
66	0x3e36544e	0.17805597
67	0x3e171931	0.14755704
68	0x3df8f106	0.121553466
69	0x3db4cc8a	0.08828075
70	0x3d4dc8d9	0.05024037
71	0xbbeb5da2	-0.0071827928
72	0xbc382b20	-0.011240751
73	0xbd563e56	-0.052305542
74	0xbc956eac	-0.018241249
75	0xbe076005	-0.13220222
76	0xbe145211	-0.14484431
77	0xbe369806	-0.1783143
78	0x3cb76ddc	0.022391252
79	0x3d3f5aad	0.046717335
80	0xbe742623	-0.23842673
81	0xbe4f51e0	-0.20246077
82	0xbe51d456	-0.20491156
83	0xbe38cfdc	-0.18048042
84	0xbe1caf46	-0.15301237
85	0x3c24ce6a	0.010058979
86	0xbdc21207	-0.09476095
87	0xbe50873a	-0.20364085
88	0xbdfc2efa	-0.123136476
89	0xbd26ae9f	-0.040693875
90	0x3c963548	0.018335953
91	0x3d087d9c	0.033322915
92	0xbcf42058	-0.029800579
93	0xbced3681	-0.028956654
94	0xbc8084bf	-0.015688298
95	0xbdc42951	-0.09578193
96	0xbd74622d	-0.05966394
97	0xbdbcb39c	-0.09213945
98	0xbd532567	-0.05154934
99	0xbd10dcbd	-0.035366762
100	0xbe3871e1	-0.18012191
101	0x3c4fc38b	0.012680898
102	0x3d409210	0.047014296
103	0x3c3f0c4d	0.011660648
104	0xbd640c6b	-0.055675905
105	0xbda86cc3	-0.0822387
106	0xbd61ae29	-0.055097733
107	0xbe4783fa	-0.19483939
108	0xbe55ec6d	-0.2089097
109	0xbe1408ca	-0.14456478
110	0x3d889de7	0.066707425
111	0x3d85cd84	0.065333396
112	0x3d4a3fdc	0.049377307
113	0x3cc0b2cf	0.023522763
114	0x3d89fe39	0.06737942
115	0xbbd18679	-0.006394204
116	0x3e07b995	0.13254388
117	0xbe336b1a	-0.17521325
118	0xbe5a32d7	-0.21308456
119	0xbe87532a	-0.26430637
120	0xbd0f9b4c	-0.035060212
121	0xbdb47b63	-0.08812597
122	0xbd16e97d	-0.036843766
123	0xbdd4eddb	-0.1039693
124	0xbd12651b	-0.035740953
125	0xbec28338	-0.37990737
126	0xbecb6604	-0.3972627
127	0xbea62040	-0.3244648
128	0xbecd45a8	-0.40092206
129	0xbed84bcd	-0.4224533
130	0x3d40aede	0.047041766
131	0x3cd01940	0.025402665
132	0x3ddb0ee7	0.10696202
133	0x3d67f6f6	0.056632005
134	0x3d93b9ad	0.07213149
135	0xbe833da8	-0.25632977
136	0xbe892b3c	-0.26790798
137	0xbea7ea74	-0.3279606
138	0xbe99f3ff	-0.30068967
139	0xbe8fc1f2	-0.28077656
140	0xbe3acae5	-0.1824146
141	0xbe3aac0e	-0.18229696
142	0xbdf87591	-0.12131799
143	0xbdb351a9	-0.0875581
144	0xbddf5da3	-0.10906532
145	0xbd823728	-0.063581765
146	0xbd756be3	-0.059917342
147	0xbd552246	-0.05203464
148	0xbd652140	-0.055939913
149	0xbd0a99f9	-0.033838246
150	0xbd6a8921	-0.057259683
151	0xbd863492	-0.06552996
152	0x3caa2c6b	0.020773133
153	0x3cf5e9cd	0.030018711
154	0xbc772b49	-0.015086004
155	0xbe35851f	-0.17726563
156	0xbe6a71eb	-0.22895019
157	0xbdb5ca61	-0.08876491
158	0xbd0806c8	-0.033209592
159	0x3cc019ff	0.023449896
160	0x3e091765	0.1338783
161	0x3db2cb02	0.08730127
162	0x3e084373	0.1330698
163	0x3dc19f46	0.09454207
164	0x3dc53616	0.09629457
165	0xbe13472f	-0.14382623
166	0xbd8afdca	-0.06786688
167	0xbd374c73	-0.044750642
168	0xbd67294b	-0.056435864
169	0xbda1b4b6	-0.07895796
170	0x3c85dd7d	0.016340965
171	0xbda66b3d	-0.08125923
172	0xbcfcc31f	-0.03085476
173	0x3d8e52c6	0.069493815
174	0x3dd749e5	0.10512141
175	0x3d00d1bf	0.03145003
176	0xbcc0d3e0	-0.02353853
177	0xbcf29ce9	-0.029615836
178	0xbd6c0a54	-0.057627037
179	0xbd79eee2	-0.061018832
180	0x3db18187	0.086672835
181	0xbbee98e5	-0.00728141
182	0x3c8fd946	0.017559659
183	0xbcb531ed	-0.022118533
184	0xbbcca193	-0.006244847
185	0xbe98ca44	-0.29841816
186	0xbe5cad7a	-0.21550551
187	0xbe9f98b4	-0.3117119
188	0xbe5717cf	-0.21005176
189	0xbd52335a	-0.051318504
190	0xbe4083f8	-0.18800342
191	0xbe5f54f8	-0.21809757
192	0xbe91632a	-0.2839597
193	0xbe90e235	-0.28297582
194	0xbe8866d5	-0.26640955
195	0x3c4afc9d	0.012389329
196	0xbb53db1e	-0.003232665
197	0x3d3a0222	0.04541219
198	0x3de3d14f	0.11123907
199	0x3df31bc9	0.11870534
200	0xbcf7999b	-0.030224612
201	0xbd816c8e	-0.06319533
202	0xbda36c6c	-0.07979664
203	0xbd6e7c5f	-0.05822408
204	0xbd1b7a89	-0.037958656
205	0x3d0fe455	0.035129864
206	0xbc016523	-0.007897648
207	0x3d5573df	0.052112456
208	0x3bd6999e	0.0065490743
209	0xbd5a2abd	-0.053263415
210	0xbcbbf411	-0.022943528
211	0xbccd7d51	-0.02508417
212	0xbccc893a	-0.024967778
213	0xbd1f009a	-0.038818933
214	0xbadc7d71	-0.0016822052
215	0xbe738bc0	-0.23783779
216	0xbe80d9cf	-0.25166175
217	0xbe80bbe7	-0.25143358
218	0xbe1bbb7f	-0.15208243
219	0xbd031c02	-0.032009132
220	0x3ce90327	0.028443886
221	0x3bc5bf31	0.0060347547
222	0x3d132bba	0.035930373
223	0x3d53f709	0.051749263
224	0x3d0c7f7a	0.03430126
225	0x3d5a113d	0.053239096
226	0x3d154433	0.036441993
227	0x3db6ad8b	0.089198194
228	0xbc02cc46	-0.007983273
229	0x3c2dad76	0.010600438
230	0xbdf406fc	-0.11915395
231	0xbdb4b6e3	-0.088239454
232	0xbd930b99	-0.071799465
233	0xbdcf4eee	-0.101224765
234	0xbdd5df66	-0.104430005
235	0xbd2d7291	-0.042345587
236	0xbdfa56ba	-0.12223573
237	0xbe0a2e4b	-0.13494222
238	0xbe05cc48	-0.13066208
239	0xbd6af0b7	-0.05735847
240	0xbdc903be	-0.09815167
241	0xbe1c53dc	-0.15266365
242	0xbe1c576a	-0.15267721
243	0xbdb45901	-0.08806039
244	0xbd9586da	-0.073011115
245	0xbc78f469	-0.015194991
246	0x3d84be70	0.064816356
247	0x3b1d082e	0.0023961174
248	0x3d0a1089	0.033707175
249	0x3cd76c06	0.026296627
250	0x3c337692	0.010953562
251	0xbc6b1d63	-0.014350268
252	0x3b5e61ae	0.0033932733
253	0x3cda72b6	0.026666027
254	0x3dbe8bd3	0.09304013
255	0x3c95c47d	0.01828217

net.2.bias f4 [128]
0	0x3d908530	0.070566535
1	0x3decb7da	0.115585044
2	0x3b7583ff	0.003746271
3	0x3ce6d438	0.028177366
4	0x3d306e2c	0.043073818
5	0x3d975031	0.07388342
6	0x3e518a68	0.20462954
7	0x3e0ca75a	0.13735715
8	0xbd8d8f32	-0.06912078
9	0x3df9bcb1	0.12194193
10	0x3db29061	0.08718944
11	0x3e1c2e0c	0.1525194
12	0x3ee39e31	0.44456628
13	0x3e385400	0.18000793
14	0x3da4ff16	0.08056466
15	0xbe0f0d33	-0.13969879
16	0x3dcb63d6	0.099311516
17	0xbd1b6c31	-0.037944976
18	0x3e62ad6a	0.22136465
19	0x3d97ad46	0.07406096
20	0x3dbb2c50	0.09139311
21	0xbd1af87a	-0.037834622
22	0x3ce617f4	0.028087594
23	0x3e85b1e7	0.2611229
24	0x3ccd3c8c	0.025053285
25	0x3d78bf7c	0.06072949
26	0x3c166288	0.009178765
27	0x3dc77abb	0.09740206
28	0x3e2199cb	0.15781324
29	0x3e1f3d9d	0.15550847
30	0xbdd4699e	-0.103717074
31	0xbd88d249	-0.06680734
32	0x3d163972	0.036675878
33	0xbddf5bf5	-0.10906211
34	0xbdabe526	-0.08393316
35	0xbe688773	-0.2270792
36	0x3ce456df	0.027873455
37	0xbcff5689	-0.031169193
38	0xbc7b0f82	-0.015323522
39	0x3e22a037	0.1588143
40	0x3eab0a00	0.33406067
41	0xbe291c49	-0.16514696
42	0x3e9ca1ba	0.30592138
43	0x3dcad63a	0.09904142
44	0x3d1eb601	0.03874779
45	0x3df915b0	0.1216234
46	0xbe147639	-0.14498223
47	0xbe01e325	-0.12684305
48	0x3e9cf6e8	0.30657125
49	0xbeb1d58c	-0.34733236
50	0x3d7b3dab	0.061338108
51	0x3e86c101	0.26319125
52	0x3db761ec	0.08954224
53	0x3e77b31a	0.24189416
54	0x3f031120	0.51198006
55	0xbd9906f3	-0.074720286
56	0xbdaea662	-0.08527829
57	0x3e311811	0.17294337
58	0xbd56f117	-0.052476015
59	0x3bb12af5	0.005406732
60	0xbc658620	-0.014009029
61	0xbcd2b21c	-0.025719695
62	0xbe2a76a6	-0.16646823
63	0x3c1006e3	0.008790704
64	0x3d81862a	0.06324418
65	0xbd5f0d07	-0.054455783
66	0x3de96241	0.113956936
67	0x3e82eaf8	0.25569892
68	0x3e146def	0.14495061
69	0x3e1670d1	0.14691474
70	0x3dbbb7ff	0.09165954
71	0x3e295d50	0.16539502
72	0xbd438013	-0.047729563
73	0x3efa39e0	0.4887228
74	0xbdb654f4	-0.08902922
75	0x3e0342d8	0.12818468
76	0x3e9aa2ad	0.30202237
77	0xbc6cb1c3	-0.014446679
78	0x3d75bd68	0.059995085
79	0xbd1aced0	-0.037794888
80	0xbd516ccc	-0.051129147
81	0x3dde78d0	0.10862887
82	0x3d9a4729	0.07533104
83	0x3e6054ef	0.219074
84	0xbe2523be	-0.16126916
85	0x3dd9c1cb	0.10632666
86	0x3d8aa50a	0.0676976
87	0x3d0600c8	0.03271559
88	0x3d77fa93	0.0605417
89	0x3e330cb9	0.17485322
90	0x3d6ab18b	0.057298224
91	0x3e112493	0.14174108
92	0x3d0cee26	0.034406804
93	0x3e6b2479	0.22963132
94	0x3d94ab01	0.07259179
95	0x3c3144ef	0.010819658
96	0x3e5bef2f	0.2147796
97	0x3e77426a	0.24146429
98	0x3dfd8657	0.12379139
99	0x3e12c693	0.14333563
100	0xbd91211e	-0.07086395
101	0xbec2b6b5	-0.3803002
102	0x3d564f94	0.052321985
103	0x3d1d3d28	0.0383884
104	0x3e79be67	0.24389039
105	0x3e4d73c9	0.200637
106	0xbd94476d	-0.07240186
107	0xbcea5143	-0.028603202
108	0xbe816f32	-0.25280148
109	0x3dac26ef	0.084058635
110	0xbd86a17f	-0.06573772
111	0xbe85225e	-0.26002783
112	0x3d5d7cc4	0.054074064
113	0x3dffd216	0.124912426
114	0x3a3a0c01	0.00070971256
115	0x3e02e35f	0.12782048
116	0x3e69c6dd	0.22829767
117	0x3e01a599	0.12660827
118	0x3d810179	0.06299109
119	0x3de17da0	0.11010289
120	0x3d78a190	0.060700953
121	0x3d008ac7	0.03138235
122	0xbc74a68e	-0.014932288
123	0x3cd406f8	0.02588223
124	0x3e6c666e	0.23085949
125	0xbd855333	-0.065100096
126	0xbe1234e7	-0.14277993
127	0xbe17677e	-0.14785573

fc.weight f4 [4, 128]
0	0xbe4181b6	-0.18897137
1	0x3caf271f	0.02138096
2	0xbe4b19af	-0.19834016
3	0x3d028ccf	0.031872567
4	0x3d82e236	0.063908026
5	0xbdf2c5e8	-0.11854154
6	0x3e4a24ca	0.19740596
7	0xbd353039	-0.04423544
8	0xbe7533cf	-0.23945545
9	0x3dd5abb4	0.104331404
10	0x3e0bfa7a	0.13669768
11	0x3d04f2aa	0.032457985
12	0xbed97965	-0.4247543
13	0xbf5b9c07	-0.85784954
14	0xbec8ad6d	-0.39194813
15	0x3ee31ec0	0.44359398
16	0x3c1fc488	0.009751447
17	0x3d584755	0.052802403
18	0xbe8719ea	-0.26386958
19	0xbe76fc94	-0.24119788
20	0x3ea8db2d	0.32979718
21	0x3ebf3d1a	0.37351304
22	0x3da8b330	0.08237302
23	0x3d912b2d	0.07088313
24	0x3e723c98	0.23655927
25	0xbe9ae7d5	-0.30255
26	0x3d75ead0	0.060038388
27	0x3e41ad09	0.18913664
28	0xbeba024b	-0.36329874
29	0xbe1f0a26	-0.15531215
30	0x3d496917	0.049172487
31	0x3cabb788	0.020961538
32	0x3caf2f99	0.021385001
33	0x3d8f28f7	0.06990235
34	0x3eaa72d2	0.33290726
35	0x3df93250	0.121677995
36	0x3d00cadc	0.03144346
37	0xbc75b5d7	-0.014996967
38	0x3cf2ddf3	0.02964685
39	0x3d4e42a6	0.05035653
40	0xbe654b0f	-0.22391914
41	0x3ee1a970	0.44074583
42	0xbedc24b8	-0.42996764
43	0x3d450977	0.04810473
44	0x3dd656b5	0.10465757
45	0xbcdcc8e6	-0.026951265
46	0x3d7db030	0.061935604
47	0xbca33a43	-0.019925242
48	0x3e5443f9	0.20729055
49	0x3e27d59a	0.16390076
50	0x3d8edd7c	0.069758385
51	0xbe5bf501	-0.2148018
52	0xbc917d70	-0.017760009
53	0xbf0b925d	-0.5452021
54	0xbca0a6cc	-0.019610785
55	0x3e1ff13c	0.15619367
56	0x3e0ac67a	0.13552275
57	0x3c42e635	0.011895706
58	0x395832c8	0.00020618283
59	0x3d00fddf	0.03149211
60	0xbd5a4f02	-0.053298004
61	0xbde9f7b2	-0.11424197
62	0x3c60874e	0.013704134
63	0x3d1b7a8f	0.037958678
64	0x3dce5f13	0.10076728
65	0x3a1ee802	0.00060617935
66	0x3d42b946	0.04753997
67	0xbe126083	-0.14294629
68	0xbcd101aa	-0.025513489
69	0x3d70e50d	0.05881219
70	0xbdd0802b	-0.10180696
71	0xbe8a4177	-0.2700307
72	0x3d9427a2	0.07234122
73	0x3e915c60	0.2839079
74	0x3bbdb4a8	0.005789358
75	0xbdf3b7f5	-0.119003214
76	0xbd75610c	-0.059907004
77	0x3d85d70d	0.06535158
78	0x3d598ad5	0.053110916
79	0x3db16797	0.08662336
80	0xbe87c693	-0.26518688
81	0xbcfc661c	-0.030810408
82	0x3c7aa057	0.015297017
83	0xbec0fba4	-0.37691987
84	0x3e57aac7	0.2106124
85	0xbbd5f689	-0.0065296334
86	0xbf146b42	-0.5797616
87	0x3d83c72f	0.06434476
88	0x3e2311bc	0.15924734
89	0x3df9be31	0.12194479
90	0xbe643d52	-0.22289017
91	0xbb79d909	-0.0038123748
92	0x39a77526	0.00031940005
93	0x3e65afaa	0.22430292
94	0x3d8f6169	0.070010014
95	0xbd44b6ff	-0.04802608
96	0xbe36f25d	-0.17865892
97	0xbf0e7b19	-0.5565658
98	0xbd1f25d7	-0.038854446
99	0x3db5f309	0.08884246
100	0x3e703d6e	0.23460934
101	0x3e4f2765	0.20229872
102	0x3d68f308	0.056872398
103	0x3daf8fda	0.085723594
104	0xbeef3ee4	-0.4672767
105	0xbd62a5d1	-0.055333916
106	0x3e6fb1d7	0.23407684
107	0x3ed446e0	0.41460323
108	0x3eaac0d4	0.3335024
109	0x3e91d988	0.28486276
110	0xbd5a0ad3	-0.05323298
111	0x3e17b188	0.14813817
112	0x3e9abccc	0.30222166
113	0x3de9b720	0.114118814
114	0x3de8329e	0.113377795
115	0x3dc72928	0.09724647
116	0xbe63f8ed	-0.22262926
117	0x3da553ef	0.0807265
118	0xbea8bbd0	-0.3295579
119	0x3b868c08	0.0041060485
120	0x3d20794c	0.039178178
121	0xbdebf3ca	-0.115211084
122	0x3e4f1549	0.20222963
123	0x3d1505f2	0.036382623
124	0xbf059e51	-0.52194697
125	0x3cab8fe0	0.020942628
126	0x3e7d2366	0.24720535
127	0x3e8afd10	0.27146196
128	0x3e479a0c	0.19492358
129	0x3e066368	0.13123858
130	0x3e543d8d	0.20726605
131	0x3e929c93	0.28635082
132	0x3db63c58	0.088982284
133	0x3d9b6cc2	0.07589103
134	0xbe6e21e7	-0.2325512
135	0x3d81822d	0.06323657
136	0x3df65b1f	0.12029099
137	0xbdab623e	-0.083683476
138	0xbe89db66	-0.269252
139	0x3e539b19	0.20664634
140	0x3b89dc7b	0.0042071915
141	0xbe844d07	-0.25840017
142	0xbe6abce8	-0.22923625
143	0xbe273ae6	-0.16331062
144	0x3d8a9a4e	0.067677125
145	0x3d9ffc60	0.078118086
146	0x3d87ebba	0.06636758
147	0x3e9f7aa8	0.31148267
148	0xbebf687f	-0.37384412
149	0xbe801ab8	-0.25020385
150	0x3dcbc4dc	0.09949657
151	0xbeb72ee5	-0.35777965
152	0x3e302a5f	0.17203663
153	0x3ddcc4d5	0.1077973
154	0xbe1518ca	-0.14560238
155	0xbe84e7aa	-0.25957996
156	0x3af20367	0.0018464149
157	0x3e1740ef	0.14770864
158	0x3e75ac9f	0.23991631
159	0xbc3a91a4	-0.0113872625
160	0xbe8e8f3b	-0.2784365
161	0x3e1068d8	0.14102495
162	0xbec5bd12	-0.38620812
163	0xbd66e964	-0.056374922
164	0xbe7aa8e9	-0.24478497
165	0xbb374f9a	-0.002797103
166	0xbee60e43	-0.44932756
167	0x3d2f05c8	0.042730123
168	0x3dca09f2	0.09865178
169	0xbf0c263a	-0.5474583
170	0x3e2f8c5a	0.17143384
171	0xbe8bce9d	-0.2730607
172	0xbe265f6d	-0.1624734
173	0x3e4001a6	0.18750629
174	0x3db55021	0.08853174
175	0x3d23ed94	0.040021494
176	0xbed7e5b1	-0.42167428
177	0x3e3310c6	0.17486867
178	0x3e4a2dac	0.19743985
179	0x3d38f069	0.045151148
180	0x3d86fc94	0.06591144
181	0xbe63aab1	-0.22233082
182	0xbe8db1be	-0.2767467
183	0xbca69932	-0.020336721
184	0xbedfab53	-0.43685398
185	0x3de60af6	0.112325594
186	0x3c99f9b2	0.018795822
187	0xbe35762d	-0.17720862
188	0x3c46d32d	0.012135309
189	0xbe06121b	-0.13092844
190	0x3d50f1b3	0.051011752
191	0x3d04c2fe	0.03241252
192	0x3deec950	0.11659491
193	0xbd901dfa	-0.070369676
194	0x3db8baa3	0.09019973
195	0x3e223a38	0.15842521
196	0x3dca4d69	0.09878046
197	0xbdb0b019	-0.08627338
198	0x3d11ec65	0.035625834
199	0xbc9da36c	-0.019242965
200	0xbdd2cc81	-0.10292912
201	0xbeb47e0d	-0.3525242
202	0xbcef12f2	-0.029183839
203	0x3db992fc	0.09061238
204	0xbda21763	-0.07914617
205	0xbe2853ab	-0.16438167
206	0x3dbf541b	0.09342214
207	0xbe9b04a7	-0.30276987
208	0x3e074b73	0.13212375
209	0x3ca7e9de	0.020497259
210	0xbe3a5cb9	-0.18199433
211	0x3e39140b	0.18074052
212	0x3e070c6a	0.1318833
213	0x3d83d283	0.06436636
214	0xbd79c451	-0.060978238
215	0xbbbeac21	-0.005818859
216	0x3c053714	0.008130807
217	0xbc74be02	-0.0149378795
218	0x3d293936	0.041314326
219	0xbeca2355	-0.3948008
220	0xbe8258a7	-0.2545826
221	0xbe822903	-0.25421914
222	0xbe405b3b	-0.18784802
223	0x3b3fe6b7	0.0029281804
224	0x3dce68a5	0.10078553
225	0x3eaad683	0.33366784
226	0xbe90bc49	-0.2826865
227	0xbe8ff812	-0.2811895
228	0xbe82ad79	-0.25522974
229	0xbdeeadf5	-0.116542734
230	0xbdd729e8	-0.1050604
231	0xbe3b4684	-0.18288618
232	0xbe0fe804	-0.1405335
233	0x3dedcd37	0.11611407
234	0xbc36e5db	-0.0111632
235	0xbe6bfee0	-0.23046446
236	0xbdb126cf	-0.0864998
237	0xbebf6b67	-0.3738663
238	0x3de47778	0.11155599
239	0x3d4f57bf	0.05062079
240	0xbdc8c774	-0.09803668
241	0xbe93aaef	-0.2884135
242	0xbe0059dc	-0.12534279
243	0xbe032a93	-0.1280921
244	0xbebf6896	-0.3738448
245	0xbf02360b	-0.50863713
246	0x3f4539fa	0.7704159
247	0x3dec9f0b	0.115537725
248	0xbdf4b2ee	-0.11948191
249	0xbd46e2b3	-0.04855604
250	0xbe6682c4	-0.2251082
251	0xbd2fda70	-0.042932928
252	0x3db13c19	0.08654041
253	0x3ce6d24d	0.028176451
254	0x3ddfd480	0.10929203
255	0x3e08eb47	0.13371001

fc.bias f4 [4]
0	0xbd2ddcbc	-0.042446837
1	0xbc657a5a	-0.014006222
2	0x3d96cd9d	0.07363436
3	0x3dbcbf46	0.0921617
